HW5_Penguin/Assets/penguin_assets_release_10/onnx/Penguin.onnx (onnx, 305966 bytes, 8 tensors)

distribution.branches.0.bias f4 [2]
-0.023203691 0.023203691
00000000: ab15 bebc ab15 be3c

distribution.branches.0.weight f4 [2, 256]
0.020793369 0.023622321 0.035047233 -0.003986253 -0.0096706 0.012393864 -0.021727307 0.02387981
-0.0034431415 0.01950875 0.03352081 -0.013714504 0.006660388 -0.0057790717 0.015027688 0.03184705
-0.016820598 0.040719282 -0.037486207 0.007231951 -0.036773022 0.01678896 0.008721524 0.016180344
0.0002183586 -0.006553789 0.022665715 0.022681091 -0.005368751 0.01628868 0.021584792 0.002768779
0.027593585 0.042394597 -0.032566965 0.029072732 0.0072957356 -0.0065251263 0.018701682 -0.011913153
0.026883569 -0.003508014 -0.007291791 -0.015792403 -0.0020859141 0.03109447 -0.0060943426 -0.00560857
0.023389976 -0.0044603907 -0.032205638 -0.015906598 -0.009317085 -0.019665798 -0.017158922 0.03728899
0.009424454 0.040825315 0.015131133 0.022351963 0.04968546 0.015236586 -0.02405312 0.004011791
-0.01291766 -0.02807822 -0.008666317 -0.0069416175 -0.014572045 -0.011654448 -0.0025398068 0.028559368
0.032981146 -0.0015356439 -0.0108317 -0.009990868 0.0005670137 0.00051760435 0.003184537 -0.0005713077
0.024776055 0.017871642 0.011942948 0.012250616 -0.0024136074 -0.011523751 -0.017563399 -0.017567892
-0.009717024 0.030908588 0.00073870644 0.02883153 -0.007113331 0.03353601 0.029884817 0.028837096
-0.004466776 -0.029455172 0.028205302 0.04276899 0.006773615 0.017158637 0.019636312 -0.0064670243
-0.00388109 0.010388901 0.009992126 0.006212862 -0.02233222 0.024324814 0.028209852 0.029063627
0.023937315 -0.0023729105 0.0171953 0.022381794 0.024349278 0.019035365 0.045508817 0.024222204
0.010095987 0.031874504 -0.009512395 -0.019344904 0.013318821 0.010631543 -0.012635211 0.0077277594
-0.017492795 -0.0120853735 -0.0071342085 0.029535323 -0.005535785 0.0066907913 -0.009249394 0.008839034
-0.0034348923 -0.003913552 -0.007004789 0.019012874 -0.007088077 0.00061173615 -0.005681949 0.016679468
-0.0003770256 0.020659799 -0.0066026053 0.041001894 0.023585645 0.035935756 0.008079991 0.031453054
0.011981443 -0.017794594 -0.017322069 -0.035382625 -0.009821981 -0.02060669 0.0038337896 0.032418393
0.03147027 0.026755981 -0.037821744 0.031402353 0.02908522 0.020323733 -0.0019524635 0.033319533
0.024989987 0.020853275 -0.0029505123 -0.025530633 0.001249324 -0.01401846 0.04359845 -0.016895674
0.02280211 -0.03792382 0.028229639 0.02118119 0.025892645 0.028939031 0.024484795 0.03920937
0.019285686 -0.024401465 0.0121260835 0.005321375 0.010718075 0.021970838 0.008220124 0.015790889
0.036600422 0.011691716 -0.0154902395 0.0059639765 0.017608127 -0.036833625 0.03236089 -0.05400219
0.029929444 0.041628536 -0.018108344 0.02853637 -0.023827627 0.030853687 -0.0031013065 -0.0292166
0.013002137 0.027560186 -0.009542592 0.03193415 0.010952169 0.016708335 0.029118663 -0.0086530885
0.0019989936 0.026958564 -0.014194674 -0.0060602296 -0.008389284 0.031097235 0.012146914 -0.050681066
-0.009125394 0.029227016 0.041178457 -0.0033639674 0.03692794 0.01570707 -0.008688844 0.026371175
0.025152259 -0.0049973787 -0.030880645 -0.0050937044 0.032182325 0.03327867 -0.012735938 -0.0010180247
0.026083011 0.031961173 0.013696356 -0.0079283565 0.02399071 0.013197912 0.014325886 0.036875967
0.029363811 0.002321635 0.024285486 0.018583613 -0.0012280865 -0.006254351 0.014426479 0.023961611
00000000: db56 aa3c 9983 c13c b08d 0f3d 1d9f 82bb
00000010: 7071 1ebc a20f 4b3c 77fd b1bc 979f c33c
00000020: 54a6 61bb d0d0 9f3c 1e4d 093d cdb2 60bc
00000030: 623f da3b 5e5e bdbb b136 763c 0d72 023d
00000040: 5acb 89bc 43c9 263d 238b 19bd 01fa ec3b
00000050: 4f9f 16bd 0089 893c b9e4 0e3c a48c 843c
00000060: 31f7 6439 2bc1 d6bb 73ad b93c b2cd b93c
00000070: 59ec afbb d66f 853c 97d2 b03c 6774 353b
00000080: f10b e23c f5a5 2d3d f064 05bd f029 ee3c
00000090: 1111 ef3b bad0 d5bb 4534 993c 632f 43bc
000000a0: ee3a dc3c b5e6 65bb faef eebb 125f 81bc
000000b0: d5b3 08bb d4b9 fe3c 0db3 c7bb 18c8 b7bb
000000c0: 569c bf3c 7828 92bb 0fea 03bd 8e4e 82bc
000000d0: b0a6 18bc 2b1a a1bc de90 8cbc 57bc 183d
000000e0: 0669 1a3c 7238 273d 92e8 773c 771b b73c
000000f0: fb82 4b3d e0a2 793c 0c0b c5bc 5875 833b
00000100: 98a4 53bc 4c04 e6bc 2bfd 0dbc 8276 e3bb
00000110: 96bf 6ebc 4cf2 3ebc e372 26bb 56f5 e93c
00000120: 3d17 073d a947 c9ba 7177 31bc bdb0 23bc
00000130: a5a3 143a d7af 073a aab3 503b d0c3 15ba
00000140: 27f7 ca3c 8d67 923c 5bac 433c cfb6 483c
00000150: 9d2d 1ebb 1dce 3cbc 1ee1 8fbc 8aea 8fbc
00000160: 2734 1fbc 0234 fd3c c0a5 413a 1a30 ec3c
00000170: f216 e9bb 0e5d 093d 01d1 f43c c63b ec3c
00000180: 085e 92bb f94b f1bc ce0e e73c 892e 2f3d
00000190: 33f5 dd3b 4590 8c3c 55dc a03c 55e9 d3bb
000001a0: e359 7ebb 3636 2a3c 04b6 233c 4495 cb3b
000001b0: 0ff2 b6bc d544 c73c 5918 e73c d816 ee3c
000001c0: 3018 c43c d582 1bbb 28dd 8c3c 065a b73c
000001d0: 2378 c73c 0ef0 9b3c 7467 3a3d a56d c63c
000001e0: a369 253c d78e 023d e0d9 1bbc 3479 9ebc
000001f0: 2f37 5a3c ec2f 2e3c eb03 4fbc 2539 fd3b
00000200: 0d4d 8fbc bb01 46bc 14c6 e9bb 10f4 f13c
00000210: 8865 b5bb 6d3e db3b c58a 17bc 98d1 103c
00000220: ee1b 61bb 413d 80bb 6e88 e5bb e3c0 9b3c
00000230: 1943 e8bb eb5c 203a a52f babb 61a3 883c
00000240: 85ab c5b9 bd3e a93c ab5a d8bb 9af1 273d
00000250: af36 c13c 5f31 133d f061 043c ebd4 003d
00000260: d04d 443c f8c5 91bc 03e7 8dbc 5fed 10bd
00000270: 60ec 20bc 5ccf a8bc 5140 7b3b 26c9 043d
00000280: f8e6 003d 5c2f db3c f9ea 1abd c19f 003d
00000290: 2144 ee3c f57d a63c cee9 ffba 107a 083d
000002a0: cdb7 cc3c 7dd4 aa3c 625d 41bb 9e25 d1bc
000002b0: 5bc0 a33a afad 65bc 4a94 323d cc68 8abc
000002c0: 7ecb ba3c 0256 1bbd d841 e73c 2d84 ad3c
000002d0: d01c d43c 8c11 ed3c 5694 c83c 019a 203d
000002e0: 04fd 9d3c 95e5 c7bc 7bac 463c ee5e ae3b
000002f0: dd9a 2f3c 30fc b33c b3ad 063c e55b 813c
00000300: 53ea 153d 9c8e 3f3c c6ca 7dbc 766d c33b
00000310: eb3e 903c dbde 16bd da8c 043d 6631 5dbd
00000320: 982e f53c af82 2a3d f357 94bc 1bc5 e93c
00000330: 2832 c3bc dfc0 fc3c 4a3f 4bbb a757 efbc
00000340: ea06 553c e6c5 e13c 8858 1cbc 62cd 023d
00000350: ba70 333c ebdf 883c 438a ee3c afc5 0dbc
00000360: 8c01 033b 35d8 dc3c c790 68bc e494 c6bb
00000370: 3573 09bc a1bf fe3c da03 473c f396 4fbd
00000380: ad82 15bc 7f6d ef3c beaa 283d 0276 5cbb
00000390: c041 173d 1dac 803c a75b 0ebc 5d08 d83c
000003a0: 1c0c ce3c 0dc1 a3bb 68f9 fcbc 17e9 a6bb
000003b0: 9dd1 033d 374f 083d 65aa 50bc 3e6f 85ba
000003c0: 0aac d53c b8e9 023d ae66 603c f0e5 01bc
000003d0: 2a88 c43c 0e3c 583c 1fb7 6a3c 410b 173d
000003e0: 608c f03c 9226 183b 5bf2 c63c a93c 983c
000003f0: bff7 a0ba 4df1 ccbb 0a5d 6c3c 244b c43c

distribution.branches.1.bias f4 [3]
-0.013611926 0.014973066 -0.0027248533
00000000: 8e04 5fbc 9751 753c 7493 32bb

distribution.branches.1.weight f4 [3, 256]
0.0179227 0.0064308066 0.015350717 -0.0065495595 0.01218985 0.0062011597 0.032075275 0.018568862
-0.0072020073 0.020155743 0.017292708 0.008131102 -0.021639435 0.008089858 0.01804421 -0.032370776
0.015309347 0.01172493 -0.0059987814 0.003865502 0.03135539 -0.0033403346 -0.010979953 0.006244678
0.0024369005 0.006094441 0.0028698128 0.020085936 0.0013837782 -0.013855176 0.022670208 -0.0014263707
0.024458084 0.01072313 0.020415593 0.03125152 0.003940322 0.013845675 -0.030286988 -0.0054945387
0.019479334 5.944548e-05 0.0025362226 -0.014558321 -0.00456249 0.018056083 -0.0028051639 0.015557026
0.028789954 -0.01445213 0.022588402 -0.0015257576 -0.011204099 0.008061008 -0.016526038 0.0031869526
-0.016236532 0.020540508 0.016873717 -0.015184941 0.01272974 -0.042649545 -0.004205558 -0.013394061
-0.013327151 0.024367297 -0.011370229 -0.00016226048 0.009343416 0.041761607 -0.02464138 0.015640214
0.00710175 -0.021905242 -0.014491893 -0.037654888 -0.017053325 0.016178396 -0.014960357 0.0025781011
0.004435493 0.006658971 0.010608999 -0.0012598095 0.0060608205 0.014780211 0.0024090826 0.018959248
0.017786704 0.026515996 -0.011794027 0.011812598 0.007975073 0.024545008 -0.04307618 0.014098074
-0.0060921223 0.014854439 0.011404953 0.021273762 0.008877674 0.0039207973 0.01481224 0.00013377555
0.004759782 0.006982226 -0.02453732 -0.017184751 0.041027877 0.004296099 0.009655164 0.016091727
0.01967714 -0.010431302 0.009930885 0.006209591 -0.01565328 0.013826952 -0.006206481 0.020718992
0.016911149 0.02818594 0.004593197 0.013232237 -0.007637463 0.0014946096 0.008391017 -0.0035119345
0.0042104544 -0.010831724 0.0039383597 0.01023471 0.01885404 -0.022652479 -0.009007502 -0.041943055
0.00550464 -0.010992192 -0.0032057078 0.011445985 -0.0021766385 -0.009725052 -0.029149594 -0.032432515
0.024910837 -0.03765258 -0.0011973056 0.033156313 0.00031431246 0.018028835 0.0029618812 -0.018261844
-0.03915977 0.010037215 0.010221676 -0.0003877592 0.0035417036 0.015967801 0.007874874 0.009641598
0.0118097 0.021459026 0.0043174825 0.017687624 -0.056077406 -0.011749222 -0.010194352 -0.017362604
-0.027411329 -0.014209303 -0.010970847 0.0173386 -0.022602158 -0.013518421 0.020053253 0.01615652
0.00911356 -0.019879458 -0.022386413 -0.016305279 -0.03614585 0.017948477 0.017101318 0.018004216
-0.016125245 -0.016612325 -0.019920712 0.011431788 0.017289948 0.017189985 0.031268097 0.0024084917
0.01615 -0.017934872 -0.027840383 0.016020007 0.019558517 0.024578001 0.015344017 0.011442815
-0.005632595 0.007222546 0.007918066 0.0074835047 0.013155369 0.012488184 0.0043848017 0.039101437
0.008863809 0.0045315693 0.004983535 0.016979903 -0.009318213 -0.017102916 0.03197591 -0.0044320174
-0.0037452825 0.029138297 0.011492544 0.04271526 0.0043566395 0.01917635 -0.0032749265 0.022897087
-0.007098045 0.0075310715 0.030415446 -0.024782807 0.012641177 -0.012270892 0.01373784 0.015606744
0.017237538 0.0051756436 0.00050259125 0.014509228 0.028752234 -0.03145123 0.013300119 0.0073969946
0.01080558 0.008024519 -0.0033732057 0.02603604 0.005996459 -0.005409089 0.018999798 0.011096331
0.021518074 -0.025211751 0.018765017 0.029731268 -0.028439783 -0.023912843 -0.021859152 0.026837124
00000000: a0d2 923c 84b9 d23b 9381 7b3c b09d d6bb
00000010: f0b7 473c 1933 cb3b 5d61 033d ba1d 983c
00000020: d1fe ebbb a81d a53c 70a9 8d3c 5038 053c
00000030: 2f45 b1bc 538b 043c 73d1 933c 3897 04bd
00000040: 0ed4 7a3c ec19 403c 6d91 c4bb 5d54 7d3b
00000050: 826e 003d 84e9 5abb 43e5 33bc 28a0 cc3b
00000060: 68b4 1f3b e0b3 c73b 7813 3c3b 438b a43c
00000070: e45f b53a d200 63bc dfb6 b93c 0ff5 baba
00000080: 525c c83c 11b0 2f3c 9a3e a73c 9801 003d
00000090: d11d 813b f8d8 623c 6b1c f8bc 880b b4bb
000000a0: 2093 9f3c 1955 7938 c136 263b 0686 6ebc
000000b0: f180 95bb 5aea 933c d7d6 37bb e5e2 7e3c
000000c0: e9d8 eb3c a0c8 6cbc 500b b93c eefb c7ba
000000d0: 6691 37bc 5112 043c 9d61 87bc 31dc 503b
000000e0: 7a02 85bc 9144 a83c c03a 8a3c 42ca 78bc
000000f0: 6690 503c 4ab1 2ebd c7ce 89bb c372 5bbc
00000100: 1f5a 5abc ed9d c73c 324a 3abc 7724 2ab9
00000110: 2115 193c 380e 2b3d b8dc c9bc e81f 803c
00000120: ccb5 e83b 9f72 b3bc 686f 6dbc 033c 1abd
00000130: 6ab3 8bbc 8e88 843c 491c 75bc 5cf5 283b
00000140: 9d57 913b 7f33 da3b 5ed1 2d3c 3120 a5ba
00000150: d999 c63b b328 723c b3e1 1d3b 6d50 9b3c
00000160: 6cb5 913c 1338 d93c bc3b 41bc a189 413c
00000170: e1a9 023c 9d12 c93c a670 30bd 9cfb 663c
00000180: 6da0 c7bb 0860 733c d7db 3a3c 5046 ae3c
00000190: aa73 113c 087a 803b 0aaf 723c 1a46 0c39
000001a0: f2f7 9b3b 28cb e43b 7d02 c9bc 09c7 8cbc
000001b0: d90c 283d 4ac6 8c3b b130 1e3c ccd2 833c
000001c0: f431 a13c 0de8 2abc 27b5 223c d379 cb3b
000001d0: 4f3b 80bc 718a 623c bc5f cbbb e0ba a93c
000001e0: 4089 8a3c 33e6 e63c 8782 963b 06cc 583c
000001f0: af43 fabb c7e6 c33a 7a7a 093c 7c28 66bb
00000200: daf7 893b 8b77 31bc 5b0d 813b 7caf 273c
00000210: ca73 9a3c b191 b9bc 3494 13bc 7bcc 2bbd
00000220: 4460 b43b 9818 34bc da16 52bb f187 3b3c
00000230: efa5 0ebb d355 1fbc 21cb eebc f5d7 04bd
00000240: d011 cc3c 9739 1abd e9ee 9cba eace 073d
00000250: 4eca a439 35b1 933c 1f1c 423b dd99 95bc
00000260: ff65 20bd 2273 243c d178 273c 294c cbb9
00000270: ed1b 683b e8ce 823c 9e05 013c cbf7 1d3c
00000280: 797d 413c d7ca af3c ab79 8d3b a3e5 903c
00000290: 6cb1 65bd cf7f 40bc 3606 27bc 053c 8ebc
000002a0: b98d e0bc 23ce 68bc 11bf 33bc ae09 8e3c
000002b0: 2928 b9bc 5e7c 5dbc b846 a43c ae5a 843c
000002c0: 0b51 153c 3fda a2bc b663 b7bc a692 85bc
000002d0: ac0d 14bd af08 933c 1018 8c3c 947d 933c
000002e0: 1719 84bc 9216 88bc c330 a3bc 654c 3b3c
000002f0: a6a3 8d3c 03d2 8c3c fa12 003d c9d7 1d3b
00000300: 014d 843c 27ec 92bc 8411 e4bc 643c 833c
00000310: 2f39 a03c ce57 c93c 7965 7b3c a57a 3b3c
00000320: a291 b8bb 1bab ec3b c7ba 013c 3038 f53b
00000330: 9e89 573c 3d9b 4c3c 62ae 8f3b d428 203d
00000340: 8239 113c 8f7d 943b ec4c a33b 7019 8b3c
00000350: 6bab 18bc 6a1b 8cbc 2cf9 023d 753a 91bb
00000360: 6a73 75bb 70b3 ee3c 394b 3c3c 32f6 2e3d
00000370: 24c2 8e3b b917 9d3c 26a0 56bb ac92 bb3c
00000380: b896 e8bb 35c7 f63b d029 f93c 5005 cbbc
00000390: f01c 4f3c da0b 49bc ad14 613c 6eb3 7f3c
000003a0: bd35 8d3c 7298 a93b 54c0 033a 1db8 6d3c
000003b0: ce89 eb3c 01d3 00bd bee8 593c 7d62 f23b
000003c0: e309 313c 4679 033c 0011 5dbb 8949 d53c
000003d0: f27d c43b ba3e b1bb 77a5 9b3c 63cd 353c
000003e0: ac46 b03c e088 cebc 18b9 993c fd8e f33c
000003f0: 8cfa e8bc dee4 c3bc f711 b3bc 87d9 db3c

network_body.linear_encoder.seq_layers.0.bias f4 [256]
0.008992509 0.018982746 0.008588818 0.03531169 -0.06456112 -0.010504829 -0.009917672 -0.010312699
-0.0007384708 0.008491786 -0.0047538118 0.02222836 0.00718939 0.0063858815 0.012906439 0.028488275
-0.012670208 -0.0010224757 0.0140896775 0.008666176 -0.021553472 0.013176824 -0.008778079 -0.0021278614
0.073009886 0.06509408 -0.026658943 -0.030534381 -0.022528842 -0.025749842 0.02659624 -0.015234952
-0.012263316 -0.0031082935 -0.012871892 -0.043832026 -0.00078594545 0.04184708 0.031188551 0.039635923
0.009042965 -0.0071779257 0.06113806 0.02478348 0.0075298985 -0.061643083 -0.00799789 0.020992452
0.0034088334 0.024533397 -0.033312876 -0.04525606 0.017541265 0.068161026 0.011631943 0.044486266
-0.0035716235 -0.025369905 0.011326916 -0.027665462 0.0026624526 0.00037189384 -0.033161946 0.01850185
0.04631506 -0.004517724 -0.05513386 -0.0011117087 -0.023908457 -0.001474 0.03257117 0.01370519
-0.0044542686 0.03836506 0.0054412615 0.00085931254 0.009496691 0.03754593 -0.07108999 0.039238557
0.018917374 0.004707737 -0.0021123227 0.03584546 -0.018356754 -0.019742955 -0.007646463 0.0066321264
0.03825656 0.012706457 -0.0052497773 -0.022085086 -0.00012837283 -0.00048217326 -0.017830623 0.03533463
0.018437708 0.0026994096 0.02049149 -0.023975912 0.031154929 -0.007327496 -0.01526652 0.030328296
0.031698752 0.014941416 -0.033287756 0.045296703 0.0401193 -0.027081229 0.0042680744 0.034095097
-0.04615032 -0.027383262 -0.02633054 0.034245662 -0.0008152942 0.04939719 -0.0023059356 0.004362439
0.020289855 -0.005449163 -0.03413939 -0.04132271 -0.0003104974 0.0052965893 -0.0063771997 0.024768196
0.013185993 -0.005307357 0.0019005726 0.012810572 0.00046700748 -0.05771173 0.023042565 -0.047786973
0.0009976934 -0.00625267 -0.0049322713 0.050455663 0.027220054 -0.029507533 0.011300862 0.022825964
0.054710627 0.078739285 0.049493052 -0.008419107 -0.0022765396 0.009167513 -0.018928947 -0.069328114
0.022070695 -0.015631562 0.0061185854 0.026342036 -0.022957403 -0.015153764 0.018122977 0.038669147
0.015493013 0.022232063 0.004848592 0.0058773668 0.013585122 0.012722093 -0.01645827 -0.037745677
-0.012356358 -0.002732013 0.02642086 0.026045777 -0.014532921 -0.027039148 -0.04886051 -0.017265832
0.008847616 0.01614843 0.011154533 0.0027079296 -0.08035648 -0.010308772 0.020460919 0.014902737
0.00920457 0.015982617 0.029776622 0.019563245 -0.021682862 0.030800797 0.00092035404 0.013282381
-0.0049239867 0.021202818 -0.0018747402 -0.007948909 0.0025350258 0.0016245604 0.0057193427 0.0070184153
0.019138115 0.014818347 -0.016672721 0.02592365 -0.021957783 -0.0470233 -0.07755101 -0.0015616172
-0.043915376 0.028763797 0.037373766 -0.014672008 -0.036334537 -0.054521695 -0.0036294174 -0.031290874
-0.005843584 0.004925724 -0.061757088 0.013030231 -0.01394489 0.015030506 0.009170856 0.025064172
-0.012339221 -0.0320881 -0.06015112 0.018316666 0.08408668 0.038581956 0.056632932 0.0075080288
-0.012078079 -0.020948691 0.0024492787 0.017543508 0.0020310583 0.004837189 0.020552361 0.023358086
0.007822302 0.0019756118 0.012779775 -0.019373657 0.004153671 0.021788632 0.008783514 0.023271948
0.05234865 0.045911983 -0.013093794 -0.0018370881 0.03214771 0.034018595 -0.015086769 0.047778014
00000000: 5155 133c b481 9b3c 1db8 0c3c fea2 103d
00000010: 9f38 84bd 721c 2cbc bb7d 22bc 98f6 28bc
00000020: f095 41ba 2221 0b3c ddc5 9bbb 4018 b63c
00000030: f994 eb3b a840 d13b 8775 533c 3e60 e93c
00000040: b496 4fbc 9704 86ba 64d8 663c 94fc 0d3c
00000050: e890 b0bc 9be3 573c efd1 0fbc 9773 0bbb
00000060: 3586 953d 0c50 853d db63 dabc 3d23 fabc
00000070: 688e b8bc 55f1 d2bc 5ce0 d93c 059c 79bc
00000080: 13ec 48bc 83b4 4bbb a1e4 52bc 3689 33bd
00000090: e807 4eba d867 2b3d 227f ff3c 4759 223d
000000a0: f228 143c ce34 ebbb e76b 7a3d ba06 cb3c
000000b0: 5ebd f63b 757d 7cbd 9509 03bc 5df8 ab3c
000000c0: bc66 5f3b 43fa c83c 1573 08bd 6b5e 39bd
000000d0: b3b2 8f3c 0298 8b3d e893 3e3c 3b37 363d
000000e0: e611 6abb 8cd4 cfbc 8794 393c aea2 e2bc
000000f0: 8b7c 2e3b bffa c239 d2d4 07bd 3191 973c
00000100: dcb4 3d3d 6a09 94bb 0bd4 61bd c1b6 91ba
00000110: abdb c3bc 3c33 c1ba 5969 053d bc8b 603c
00000120: 1df5 91bb ae24 1d3d 9c4c b23b 7d43 613a
00000130: 0298 1b3c c3c9 193d a197 91bd 9cb8 203d
00000140: 9cf8 9a3c 5c43 9a3b e56e 0abb b0d2 123d
00000150: e760 96bc fabb a1bc 2e8f fabb 4f52 d93b
00000160: e9b2 1c3d be2e 503c 5306 acbb c8eb b4bc
00000170: d29b 06b9 33cc fcb9 8711 92bc 0cbb 103d
00000180: ad0a 973c 94e8 303b c5dd a73c 2269 c4bc
00000190: 9f38 ff3c 7e1b f0bb 6d20 7abc 0c73 f83c
000001a0: 8dd6 013d d7cc 743c be58 08bd 0989 393d
000001b0: 2354 243d 74d9 ddbc 34db 8b3b 4da7 0b3d
000001c0: 1e08 3dbd dd52 e0bc 25b3 d7bc 2e45 0c3d
000001d0: 78b9 55ba b554 4a3d 2e1f 17bb caf2 8e3b
000001e0: e936 a63c e48e b2bb bfd5 0bbd 0142 29bd
000001f0: 41ca a2b9 038f ad3b d4f7 d0bb ace6 ca3c
00000200: 100a 583c 56e9 adbb a21c f93a 6fe3 513c
00000210: afd8 f439 2363 6cbd c3c3 bc3c 46bc 43bd
00000220: 09c5 823a 33e3 ccbb e49e a1bb 99aa 4e3d
00000230: 97fc de3c c8b9 f1bc 4027 393c 84fd ba3c
00000240: 4018 603d 1042 a13d 3ab9 4a3d 4bf0 09bc
00000250: ff31 15bb 5633 163c e110 9bbc e6fb 8dbd
00000260: 9acd b43c c30d 80bc 6a7e c83b 41cb d73c
00000270: 2a11 bcbc 7e47 78bc a376 943c 8a63 1e3d
00000280: 68d6 7d3c 0420 b63c f0e0 9e3b ed96 c03b
00000290: 2294 5e3c 5370 503c 7ed3 86bc 369b 1abd
000002a0: 5272 4abc 920b 33bb 8f70 d83c f45d d53c
000002b0: 7d1b 6ebc 3481 ddbc f521 48bd 1371 8dbc
000002c0: 97f5 103c b649 843c 81c1 363c 8577 313b
000002d0: f091 a4bd 20e6 28bc a89d a73c 9c2a 743c
000002e0: c4ce 163c faed 823c 1aee f33c 1943 a03c
000002f0: 42a0 b1bc f451 fc3c ea43 713a 589e 593c
00000300: 6559 a1bb 88b1 ad3c d8b9 f5ba 243c 02bc
00000310: ad22 263b 34ef d43a 5369 bb3b bcfa e53b
00000320: 89c7 9c3c a7c8 723c 3b95 88bc d65d d43c
00000330: cfe0 b3bc 819b 40bd 10d3 9ebd 2eaf ccba
00000340: 9ce0 33bd 0ea2 eb3c 3c15 193d dd62 70bc
00000350: 86d3 14bd 2452 5fbd 85db 6dbb dc2a 00bd
00000360: 897b bfbb f867 a13b 00f5 7cbd c07c 553c
00000370: 1c79 64bc 8342 763c 5c41 163c 6153 cd3c
00000380: 722a 4abc d06e 03bd 0561 76bd d50c 963c
00000390: a335 ac3d 1d08 1e3d eff7 673d e905 f63b
000003a0: 23e3 45bc 979c abbc 1484 203b 67b7 8f3c
000003b0: 811b 053b 4881 9e3b 6d5d a83c 7559 bf3c
000003c0: 1d29 003c 4479 013b 4362 513c 81b5 9ebc
000003d0: 851b 883b 137e b23c bae8 0f3c d0a4 be3c
000003e0: 8a6b 563d 340e 3c3d 5a87 56bc 73ca f0ba
000003f0: 51ad 033d 1557 0b3d 7f2e 77bc e1b2 433d

network_body.linear_encoder.seq_layers.0.weight f4 [256, 33]
0.3334581 -0.10881965 0.1989986 0.11134881 -0.00589308 -0.48805934 -0.3593003 0.043906383
-0.12794445 0.18731005 0.09508734 0.21065626 -0.015569995 0.14730287 0.0177909 -0.1856911
-0.08343268 0.080487855 0.1028039 0.046946496 0.0532862 0.29977432 -0.17516574 0.13747296
0.025904818 -0.08174534 0.12420752 0.075518966 0.08200129 0.1495797 -0.342516 -0.16823144
-0.1575191 -0.008541937 -0.03674477 0.022912787 0.0092588905 0.106366314 0.1659575 -0.09394955
-0.025298519 -0.15751694 0.26304734 -0.13792735 -0.0554537 -0.3054945 0.14526632 0.27762207
-0.15565051 0.13856803 0.5995048 -0.08048376 -0.12404086 -0.17465323 0.23626137 -0.21574415
0.16805811 -0.15936251 0.09635141 -0.027281044 -0.4471195 -0.1257739 -0.19427997 0.047919262
-0.12158112 0.36951196 0.083652146 0.0019546752 -0.117728315 0.012303782 -0.039841462 -0.018180788
-0.056602497 0.19439173 -0.2335458 -0.10264784 -0.22046769 0.00671271 -0.27154487 0.04974885
-0.23356566 -0.07145725 0.18417424 -0.0957141 0.009521464 -0.29078242 -0.08297573 0.049747653
0.032341447 -0.08282039 -0.025923073 -0.12714364 0.10546176 0.073053196 -0.10929207 -0.3128251
-0.38816798 -0.06800337 -0.14509858 0.12269793 0.013430423 0.08395052 -0.21471329 0.19484141
0.18434685 0.17692132 -0.5045068 0.00056725624 0.02026319 -0.5568727 -0.08270161 0.17215548
0.16612974 0.35240406 -0.22726732 -0.06479711 -0.096178144 0.32791555 0.16245253 -0.008739372
0.089664504 0.01695876 0.20915553 0.38708705 0.13194582 -0.021843417 0.1334097 0.23625927
-0.099487096 -0.11955538 -0.11312987 0.26866844 0.17824608 0.16374558 -0.21759251 0.22090672
0.2058802 -0.1037101 -0.06391292 -0.33307546 0.06226659 -0.10315523 -0.21907707 -0.21890335
-0.023251552 -0.23349044 0.03063074 -0.38253078 -0.27922535 0.12824331 0.03670416 0.030947188
0.10391969 0.14596106 -0.16282149 -0.4385055 0.0072594807 -0.3644753 -0.15176758 -0.3263169
-0.030399026 -0.095729515 0.068477966 0.43223098 -0.020598132 0.1590783 -0.09146257 -0.084614605
-0.043073375 -0.04795133 -0.23670231 -0.013390773 -0.12630047 0.030803915 -0.022904547 0.041289873
-0.49248314 0.15580913 -0.20453085 -0.15739755 0.07493446 -0.15772752 -0.12436755 -0.18308209
0.05052592 0.3958288 -0.02139928 0.1780353 0.13761073 0.33156338 -0.2408232 0.16847098
0.07286397 0.1320009 -0.16096447 0.015227174 -0.0034593048 -0.071560994 -0.013586349 0.20237677
0.072289124 -0.10487452 -0.30480286 -0.009662273 -0.09279869 0.22173384 -0.018671565 0.0025935718
-0.21529205 0.11506894 -0.11721479 -0.13046744 -0.14783844 0.13433671 0.12581773 -0.1512364
0.24055482 0.06738067 -0.15714556 -0.042722095 0.00075821276 0.14153148 -0.22232589 0.36219454
0.06027941 -0.080749564 0.16018015 -0.29806 0.11995616 -0.049560763 0.004820944 0.09956499
-0.058989517 0.015922263 -0.035491735 0.008777622 0.12771223 -0.029655963 0.023535136 0.0689552
-0.016246837 -0.26466078 0.111175366 -0.008145263 -0.15185367 0.048099462 0.05567557 0.003365601
-0.122270025 0.2399891 -0.18947674 0.006462501 -0.21845862 0.432974 -0.017221596 -0.012831561
00000000: 05bb aa3e d6dc debd 4ac6 4b3e d80a e43d
00000010: bd1a c1bb eae2 f9be 35f6 b7be 2ed7 333d
00000020: df03 03be 35ce 3f3e 27bd c23d 46b6 573e
00000030: 4b19 7fbc 90d6 163e 39be 913c cf25 3ebe
00000040: c1de aabd d1d6 a43d da8a d23d f84a 403d
00000050: a142 5a3d 057c 993e a65e 33be b6c5 0c3e
00000060: 5736 d43c 1a6a a7bd 8360 fe3d b0a9 9a3d
00000070: 4bf0 a73d 6c2b 193e 425e afbe dd44 2cbe
00000080: b04c 21be 7bf3 0bbc af81 16bd 99b3 bb3c
00000090: 9ab2 173c 95d6 d93d c3f0 293e 9f68 c0bd
000000a0: d73e cfbc 1f4c 21be 24ae 863e d43c 0dbe
000000b0: 6b23 63bd c669 9cbe b2c0 143e 7b24 8e3e
000000c0: d962 1fbe c7e4 0d3e 2679 193f abd4 a4bd
000000d0: 2209 febd 4cd8 32be 80ee 713e 09ec 5cbe
000000e0: 6d17 2c3e ed2f 23be e353 c53d 7f7c dfbc
000000f0: d9ec e4be e0ca 00be 54f1 46be fd46 443d
00000100: 86ff f8bd ac30 bd3e d151 ab3d 021a 003b
00000110: 8b1b f1bd cd95 493c cd30 23bd e0ef 94bc
00000120: 05d8 67bd a00e 473e a126 6fbe 0839 d2bd
00000130: 48c2 61be 4bf6 db3b ee07 8bbe 73c5 4b3d
00000140: d62b 6fbe 2e58 92bd 2c98 3c3e c105 c4bd
00000150: eaff 1b3c 6fe1 94be 2eef a9bd 32c4 4b3d
00000160: 7778 043d bd9d a9bd a05c d4bc f131 02be
00000170: 56fc d73d ea9c 953d 85d4 dfbd 9d2a a0be
00000180: f4bd c6be 5a45 8bbd b994 14be 0d49 fb3d
00000190: 470b 5c3c 40ee ab3d cddd 5bbe 8284 473e
000001a0: 6cc5 3c3e dd2a 353e 5c27 01bf ecb3 143a
000001b0: fdfe a53c 368f 0ebf 765f a9bd 8749 303e
000001c0: ea1d 2a3e 4e6e b43e c4b8 68be 59b4 84bd
000001d0: 0cf9 c4bd 8ce4 a73e f559 263e 952f 0fbc
000001e0: 06a2 b73d 19ed 8a3c de2c 563e 4630 c63e
000001f0: ce1c 073e f7f0 b2bc 8d9c 083e f3ed 713e
00000200: e4bf cbbd 73d9 f4bd a2b0 e7bd e98e 893e
00000210: 2486 363e ecac 273e 92d0 5ebe 5f35 623e
00000220: 42d2 523e f665 d4bd c7e4 82bd de88 aabe
00000230: 400b 7f3d 0d43 d3bd bd55 60be 3328 60be
00000240: 0a7a bebc 1e18 6fbe 51ed fa3c 13db c3be
00000250: a0f6 8ebe 3752 033e 1a57 163d f584 fd3c
00000260: d9d3 d43d d176 153e adba 26be cb83 e0be
00000270: f0e0 ed3b 829c babe f668 1bbe 0213 a7be
00000280: 6107 f9bc d60d c4bd 2d3e 8c3d 614d dd3e
00000290: 6abd a8bc 6ce5 223e ba50 bbbd 6c4a adbd
000002a0: b56d 30bd 9d68 44bd 1762 72be f964 5bbc
000002b0: e954 01be 7e58 fc3c 51a2 bbbc 921f 293d
000002c0: c026 fcbe 6e8c 1f3e 8970 51be d32c 21be
000002d0: 3d77 993d 5383 21be 6ab4 febd df79 3bbe
000002e0: 44f4 4e3d 13aa ca3e 8b4d afbc e34e 363e
000002f0: d4e9 0c3e adc2 a93e 5b9a 76be a883 2c3e
00000300: b539 953d 3e2b 073e dfd3 24be 667b 793c
00000310: 81b5 62bb 928e 92bd 4799 5ebc db3b 4f3e
00000320: 520c 943d 74c8 d6bd 1f0f 9cbe 834e 1ebc
00000330: 3d0d bebd 320e 633e 1cf5 98bc eaf8 293b
00000340: 8575 5cbe 44a9 eb3d 4f0e f0bd 4299 05be
00000350: f662 17be 908f 093e 5dd6 003e b7dd 1abe
00000360: 0154 763e e0fe 893d c4ea 20be 5dfd 2ebd
00000370: ccc2 463a a1ed 103e 66a9 63be 9071 b93e
00000380: 8be7 763d 0760 a5bd 4406 243e 529b 98be
00000390: 93ab f53d 3a00 4bbd 02f9 9d3b bbe8 cb3d
000003a0: fe9e 71bd 686f 823c c85f 11bd 04d0 0f3c
000003b0: ffc6 023e 10f1 f2bc c2cc c03c 6238 8d3d
000003c0: 1618 85bc 9e81 87be e9af e33d b673 05bc
000003d0: 877f 1bbe f103 453d 110c 643d 6a91 5c3b
000003e0: b568 fabd b4bf 753e 3106 42be 63c3 d33b
000003f0: 9eb3 5fbe c5ae dd3e 4e14 8dbc 783b 52bc

network_body.linear_encoder.seq_layers.2.bias f4 [256]
-0.011645427 -0.0029508236 0.008371645 0.012927091 -0.0063451426 -0.025895184 0.015060925 -0.028750818
0.007762167 -0.011427965 -0.0067084045 0.004823254 -4.858636e-05 0.012656793 0.03049829 0.02974512
0.019417496 -0.0011180205 0.0243031 -0.029481055 0.015404216 0.0036703502 0.019352758 -0.004863609
0.012696773 -0.0065440144 0.0017435487 -0.031456545 0.012573015 0.001278383 -0.014339844 -0.005521038
-0.01722568 -0.0146317175 0.0027581665 -0.0022977209 -0.009975082 -0.0018640517 0.017655095 0.016980544
-0.010140717 0.007128203 0.0027426318 0.020859215 -0.00055748876 -0.017744288 0.022468897 -0.002345358
-0.0014927038 0.015906757 0.009424046 0.034032784 0.008635537 0.0260102 0.026388103 -0.025248166
0.026628414 -0.014947184 -0.03871261 -0.003972302 -0.0056133773 0.0117508825 0.03150778 0.008355535
-0.002765431 0.024248822 0.013371796 0.0077724215 0.0015393117 0.019216051 0.02502806 -0.028233042
-0.0043447143 0.031969093 0.015926536 0.02238032 0.0018665332 0.016906142 0.00053442793 0.0117645115
0.0062163016 -8.339467e-06 -0.034098662 0.0060651624 0.0053282813 -0.0030276955 0.0035872695 0.012801388
-0.0014151419 -0.009361761 0.006024886 -0.013625234 0.024738614 -0.0041991463 0.011982072 -0.01817244
0.0041359514 0.009418107 -0.036975935 -0.007501171 -0.012785684 0.011121396 -0.003022712 0.027466781
0.008350969 -0.001007945 0.0051129633 0.02388513 0.0045638876 0.0010248466 -0.019887105 -0.021880578
-0.018459827 -0.010986043 -0.023583474 -0.014186576 0.0055105984 -0.044980105 -0.0022416865 0.00031973026
-0.006282373 -0.009370784 0.0152748935 0.0020902117 -0.015189903 -0.0024477774 -0.0017011263 -0.0072242143
0.013871008 0.01041229 0.004333243 0.0070051174 0.0328421 0.029937232 0.017795473 0.0023216244
-0.0030399992 0.017634863 0.008028394 -0.009623906 0.0033263701 -0.00055828533 0.0046799257 0.032474186
0.011756764 0.011128203 -0.008876211 -0.015453125 0.03564132 -0.010067139 0.02046236 0.005489545
0.012070663 0.016607575 0.0054615815 0.026536075 0.0023050462 0.0069957394 -0.008067704 -0.010312655
-0.028838247 -0.014109569 0.015965674 -0.019795367 0.021298595 -0.00017944202 0.016702358 0.0110367825
0.012877451 0.030298293 0.00036022434 0.04324218 0.012938564 0.012586567 -0.005772317 0.018324759
-0.009123308 0.044806514 0.011322194 0.003260429 0.020294711 -0.01095974 -0.016406253 -0.0057379617
-0.0035805302 0.0034786097 0.0213481 0.009890392 -0.01084111 -0.02469375 -0.013791979 0.0011335115
-0.014771183 0.02755648 0.012967919 0.003534212 -0.030080805 0.038846485 -0.038937986 0.020478487
0.0008156608 -0.010191312 0.017188065 -0.019280648 0.004963009 -0.029293565 -0.004226113 0.016246358
-0.009024576 -0.022861607 -0.0061956453 -0.018919911 0.0052679298 0.007745746 -0.01921749 0.0116801215
0.007773211 -0.006486925 0.017596258 0.00550407 0.006014736 -0.017613446 -0.0143548865 0.029902473
0.01603943 -0.011492651 -0.027650304 0.016553894 -0.019874373 0.019797511 0.0043641403 -0.004442262
-0.011061065 -0.008399106 0.018242491 0.005776003 -0.0013765286 -0.00044924326 -0.0027793278 0.0011722255
-0.016377503 -0.022626245 -0.0007691363 0.006188848 0.010488296 -0.025956318 0.0005453142 -0.012594265
-0.004253753 0.031427577 -0.025403779 0.00018933688 0.0340906 0.005666175 -0.010691851 -0.00038678118
00000000: 76cc 3ebc 9b62 41bb 3929 093c 26cc 533c
00000010: eaea cfbb 2322 d4bc 19c2 763c d686 ebbc
00000020: c759 fe3b 5c3c 3bbc 2dd2 dbbb 630c 9e3b
00000030: 35c9 4bb8 705e 4f3c 8dd7 f93c 0aac f33c
00000040: 7111 9f3c 8b8a 92ba 4b17 c73c 4182 f1bc
00000050: f761 7c3c 428a 703b ad89 9e3c e95e 9fbb
00000060: 2006 503c 2c6f d6bb c987 e43a 94d8 00bd
00000070: 0cff 4d3c 6a8f a73a aaf1 6abc d3e9 b4bb
00000080: df1c 8dbc dfb9 6fbc 5bc2 343b 5c95 16bb
00000090: 876e 23bc 3253 f4ba 6ba1 903c c81a 8b3c
000000a0: 4025 26bc b393 e93b babd 333b f2e0 aa3c
000000b0: 7024 12ba 785c 91bc b110 b83c 94b4 19bb
000000c0: d4a6 c3ba e34e 823c 5067 1a3c f665 0b3d
000000d0: 117c 0d3c 5813 d53c dd2b d83c 3ed5 cebc
000000e0: d523 da3c 09e5 74bc 1d91 1ebd 162a 82bb
000000f0: 6cf0 b7bb c686 403c 4d0e 013d a7e5 083c
00000100: 3c3c 35bb 77a5 c63c 6115 5b3c ccaf fe3b
00000110: bbc2 c93a fb6a 9d3c a507 cd3c fb48 e7bc
00000120: 1b5e 8ebb 06f2 023d 5e78 823c ef56 b73c
00000130: 76a6 f43a c07e 8a3c da18 0c3a f0bf 403c
00000140: 1eb2 cb3b bde9 0bb7 0aab 0bbd 45be c63b
00000150: dd98 ae3b 4d6c 46bb 6518 6b3b eabc 513c
00000160: 487c b9ba 1262 19bc 686c c53b 603c 5fbc
00000170: a2a8 ca3c fe98 89bb 7450 443c 5ede 94bc
00000180: e086 873b 674e 1a3c 1474 17bd 62cc f5bb
00000190: 0c7b 51bc 8436 363c b118 46bb 0402 e13c
000001a0: 81d2 083c 061d 84ba a58a a73b c0aa c33c
000001b0: aa8c 953b 2554 863a 48ea a2bc e63e b3bc
000001c0: 1039 97bc cefe 33bc 2132 c1bc d06e 68bc
000001d0: 4092 b43b 0f3d 38bd 42e9 12bb 78a1 a739
000001e0: 5ddc cdbb eb87 19bc 8c43 7a3c effb 083b
000001f0: 12df 78bc e46a 20bb 54f8 deba 1ab9 ecbb
00000200: 3943 633c 4f98 2a3c e0fd 8d3b 2f8b e53b
00000210: 7085 063d ed3e f53c d0c7 913c 6526 183b
00000220: b93a 47bb fd76 903c 8689 033c 96ad 1dbc
00000230: 3bff 593b e559 12ba 105a 993b a703 053d
00000240: 719f 403c 1153 363c 876d 11bc 1b2f 7dbc
00000250: a2fc 113d a4f0 24bc aea0 a73c a4e1 b33b
00000260: 08c4 453c 9c0c 883c 11f7 b23b 2f62 d93c
00000270: 4210 173b 843c e53b 672e 04bc 69f6 28bc
00000280: 303e ecbc d22b 67bc 72ca 823c e529 a2bc
00000290: 647a ae3c 9a28 3cb9 62d3 883c 9fd3 343c
000002a0: f2fb 523c 2034 f83c 7edc bc39 b61e 313d
000002b0: 45fc 533c e337 4e3c b425 bdbb ce1d 963c
000002c0: ed79 15bc 0987 373d b980 393c ecac 553b
000002d0: 1841 a63c 7b90 33bc 6866 86bc 8305 bcbb
000002e0: 54a7 6abb 63f9 633b 36e2 ae3c 500b 223c
000002f0: e99e 31bc 8c4a cabc c1f7 61bc 5692 943a
00000300: d502 72bc 21be e13c 6577 543c 3d9e 673b
00000310: 056c f6bc 7e1d 1f3d 707d 1fbd 80c2 a73c
00000320: 12d2 553a 76f9 26bc fccd 8c3c 73f2 9dbc
00000330: bda0 a23b 0ff9 efbc 357b 8abb 1517 853c
00000340: d1db 13bc 4448 bbbc d704 cbbb eefd 9abc
00000350: 999e ac3b 07d0 fd3b ff6d 9dbc fb5d 3f3c
00000360: 6cb6 fe3b 4590 d4bb 0726 903c 7c5b b43b
00000370: 4317 c53b 134a 90bc c230 6bbc 08f6 f43c
00000380: 1f65 833c ac4b 3cbc e482 e2bc 089c 873c
00000390: 95cf a2bc 642e a23c 1001 8f3b 6590 91bb
000003a0: 7839 35bc 679c 09bc 4771 953c a044 bd3b
000003b0: a36c b4ba 6988 ebb9 6225 36bb 5ca5 993a
000003c0: 1d2a 86bc ad5a b9bc dd9f 49ba d2cb ca3b
000003d0: 1ad7 2b3c 58a2 d4bc 6bf3 0e3a 2d58 4ebc
000003e0: 1163 8bbb 34ba 003d 961b d0bc bb88 4639
000003f0: 96a2 0b3d 52ab b93b e02c 2fbc e4c8 cab9

network_body.linear_encoder.seq_layers.2.weight f4 [256, 256]
-0.070060164 0.018176397 -0.05578419 -0.00025442254 0.01257733 0.057895083 0.07068109 0.057246875
0.035954125 0.014210925 -0.04119931 0.06657159 0.002376022 -0.10473916 -0.0025075336 -0.050799876
0.035444893 0.022995178 -0.10398247 -0.006316289 -0.024847167 0.13848007 0.037966955 -0.047499392
-0.07943706 -0.057051983 0.011254835 -0.070613116 -0.051737513 0.008138104 0.014506501 -0.08794171
-0.07840956 -0.0683311 -0.042237524 0.018889418 -0.011762991 -0.04343597 -0.047029372 0.08262632
-0.05759731 0.10135166 -0.049570058 0.13410929 0.02065437 0.010399023 -0.06990266 0.0046171015
-0.075797416 -0.05082145 -0.035673376 -0.006935545 0.01607451 -0.024877507 0.024505142 0.046626724
0.037747614 0.12252571 -0.028937763 0.043393787 -0.14557548 0.012927367 -0.10579468 0.06899398
-0.13970675 0.0110594025 -0.05022359 -0.07820769 -0.07134577 0.12373179 -0.09145699 -0.04140759
0.034651328 -0.06160391 -0.09397742 0.092563875 -0.18854383 0.035395432 -0.04561403 -0.04490113
-0.02059591 -0.06805152 -0.06509343 -0.060453326 0.05269746 0.039440393 0.03661256 0.023521634
0.015701432 0.089341156 -0.015958512 -0.055490952 -0.031227056 0.09320576 0.09254532 0.09754634
0.091362245 -0.06439011 0.026007008 0.029491607 0.061747048 0.06977715 0.091854736 -0.06766916
0.008927763 0.06827142 -0.06592792 0.10345076 -0.081703916 -0.099690214 -0.1274677 -0.08869624
-0.013505907 -0.009021879 -0.04911493 -0.024932606 0.010411351 -0.043421287 0.001373311 -0.121014364
-0.047426686 0.06323474 -0.058801223 -0.00081361755 0.047308583 0.0415098 -0.0029777593 -0.03364082
-0.014606405 -0.087024316 0.10604701 -0.05934693 -0.051466715 0.04316782 0.032373555 -0.050378438
0.028730562 0.036827695 -0.014841021 -0.010726856 0.027551508 -0.04813189 -0.05032584 -0.022821244
0.09561923 0.058608536 -0.023346838 -0.10581087 -0.0712789 -0.02405467 -0.0007661824 0.061614927
-0.019154148 -0.12206026 0.032840516 -0.10471526 0.093776375 -0.09457731 -0.035963863 -0.05391257
-0.06519771 -0.1636476 0.03794509 0.030414572 -0.10210174 0.100268066 -0.01356834 0.02761074
-0.12788408 0.0057726903 0.05617133 -0.03942705 0.01887763 -0.0947481 0.027296139 -0.08951676
0.013868842 0.04972024 -0.011596074 -0.05538888 0.0066764625 0.0029999625 -0.08454882 0.0024956192
-0.012862676 -0.036168206 -0.03824433 0.035228048 0.005272776 -0.010830376 0.05725928 0.04007875
-0.08199106 0.12004953 0.027101386 -0.024280291 -0.047801815 -0.00090529525 -0.090819 -0.12036371
0.04042697 0.0038507106 0.18975142 0.077567995 0.011256203 -0.019689143 0.0032578497 -0.15383519
0.004582018 0.0152494 -0.005098843 -0.037274573 -0.028621055 0.07243685 -0.18277597 -0.041620396
0.07121603 0.02990747 -0.06832611 0.12434 -0.044182736 0.10451316 0.052243005 0.010218864
-0.0031067505 0.058271214 0.04704961 -0.051565357 0.032886647 0.04244606 0.05067964 0.028095752
-0.116665214 -0.030445686 0.045539603 0.054935325 0.123239174 -0.15343305 -0.028029656 0.053429343
0.055620488 -0.044500858 -0.017515663 0.048642702 0.009404041 -0.124300234 0.13970326 0.035530727
-0.1359522 0.045057915 0.046065327 -0.021021787 -0.051313244 -0.04800509 -0.02372129 -0.0070700576
00000000: b47b 8fbd abe6 943c f67d 64bd 0464 85b9
00000010: 2511 4e3c 6523 6d3d 3fc1 903d b37b 6a3d
00000020: a244 133d f1d4 683c 9cc0 28bd b056 883d
00000030: 09b7 1b3b 7c81 d6bd 6f55 24bb 8813 50bd
00000040: aa2e 113d 6260 bc3c c3f4 d4bd dff8 cebb
00000050: 498c cbbc b8cd 0d3e 3d83 1b3d b98e 42bd
00000060: e6af a2bd 57af 69bd 3366 383c 9c9d 90bd
00000070: b7ea 53bd af55 053c adac 6d3c c91a b4bd
00000080: 3195 a0bd 2df1 8bbd 4101 2dbd fbbd 9a3c
00000090: 8fb9 40bc eae9 31bd dfa1 40bd fd37 a93d
000000a0: 28eb 6bbd 7691 cf3d f909 4bbd f253 093e
000000b0: 5a33 a93c aa60 2a3c 2029 8fbd 0e4b 973b
000000c0: ad3b 9bbd 272a 50bd 3f1e 12bd 9143 e3bb
000000d0: b1ae 833c eacb cbbc 02bf c83c aafb 3e3d
000000e0: 3e9d 1a3d c2ee fa3d e30e edbc afbd 313d
000000f0: bd11 15be 4fcd 533c e2aa d8bd b74c 8d3d
00000100: 490f 0fbe 7f32 353c 40b7 4dbd 5a2b a0bd
00000110: bb1d 92bd 1867 fd3d cd4d bbbd 019b 29bd
00000120: 8dee 0d3d 6254 7cbd 3c77 c0bd 2192 bd3d
00000130: a211 41be cdfa 103d c7d5 3abd 3fea 37bd
00000140: c1b8 a8bc 985e 8bbd b44f 85bd e89d 77bd
00000150: 4bd9 573d 408c 213d 0df7 153d 71b0 c03c
00000160: 4aa0 803c 7ff8 b63d 6dbb 82bc 7b4a 63bd
00000170: e2cf ffbc a9e2 be3d 6788 bd3d 60c6 c73d
00000180: 211c bb3d f6de 83bd a60c d53c 6298 f13c
00000190: 79ea 7c3d 53e7 8e3d 561e bc3d 2196 8abd
000001a0: c145 123c e3d1 8b3d 3805 87bd fedd d33d
000001b0: 6254 a7bd 622a ccbd e586 02be 60a6 b5bd
000001c0: e147 5dbc 81d0 13bc bd2c 49bd 773f ccbc
000001d0: 5f94 2a3c 85da 31bd ac00 b43a 61d6 f7bd
000001e0: 7c42 42bd 3781 813d 8dd9 70bd f348 55ba
000001f0: a5c6 413d 2e06 2a3d 8326 43bb f5ca 09bd
00000200: b44f 6fbc ce39 b2bd 2d2f d93d c415 73bd
00000210: c3ce 52bd bdd0 303d 229a 043d 9f59 4ebd
00000220: 5b5c eb3c a3d8 163d c127 73bc b2bf 2fbc
00000230: b3b3 e13c f225 45bd 7822 4ebd 9ef3 babc
00000240: 04d4 c33d 810f 703d de41 bfbc 5fb3 d8bd
00000250: acfa 91bd 4d0e c5bc a1d9 48ba ef5f 7c3d
00000260: 29e9 9cbc bbfa f9bd c783 063d f474 d6bd
00000270: d40d c03d c0b1 c1bd d84e 13bd 6dd3 5cbd
00000280: 6186 85bd 3d93 27be 506c 1b3d fb27 f93c
00000290: b81a d1bd 5859 cd3d be4d 5ebc eb2f e23c
000002a0: 0bf4 02be d628 bd3b e913 663d 427e 21bd
000002b0: 42a5 9a3c 4b0b c2bd 279c df3c 9054 b7bd
000002c0: 243a 633c 73a7 4b3d 76fd 3dbc 73df 62bd
000002d0: 3ac6 da3b 059b 443b ef27 adbd 8b8d 233b
000002e0: f9bd 52bc 1d25 14bd 16a6 1cbd 494b 103d
000002f0: 40c7 ac3b e471 31bc b588 6a3d 9e29 243d
00000300: eeea a7bd 87dc f53d ba03 de3c 76e7 c6bc
00000310: d6cb 43bd 5651 6dba 50ff b9bd 4081 f6bd
00000320: c096 253d 345c 7c3b 324e 423e f8db 9e3d
00000330: f06b 383c 204b a1bc a681 553b f986 1dbe
00000340: c124 963b 9fd8 793c 3214 a7bb 39ad 18bd
00000350: b476 eabc c559 943d a029 3bbe 267a 2abd
00000360: b6d9 913d 8300 f53c 8fee 8bbd f8a5 fe3d
00000370: f5f8 34bd ff0a d63d c3fc 553d 066d 273c
00000380: a09a 4bbb ccad 6e3d 18b7 403d 3236 53bd
00000390: 26b4 063d ebdb 2d3d 7495 4f3d 1029 e63c
000003a0: 2cee eebd 3b69 f9bc bc87 3a3d dd03 613d
000003b0: d264 fc3d 8e1d 1dbe 739e e5bc bad8 5a3d
000003c0: 4fd2 633d 8846 36bd 027d 8fbc 923d 473d
000003d0: 6813 1a3c 1f91 febd 5f0e 0f3e ab88 113d
000003e0: 0e37 0bbe a68e 383d ffae 3c3d e235 acbc
000003f0: d62d 52bd fca0 44bd 2753 c2bc f1ab e7bb
