HW4/Assets/Hummingbird/config/results/Hummingbird/Hummingbird/Hummingbird-3999968.onnx (onnx, 320786 bytes, 8 tensors)

action_model._continuous_distribution.log_sigma f4 [1, 5]
-0.1295128 -0.13469444 -0.17131227 -0.06682061 -0.030259417
00000000: 019f 04be 57ed 09be 7c6c 2fbe 3ed9 88bd
00000010: 99e2 f7bc

action_model._continuous_distribution.mu.bias f4 [5]
-0.0013847144 0.01930392 0.0003616661 0.0020833276 0.009504161
00000000: 4e7f b5ba 4123 9e3c 019e bd39 7088 083b
00000010: 57b7 1b3c

action_model._continuous_distribution.mu.weight f4 [5, 256]
-0.0055281417 0.018515727 -0.08487537 -0.021613916 0.037769005 0.07049014 -0.024700224 0.02353448
0.010373066 0.024490424 -0.036006063 0.050517976 0.012219213 -0.023375928 -0.04318411 0.05901947
0.01039161 -0.009709507 -0.05093013 0.04353534 0.018052736 0.015764644 0.026744481 0.00067407265
-0.06264078 0.037885822 -0.052775435 0.053246636 -0.038830284 -0.0065580416 0.019039936 0.018515164
0.06388466 -0.033460736 -0.066602215 -0.010679985 0.0008096038 0.060424007 -0.010360464 -0.008498067
0.022201616 -0.011028491 -0.040237986 -0.02899473 -0.05182872 -0.009213404 -0.024223382 -0.012079321
0.021957379 -0.07648536 0.043411795 -0.0002960762 -0.02951179 0.013181607 -0.0014242419 0.008015695
0.033344828 -0.07038313 0.02733431 -0.02967015 -0.05812372 0.06691198 -0.051511906 0.07332965
-0.026979461 0.010812242 0.016403666 -0.029122775 -0.041934628 0.019603489 -0.00077193964 0.03354603
-0.06499302 -0.05790255 0.053116933 0.012329151 -0.043496568 -0.06753287 0.033072267 0.0695495
0.05774352 0.009176111 0.081055954 -0.03197377 -0.007725664 -0.012161394 0.015613233 0.03144496
-0.031048449 -0.02138557 0.020221358 0.017129123 0.04645409 0.045577955 -0.072849706 -0.046630334
0.026468145 -0.008540449 -0.08697427 0.0022310948 -0.037401266 -0.012583683 -0.032903675 0.055413116
0.05445344 -0.02354251 -0.02735551 0.023986567 0.03525846 -0.0012218909 0.04060379 0.0015426432
0.0048527196 0.0094492305 -0.03589262 -0.021788644 -0.032267638 -0.027883556 -0.013018152 0.066213444
0.0067540705 -0.0043691006 -0.0019538973 0.025165008 -0.046829946 -0.043711986 0.05811762 -0.03515261
0.0076989564 -0.00039457207 -0.020007866 0.029670985 -0.02251485 0.0382325 0.022331739 0.0075780796
0.02839495 0.0007595138 0.0037747396 0.013387928 0.056331262 0.057266008 0.041052956 -0.060735594
0.08515553 -0.0077440846 0.009705182 -0.03118089 0.032967415 0.0014070827 -0.01494008 0.042414583
-0.021962184 0.09482569 0.011312449 0.031432226 -0.020098008 -0.04985688 -0.12222723 -0.029618032
0.04943683 0.0064285155 -0.09191702 0.036025837 0.05186505 -0.042975035 0.010489159 0.032469396
0.024267599 -0.044138487 -0.0016496831 0.037519265 0.023283651 -0.019161023 -0.03401492 0.02762599
0.019804955 -0.008058471 -0.033914268 0.026791105 -0.05553211 -0.070378885 -0.061099786 -0.04439012
-0.006615979 0.04146968 0.06865906 0.02930823 -0.0038685405 -0.008257557 0.032174744 0.03406271
-0.03536762 -0.00878655 0.025011238 0.028060894 -0.048398472 -0.046527073 -0.03297475 0.061974403
0.0527037 0.0328414 -0.008153691 -0.024829518 0.024492303 -0.010732742 0.06229326 -0.0034007214
-0.036112666 -0.006869492 -0.066891946 0.01803435 0.021941397 0.04656268 0.010942997 -0.015944082
-0.013778104 -0.0068882816 -0.01644932 0.012719106 -0.03924929 0.068043984 -0.030490201 0.0481052
-0.040578455 -0.07692974 -0.061136853 0.072136976 -0.06958177 0.0153250955 -0.013167155 -0.062143926
0.051886957 -0.029634777 -0.014445631 -0.04638748 0.006513392 0.024355322 0.038922668 0.04478608
-0.01962988 0.059966337 -0.038647365 -0.010462696 0.047709137 -0.035880517 -0.028400693 0.034330748
-0.026137164 0.044705153 0.0058614057 0.08332127 -0.0696579 0.03838864 0.040338133 -0.02346837
00000000: 6a25 b5bb 4bae 973c 23d3 adbd ab0f b1bc
00000010: acb3 1a3d 225d 903d 2058 cabc 62cb c03c
00000020: cbf3 293c 24a0 c83c 187b 13bd f0eb 4e3d
00000030: 1833 483c e07e bfbc d2e1 30bd 66be 713d
00000040: 9241 2a3c a014 1fbc 1d9c 50bd 1d52 323d
00000050: 55e3 933c db24 813c 3e17 db3c 40b4 303a
00000060: cf49 80bd 2a2e 1b3d 0e2b 58bd 2519 5a3d
00000070: 810c 1fbd d7e4 d6bb a4f9 9b3c 1dad 973c
00000080: f6d5 823d 200e 09bd be66 88bd 1bfb 2ebc
00000090: 973b 543a 2a7f 773d f0be 29bc 7a3b 0bbc
000000a0: 2ae0 b53c d8b0 34bc 96d0 24bd 5b86 edbc
000000b0: 5a4a 54bd d1f3 16bc 1d70 c6bc 58e8 45bc
000000c0: f6df b33c 5ba4 9cbd 91d0 313d ad3a 9bb9
000000d0: b6c2 f1bc abf7 573c a1ad baba 4354 033c
000000e0: 9694 083d 0825 90bd 34ec df3c d00e f3bc
000000f0: 2313 6ebd 2609 893d 26fe 52bd db2d 963d
00000100: 0804 ddbc d425 313c fb60 863c e392 eebc
00000110: a5c3 2bbd 7f97 a03c fe5b 4aba 9067 093d
00000120: 0f1b 85bd 392b 6dbd 2491 593d 3500 4a3c
00000130: 7529 32bd ac4e 8abd c976 073d f86f 8e3d
00000140: 7884 6c3d 6657 163c aa00 a63d eef6 02bd
00000150: 9127 fdbb 9540 47bc a5ce 7f3c 6ecc 003d
00000160: 5159 febc ca30 afbc 43a7 a53c 6052 8c3c
00000170: a546 3e3d f3af 3a3d 3a32 95bd 73ff 3ebd
00000180: b9d3 d83c 3ded 0bbc 911f b2bd 8f37 123b
00000190: 1232 19bd cb2b 4ebc 01c6 06bd ddf8 623d
000001a0: 920a 5f3d 39dc c0bc aa18 e0bc 7a7f c43c
000001b0: 2d6b 103d db27 a0ba 2950 263d 8432 ca3a
000001c0: 9003 9f3b f2d0 1a3c 2404 13bd 197e b2bc
000001d0: 122b 04bd 0e6c e4bc 164a 55bc ea9a 873d
000001e0: 4051 dd3b ac2a 8fbb f50c 00bb d926 ce3c
000001f0: c2d0 3fbd 570b 33bd be0c 6e3d 2ffc 0fbd
00000200: 8747 fc3b 91de ceb9 89e7 a3bc 9110 f33c
00000210: 1071 b8bc af99 1c3d 0df1 b63c 8a51 f83b
00000220: 879c e83c 1c1a 473a 9f61 773b 0a59 5b3c
00000230: 9cbb 663d c38f 6a3d 2527 283d e3c5 78bd
00000240: 0666 ae3d 17c2 fdbb 7c02 1f3c 116f ffbc
00000250: d708 073d dc6d b83a 3dc7 74bc eaba 2d3d
00000260: 0aea b3bc f933 c23d da57 393c 14bf 003d
00000270: 94a4 a4bc ba36 4cbd 4552 fabd 84a1 f2bc
00000280: 467e 4a3d 4ca6 d23b fe3e bcbd d48f 133d
00000290: 7270 543d 9706 30bd b9da 2b3c a1fe 043d
000002a0: d8cc c63c 8fca 34bd 2e3a d8ba cdad 193d
000002b0: 5bbd be3c 94f7 9cbc 3b53 0bbd e64f e23c
000002c0: 003e a23c ad07 04bc b0e9 0abd 0579 db3c
000002d0: a375 63bd ce22 90bd c543 7abd 6ad2 35bd
000002e0: dbca d8bb 1cdc 293d 1f9d 8c3d d017 f03c
000002f0: 5787 7dbb b44a 07bc aac9 033d 5785 0b3d
00000300: a3dd 10bd 76f5 0fbc 5ee4 cc3c f6df e53c
00000310: 7a3d 46bd 2c93 3ebd 8810 07bd dfd8 7d3d
00000320: d6df 573d b484 063d 0f97 05bc 4667 cbbc
00000330: 15a4 c83c 62d8 2fbc 3827 7f3d a3de 5ebb
00000340: e0ea 13bd 7a19 e1bb a5fe 88bd c6bc 933c
00000350: 72be b33c 82b8 3e3d 424a 333c 2a9d 82bc
00000360: 8fbd 61bc 18b7 e1bb b9c0 86bc cc63 503c
00000370: ddc3 20bd a55a 8b3d 96c6 f9bc f509 453d
00000380: 9835 26bd 578d 9dbd a36a 7abd 8dbc 933d
00000390: e380 8ebd 1c16 7b3c 0dbb 57bc a18a 7ebd
000003a0: 6b87 543d a2c4 f2bc 5ead 6cbc cc00 3ebd
000003b0: 4b6e d53b d084 c73c 606d 1f3d 9c71 373d
000003c0: d8ce a0bc 439f 753d b34c 1ebd ba6b 2bbc
000003d0: a86a 433d 73f7 12bd 92a8 e8bc 669e 0c3d
000003e0: 9b1d d6bc c01c 373d 0911 c03b 58a4 aa3d
000003f0: cda8 8ebd 683d 1d3d 9939 253d bd40 c0bc

action_model._discrete_distribution.branches.0.weight f4 [1, 256]
0.0068681776 -0.002452236 0.0063302056 0.002368514 0.011527857 0.00046321456 -0.0017953344 0.0028194243
0.0062943283 -0.007753695 0.022093773 0.0023179285 0.0017853059 0.005731579 0.0047731292 -0.0028833663
0.0072683203 -0.0035646788 -0.016099041 -0.000643559 -0.0009338953 0.0037975477 0.0035200834 -0.0052741906
0.0038578429 0.0025951792 0.004651414 0.010155068 0.0077209733 -0.0033423172 0.0029274274 0.005522447
-0.004401912 0.0069217244 0.0017130675 -0.015356377 -0.0056574005 0.0025322486 -0.0060584187 0.005606231
-0.001685398 0.0021784266 -0.0054694465 0.0023421024 -0.007952828 -0.013954756 0.007757701 -0.00096624944
0.0019194138 -0.0063837566 -0.004255872 -0.014320689 0.01296062 0.0087701855 -0.008282817 0.001940369
-0.0014580659 -0.0044881143 -0.0028552504 -0.004923434 0.0034798905 0.0040007923 -0.00012465763 -0.010970298
0.0075835856 0.0030734038 -0.006180218 0.00984105 -0.0016327087 -0.0073495717 -0.0011142375 0.001629944
-0.0111174425 -0.006622463 0.0051293946 -0.0051553994 -0.0062156827 -0.0048968676 -0.0034897754 0.0030971768
0.0116512505 -0.00012471982 0.0019458613 0.00032944744 -0.003292577 -0.004501847 -0.0076630968 0.0023450775
-0.0030197024 0.0029790753 0.0025355096 -0.00076406496 0.0051849694 -0.0026136006 0.010039209 0.006182587
0.00875534 -0.0066487375 0.001082709 0.0035031852 0.0001699146 -0.009187695 -0.0016146416 0.0029856656
0.010623292 0.0059797065 -0.0008886989 -0.0016892164 -0.00060698786 -0.0024492154 -0.0013178812 -0.0006921193
-0.0006309161 0.0024564525 -0.004129321 0.0028865675 0.0060689356 -0.0011759623 -0.0023683305 0.00592292
0.016806528 -0.0013247462 0.008185882 -0.007432505 -0.009529046 0.015137741 -0.0056139207 0.002998375
0.0007618549 0.004472762 0.01130036 0.0019815054 -0.00047397715 0.008831902 -0.004106357 0.0043774745
0.00116787 -0.0032934782 -0.007544588 -0.005959304 5.7588855e-05 -0.011083125 0.0018983622 0.00653309
-0.005585006 -0.0007066661 -0.004314119 -0.0038887516 0.013889439 0.004597493 0.0055881827 -0.0060319263
-0.00016351634 -0.007736788 -0.012935022 0.008803198 0.002338768 -0.011649245 0.007940607 -0.002704134
0.0040412676 0.01016936 -0.0045057326 0.012173831 0.008123572 0.0020940923 -0.0009988833 -0.005970475
0.0027425548 0.0015977143 -0.0042508394 -0.0063692466 -0.008192376 0.006636148 0.0019077774 -0.006959108
-0.0075310813 0.0010997212 0.0022406469 -0.0046378877 -0.0016881559 0.004096379 -0.0024146077 -0.002244489
0.00040035075 0.000991459 -0.012197348 0.0029226842 -0.0051752995 -0.003537106 0.0048732045 0.0022661926
-0.0045638056 -0.0036982037 0.007945418 0.0018808907 0.013440171 0.0077195615 -0.011245224 -0.0091488715
0.0073223687 0.0038531986 0.012069034 -0.008499858 -0.0021882863 -0.010868913 0.0022437463 0.00441392
7.5151797e-06 0.0045501585 -0.0025946647 -0.0075116903 -0.010923042 -0.016406203 -0.008556414 0.0023301002
-0.007382236 0.006194437 -0.0058148997 0.008288215 -0.006322225 -0.0048844246 0.0064977664 -0.004371828
0.00084309897 -0.0015711021 -0.00089294725 -0.010513409 -0.008465355 0.0032982756 0.0009688153 0.006005684
-0.020494713 0.0010831432 -0.0049713165 0.013327007 0.0017327948 0.00089544896 0.0069798464 0.0019505918
0.0066452357 -0.004391584 -0.0005906534 -0.0032104426 -0.004602035 -0.006071863 -0.005763453 -0.006276497
0.008425395 -0.0065602246 -0.006112653 -0.0010058567 -0.0027003426 0.0059172376 -0.003856886 0.007166721
00000000: 730e e13b b1b5 20bb 9d6d cf3b 1239 1b3b
00000010: 56df 3c3c 9bdb f239 6d51 ebba 17c6 383b
00000020: a740 ce3b b512 febb 00fe b43c 63e8 173b
00000030: ed00 ea3a f8cf bb3b e967 9c3b dcf6 3cbb
00000040: 172b ee3b 639d 69bb 23e2 83bc 83b4 28ba
00000050: a7d0 74ba 47e0 783b 33b1 663b 1ed3 acbb
00000060: ddd3 7c3b e213 2a3b e46a 983b 7161 263c
00000070: 3800 fd3b c70a 5bbb 15da 3f3b a5f5 b43b
00000080: ea3d 90bb a2cf e23b 0289 e03a 5099 7bbc
00000090: b761 b9bb 15f4 253b b385 c6bb 79b4 b73b
000000a0: 93e8 dcba efc3 0e3b 0b39 b3bb f57d 193b
000000b0: 944c 02bc 7da2 64bc 5034 fe3b e74b 7dba
000000c0: d794 fb3a d52e d1bb d874 8bbb 53a1 6abc
000000d0: c858 543c d3b0 0f3c a7b4 07bc fb53 fe3a
000000e0: 931c bfba 0811 93bb 271f 3bbb c254 a1bb
000000f0: e00e 643b 1419 833b 87b6 02b9 c4bc 33bc
00000100: ba7f f83b 296b 493b 6d83 cabb 5b3c 213c
00000110: 9d00 d6ba add4 f0bb 9b0b 92ba d8a3 d53a
00000120: ef25 36bc 3f01 d9bb 7b14 a83b a0ee a8bb
00000130: edac cbbb e775 a0bb b7b4 64bb 01fa 4a3b
00000140: e3e4 3e3c 39c7 02b9 450c ff3a b0b9 ac39
00000150: 47c8 57bb 3b84 93bb b71a fbbb dfaf 193b
00000160: 33e6 45bb 973c 433b cb2a 263b 884b 48ba
00000170: ade6 a93b f148 2bbb 7f7b 243c 4c97 ca3b
00000180: 8f72 0f3c a7dd d9bb afe9 8d3a b295 653b
00000190: 1a2b 3239 fc87 16bc 62a2 d3ba 28ab 433b
000001a0: 510d 2e3c 6af1 c33b 93f7 68ba b268 ddba
000001b0: 441e 1fba 0483 20bb c1bc acba 576f 35ba
000001c0: 1064 25ba 6ffc 203b 414f 87bb 912c 3d3b
000001d0: ecdd c63b bf22 9aba fe35 1bbb 0e15 c23b
000001e0: d8ad 893c 1ba3 adba 141e 063c 5f8c f3bb
000001f0: b71f 1cbc 4a04 783c fbf4 b7bb 6380 443b
00000200: 38b7 473a 3f90 923b 2525 393c 25dc 013b
00000210: 2380 f8b9 afb3 103c 9f8e 86bb eb70 8f3b
00000220: 3713 993a 65d7 57bb 9738 f7bb 4446 c3bb
00000230: 908b 7138 ff95 35bc 77d2 f83a 8813 d63b
00000240: 6d02 b7bb 8f3f 39ba 745d 8dbb 6dda 7ebb
00000250: 8890 633c 91a6 963b 131d b73b 77a7 c5bb
00000260: 9575 2bb9 e284 fdbb 6aed 53bc 4a3b 103c
00000270: 0446 193b 7adc 3ebc 5219 023c d737 31bb
00000280: 9c6c 843b 639d 263c d3a4 93bb c074 473c
00000290: bb18 053c 0a3d 093b f6ec 82ba f9a3 c3bb
000002a0: 6fbc 333b 656a d13a a04a 8bbb 1db5 d0bb
000002b0: 5139 06bc 0b74 d93b 630e fa3a 3b09 e4bb
000002c0: 4ac7 f6bb 8524 903a d1d7 123b 6cf9 97bb
000002d0: 1d45 ddba eb3a 863b 653e 1ebb 4718 13bb
000002e0: 2be6 d139 d8f3 813a 63d7 47bc 818a 3f3b
000002f0: 8f95 a9bb cbce 67bb 67af 9f3b 6784 143b
00000300: fa8b 95bb 905d 72bb 802d 023c 3888 f63a
00000310: 2a34 5c3c 60f4 fc3b e33d 38bc 26e5 15bc
00000320: 7bf0 ef3b f285 7c3b 33bd 453c fd42 0bbc
00000330: 5a69 0fbb 8613 32bc d10b 133b a5a2 903b
00000340: e72a fc36 7f19 953b 400b 2abb a024 f6bb
00000350: 8ff6 32bc 4d66 86bc 3430 0cbc 98b4 183b
00000360: afe6 f1bb b4fa ca3b ea8a bebb 4bcb 073c
00000370: ab2a cfbb 860d a0bb 37eb d43b 8d41 8fbb
00000380: 6a03 5d3a 70ed cdba ad14 6aba 6f40 2cbc
00000390: 46b2 0abc e227 583b 18f8 7d3a 54cb c43b
000003a0: 87e4 a7bc 41f8 8d3a 6de6 a2bb 8559 5a3c
000003b0: f21e e33a 90bc 6a3a 32b7 e43b 00ab ff3a
000003c0: 47c0 d93b 47e7 8fbb 14d6 1aba 4a66 52bb
000003d0: abcc 96bb 7bf6 c6bb 59db bcbb 13ab cdbb
000003e0: ab0a 0a3c 27f7 d6bb a64c c8bb f3d6 83ba
000003f0: 3bf8 30bb 63e5 c13b cfc3 7cbb d0d6 ea3b

network_body._body_endoder.seq_layers.0.bias f4 [256]
-0.008524703 -0.04495198 0.04217439 0.010276068 -0.015667593 0.022846429 0.019357754 0.012305581
0.010702728 0.030116 0.015642004 -0.008593399 0.03584917 0.018106049 -0.019246222 0.018432483
0.0061534047 -0.001334285 0.06818256 0.027195968 0.009589183 0.013017574 0.010793044 -0.025092952
0.0060134754 0.008246796 0.0057834154 0.017772365 0.04541633 -0.0049464414 -0.00049924053 0.00038748575
0.04472436 0.017600683 -0.005187905 0.029608821 0.019876502 -0.021133753 0.015403191 -0.012365688
0.016166426 0.029895963 0.008824652 -0.0071447426 0.00552418 0.021304343 0.026443912 -0.002124724
0.0597009 0.019083396 0.028188832 0.0029222856 0.00065972935 0.00867524 0.047530234 0.036080964
0.0051751044 0.0138575295 0.0047150734 0.0356941 0.04237555 0.008935302 -0.007055922 0.022581536
-0.013091325 0.029082518 0.04258263 0.055536177 -0.0093132 0.07722924 -0.00384255 0.009017325
0.010254584 0.06098251 0.00021866104 -0.008019215 0.00018466686 -0.00024738355 0.019640326 0.0010636996
-0.0028955599 0.0283544 -0.0029185547 0.009201596 -0.0043676584 0.006437181 0.034992855 0.01628379
0.030882483 -0.012602264 -0.0017533478 0.023605518 0.03996471 0.008947285 0.031250298 0.025719153
0.00088672945 -0.014294017 0.0018585772 0.021792637 0.02942465 0.0093772635 0.054684456 0.018174041
0.016725998 0.010922769 0.0073246425 0.008603062 -0.005774404 0.015403322 0.015302905 0.00026934705
-0.0033518202 0.01810491 0.014956943 0.009329727 -0.0081060575 0.025932597 -0.014201713 -0.01543576
0.00091745064 0.03368385 0.012152333 0.037095614 0.0019910072 0.024847802 0.025870426 0.037085157
0.04138317 0.0046110335 0.0129155 0.01925251 0.018263754 0.044994168 -0.0077093667 -0.016688623
0.017001972 -0.0023163273 0.016488696 0.024933925 0.017764498 0.032938056 0.012413382 0.023111366
-0.016460178 0.017752703 0.021520779 -0.012552697 0.037809316 0.05492211 0.0124787 0.02607379
0.07045885 0.050355714 0.0048742006 0.08927728 0.0009318437 0.02731205 0.015412922 0.016863083
0.001306684 0.02286121 0.023388984 0.002824291 0.035215255 -0.017324746 0.029380424 0.0021412203
0.02139999 2.787335e-05 0.04183606 0.011513755 0.019026022 0.038168047 -0.058281016 -0.005183277
0.02796074 0.0010139657 0.010595463 -0.00676365 0.003925975 0.022862837 0.054011233 0.010155408
-0.004710559 0.02033799 0.002048565 -0.0071820947 0.039238688 0.033135213 0.03109941 0.008208283
0.039995514 0.026376953 0.050048936 0.04162287 0.020433582 0.025014976 0.043174993 0.040497296
-0.0057537197 0.013057917 0.012560837 -0.009956839 0.03804105 -0.0050053876 0.025572278 0.046456147
0.0023158535 0.021953262 0.045046028 0.015359935 0.022119826 -0.016830614 -0.0016547375 0.047280636
-0.010344193 0.020337846 0.050958652 0.030633342 0.0016140833 -0.005312432 -0.0029381902 0.035475153
0.023938863 0.045452714 -0.020255875 0.03787903 0.01613369 0.01776429 0.027701175 -0.013501273
-0.024020385 0.019324066 -0.0006592068 0.029716272 0.03560609 0.029143253 0.0063763363 -0.004976611
0.016975243 0.024910983 0.00885694 0.015193446 0.012867155 0.013412188 -0.0044140634 -0.011072355
0.043565504 0.013938341 0.034011345 -0.011853363 -0.009082608 0.03549603 -0.0039405283 0.015437744
00000000: 32ab 0bbc 911f 38bd 0ebf 2c3d f45c 283c
00000010: 5359 80bc 6f28 bb3c 2794 9e3c 599d 493c
00000020: 7f5a 2f3c d4b5 f63c a923 803c 54cb 0cbc
00000030: 94d6 123d 2353 943c 41aa 9dbc b8ff 963c
00000040: 80a2 c93b 2de3 aeba 4ca3 8b3d 14ca de3c
00000050: f31b 1d3c aa47 553c 4fd5 303c bc8f cdbc
00000060: b00c c53b 921d 073c ce82 bd3b 5a97 913c
00000070: 7906 3a3d c215 a2bb 77df 02ba 7527 cb39
00000080: e430 373d 4f2f 903c 4dff a9bb 338e f23c
00000090: 0cd4 a23c b120 adbc aa5d 7c3c 7499 4abc
000000a0: 746f 843c 61e8 f43c 4695 103c 721e eabb
000000b0: 2e04 b53b 7286 ae3c e7a0 d83c f43e 0bbb
000000c0: ee88 743d c854 9c3c 44ec e63c d183 3f3b
000000d0: b0f1 2c3a 9822 0e3c 10af 423d a2c9 133d
000000e0: ec93 a93b b10a 633c e780 9a3b fa33 123d
000000f0: fc91 2d3d 5f65 123c 5d35 e7bb eafc b83c
00000100: ff7c 56bc 763e ee3c 206b 2e3d e779 633d
00000110: 6496 18bc 5d2a 9e3d 4bd3 7bbb 67bd 133c
00000120: d802 283c ccc8 793d 6048 6539 0763 03bc
00000130: 22a3 4139 42b3 81b9 c0e4 a03c d66b 8b3a
00000140: 6fc3 3dbb 7d47 e83c 3945 3fbb 4ac2 163c
00000150: 931e 8fbb fdee d23b ab54 0f3d 9565 853c
00000160: 43fd fc3c ba79 4ebc 97d0 e5ba 5c60 c13c
00000170: 09b2 233d a297 123c 5000 003d f9b0 d23c
00000180: 6873 683a 7431 6abc 819b f33a 7986 b23c
00000190: f70b f13c 18a3 193c cffc 5f3d bae1 943c
000001a0: f604 893c 6af5 323c 8e03 f03b dbf3 0c3c
000001b0: 3637 bdbb 375e 7c3c 09b9 7a3c 2637 8d39
000001c0: 36aa 5bbb c050 943c f70d 753c b6db 183c
000001d0: 45cf 04bc 9970 d43c 4dae 68bc 45e6 7cbc
000001e0: 1281 703a 14f8 093d 941a 473c 92f1 173d
000001f0: 8f7b 023b 9e8d cb3c 37ee d33c 9be6 173d
00000200: 6681 293d 2718 973b 899b 533c 71b7 9d3c
00000210: de9d 953c ce4b 383d db9e fcbb 94b6 88bc
00000220: b847 8b3c 86cd 17bb 4d13 873c 3b42 cc3c
00000230: da86 913c 0eea 063d 7f61 4b3c 0c54 bd3c
00000240: 7fd7 86bc 1e6e 913c 584c b03c d4a9 4dbc
00000250: f1dd 1a3d 02f6 603d 7673 4c3c b398 d53c
00000260: bb4c 903d cb41 4e3d c2b7 9f3b 02d7 b63d
00000270: f946 743a 85bd df3c 7b86 7c3c 7324 8a3c
00000280: 0a45 ab3a 6f47 bb3c 419a bf3c bd17 393b
00000290: df3d 103d a0ec 8dbc 37af f03c b753 0c3b
000002a0: 084f af3c 90d1 e937 4a5c 2b3d 30a4 3c3c
000002b0: 76dc 9b3c 1956 1c3d 13b8 6ebd 7bd8 a9bb
000002c0: ec0d e53c 0be7 843a 9898 2d3c 9ca1 ddbb
000002d0: 77a5 803b d84a bb3c e23a 5d3d de62 263c
000002e0: 085b 9abb db9b a63c 3841 063b c757 ebbb
000002f0: bfb8 203d cab8 073d 31c4 fe3c 097c 063c
00000300: 56d2 233d 7b14 d83c 1d00 4d3d be7c 2a3d
00000310: 5464 a73c 35ec cc3c 43d8 303d 7ee0 253d
00000320: b389 bcbb e0f0 553c f8cb 4d3c 0222 23bc
00000330: efd0 1b3d 3c04 a4bb f47c d13c cd48 3e3d
00000340: 93c5 173b 54d7 b33c 2f82 383d 3da8 7b3c
00000350: a334 b53c 5be0 89bc c7e3 d8ba 57a9 413d
00000360: b17a 29bc 8e9b a63c 05ba 503d c6f2 fa3c
00000370: a68f d33a e913 aebb a78e 40bb 654e 113d
00000380: 6f1b c43c a02c 3a3d a6ef a5bc 0b27 1b3d
00000390: cd2a 843c 6b86 913c 93ed e23c 7134 5dbc
000003a0: 66c6 c4bc 814d 9e3c 9fce 2cba 8a6f f33c
000003b0: b1d7 113d d5bd ee3c 96f0 d03b d712 a3bb
000003c0: aa0f 8b3c 1e12 cc3c b31c 113c eeed 783c
000003d0: c2d0 523c cbbe 5b3c d9a3 90bb d368 35bc
000003e0: be71 323d a45d 643c 7b4f 0b3d 9c34 42bc
000003f0: 38cf 14bc 4964 113d 8c1f 81bb 97ee 7c3c

network_body._body_endoder.seq_layers.0.weight f4 [256, 46]
-0.014399673 0.18911518 -0.30482665 -0.092752635 -0.011482503 -0.04933714 -0.0276823 0.2852966
-0.2569499 0.20657803 -0.19650371 0.10008406 -0.06117771 -0.12250248 -0.16674273 -0.17127067
0.024033898 -0.114475645 0.05198434 0.067276075 0.3458548 0.37206712 -0.058485374 -0.16997546
0.12594227 0.08782461 0.08543733 0.016296454 0.19418025 -0.30373517 -0.091567166 0.17227371
-0.15466712 0.14523089 0.04212921 0.03553258 0.026337324 0.18300268 -0.13031222 -0.15442918
-0.15165204 -0.7165395 0.03949691 0.12588164 -0.069521956 0.29251173 -0.37993017 -0.19560397
0.1298234 -0.007872563 -0.04250824 0.0016369843 -0.35768214 -0.014377852 0.032531884 0.010157007
0.30367395 -0.22578776 -0.050652225 0.11538801 0.14270394 -0.029594004 -0.068819456 -0.1628263
-0.04256248 0.13984014 -0.008143544 -0.2609765 -0.2966614 0.018340386 -0.17141879 -0.13671397
0.26791355 -0.11602434 0.021580407 -0.3384359 0.01265017 -0.09898962 0.06456729 0.053396676
0.003927357 -0.15855913 0.00695742 0.23110203 0.10497883 -0.12248582 -0.034823444 0.045328084
-0.089322254 -0.045012996 0.13885008 -0.049405422 0.1291918 0.17866106 -0.021339599 -0.17267726
-0.05930156 -0.026040277 -0.26115853 0.082449205 -0.2122066 0.04919129 -0.025292072 0.004213166
0.1811613 0.041274015 -0.15270776 -0.18111263 -0.06241846 -0.048015706 -0.11908829 -0.04048078
-0.06156434 0.05123205 0.08939363 0.12491574 0.0013643291 0.016882898 -0.040686943 -0.078294545
0.22637518 0.068228185 -0.099014334 -0.22142223 0.023608401 0.10626447 0.0026117112 0.25728086
0.21876273 -0.16226499 0.09329399 -0.16372009 0.033323497 0.248601 -0.21105741 -0.14951268
-0.1662458 -0.24483469 -0.08780892 0.05893144 0.09209859 0.028682249 0.0019178423 -0.08387997
0.25016153 -0.0062326123 -0.21895589 -0.150332 0.10809345 0.04584066 0.209207 -0.030606933
0.223279 0.00015643614 0.14782692 -0.1956684 0.08991093 0.13372968 0.09721597 -0.04462427
-0.017809113 0.26802105 0.04567219 -0.17697495 0.10232808 -0.051918883 -0.09218203 0.043700974
0.16160241 -0.11248708 0.07917939 -0.14375195 -0.29462755 0.14369068 0.00356589 -0.17465428
-0.2302741 0.060265306 0.009318119 0.13973215 0.19406214 0.04299415 -0.18591581 0.02282401
-0.21858117 -0.08080755 0.32731804 -0.09049164 0.08756597 -0.02277649 0.0478211 -0.26314244
-0.16878434 0.10947188 0.078154 0.17301628 -0.20979224 0.10332533 0.075631425 0.21604997
-0.14569579 -0.0009041714 -0.09007078 -0.06364295 -0.20131212 -0.050377335 0.013349981 -0.10558315
0.061018154 -0.1444077 -0.1907385 0.1389002 0.2214302 -0.056896653 0.19331755 -0.1879265
0.07874889 -0.24315117 -0.19390738 -0.14565931 -0.08099732 -0.07097625 -0.04218654 0.15588953
0.1099133 -0.05378554 -0.001505718 -0.010382523 0.1688661 0.1680341 -0.057931006 0.03314243
0.064323425 0.162103 -0.01622754 0.22191359 -0.32467103 0.083786294 -0.30909577 0.10827165
0.04809976 0.13125256 -0.20786797 -0.052511584 0.052061744 0.16101673 0.15491633 -0.06155031
-0.1891589 0.10469101 0.1310764 -0.049511988 0.087524466 0.03948141 -0.12825103 -0.0705496
00000000: 9bec 6bbc 69a7 413e 3d12 9cbe 18f5 bdbd
00000010: 1c21 3cbc be15 4abd fec5 e2bc 6512 923e
00000020: f08e 83be 3189 533e 4538 49be dff8 cc3d
00000030: 7a95 7abd 95e2 fabd 9bbe 2abe 9461 2fbe
00000040: bde2 c43c 3572 eabd 88ed 543d 0ac8 893d
00000050: e113 b13e 957f be3e 5c8e 6fbd 0c0e 2ebe
00000060: 03f7 003e 64dd b33d c4f9 ae3d 2480 853c
00000070: 30d7 463e 2d83 9bbe 9187 bbbd 8568 303e
00000080: 0f61 1ebe 68b7 143e ae8f 2c3d 9c8a 113d
00000090: 5fc1 d73c 0e65 3b3e 9170 05be af22 1ebe
000000a0: ac4a 1bbe 226f 37bf 83c7 213d 1ee7 003e
000000b0: 8761 8ebd 19c4 953e 3586 c2be 684c 48be
000000c0: 6df0 043e ecfb 00bc 1f1d 2ebd 1490 d63a
000000d0: 1d22 b7be 1591 6bbc 2740 053d 9369 263c
000000e0: 277b 9b3e e834 67be b578 4fbd 8d50 ec3d
000000f0: fb20 123e 206f f2bc 37f1 8cbd f0bb 26be
00000100: ff55 2ebd 4132 0f3e 806c 05bc b69e 85be
00000110: 01e4 97be 943e 963c 6888 2fbe bffe 0bbe
00000120: f72b 893e 2b9e edbd 65c9 b03c 7847 adbe
00000130: a942 4f3c 12bb cabd db3b 843d 79b6 5a3d
00000140: 0fb1 803b 535d 22be 12fb e33b 03a6 6c3e
00000150: 24ff d63d d8d9 fabd 07a3 0ebd f1a9 393d
00000160: 96ee b6bd 8c5f 38bd b72e 0e3e 575d 4abd
00000170: db4a 043e edf2 363e 62d0 aebc 4fd2 30be
00000180: 31e6 72bd 6b52 d5bc 92b6 85be 21db a83d
00000190: b04c 59be ce7c 493d 5231 cfbc 990e 8a3b
000001a0: 5982 393e f10e 293d 6c5f 1cbe 9775 39be
000001b0: 80aa 7fbd 1eac 44bd 90e4 f3bd 2dcf 25bd
000001c0: e42a 7cbd b3d8 513d 0214 b73d d3d3 ff3d
000001d0: 4ad3 b23a 014e 8a3c 5aa7 26bd e458 a0bd
000001e0: e5ce 673e 38bb 8b3d 07c8 cabd 82bc 62be
000001f0: 6866 c13c 30a1 d93d 3e29 2b3b 51ba 833e
00000200: 5603 603e cb28 26be eb10 bf3d 3da6 27be
00000210: 387e 083d 4391 7e3e 6f1f 58be da19 19be
00000220: 573c 2abe f2b5 7abe 2ad5 b3bd 1862 713d
00000230: 309e bc3d 09f7 ea3c 1c60 fb3a 43c9 abbd
00000240: 2c15 803e f13a ccbb f935 60be a2f0 19be
00000250: 1960 dd3d 6ac3 3b3d 5c3a 563e 64bb fabc
00000260: 40a3 643e 0209 2439 f15f 173e 4c5d 48be
00000270: 3923 b83d 6ff0 083e 2b19 c73d f0c7 36bd
00000280: 6be4 91bc 0e3a 893e c312 3b3d ec38 35be
00000290: 6291 d13d e5a8 54bd efc9 bcbd cbff 323d
000002a0: 1a7b 253e a05f e6bd ce28 a23d b633 13be
000002b0: 6cd9 96be a623 133e b5b1 693b 92d8 32be
000002c0: f9cc 6bbe c1d8 763d 06ab 183c f215 0f3e
000002d0: 3ab8 463e a21a 303d b760 3ebe 6bf9 ba3c
000002e0: bed3 5fbe 6e7e a5bd 3b96 a73e ae53 b9bd
000002f0: ca55 b33d c395 babc 0fe0 433d 9bba 86be
00000300: cdd5 2cbe cb32 e03d 340f a03d 2e2b 313e
00000310: c7d3 56be 3b9c d33d a6e4 9a3d 343c 5d3e
00000320: 4731 15be ea05 6dba 0777 b8bd 3c57 82bd
00000330: c424 4ebe 7758 4ebd e1b9 5a3c fb3b d8bd
00000340: 2cee 793d 9ddf 13be f450 43be db3b 0e3e
00000350: 99be 623e 770c 69bd 09f5 453e ce6f 40be
00000360: 1947 a13d 9ffc 78be a88f 46be b727 15be
00000370: ece1 a5bd ff5b 91bd cbcb 2cbd 81a1 1f3e
00000380: 391a e13d 3a4e 5cbd 835b c5ba 751b 2abc
00000390: 3ceb 2c3e 2211 2c3e 1049 6dbd 5bc0 073d
000003a0: 00bc 833d 54fe 253e 9eef 84bc 513d 633e
000003b0: 483b a6be 2698 ab3d cd41 9ebe 87bd dd3d
000003c0: 4104 453d 1267 063e 57db 54be 6316 57bd
000003d0: b23e 553d 92e1 243e 63a2 1e3e 2e1c 7cbd
000003e0: dfb2 41be 3e68 d63d e438 063e 15cd 4abd
000003f0: 0740 b33d 42b7 213d 3d54 03be 4f7c 90bd

network_body._body_endoder.seq_layers.2.bias f4 [256]
0.0073995073 -0.001555227 0.0141538065 0.005744616 -0.006882059 0.0056797345 0.014779943 0.034995876
-0.008462572 0.045354307 0.0059681158 0.04505497 0.00032327807 0.009553673 0.040278874 0.0053159315
0.03900133 0.034729313 -0.0022787207 0.00778648 0.005392143 -0.0005274327 -0.002521726 0.019664353
0.021195346 0.0073992526 -0.0004473022 -0.002161039 -0.004666928 0.024541149 -0.0009908681 0.015169961
0.02087495 0.0064928457 0.0027420246 0.008364437 0.023997132 0.011431264 0.016322792 -0.011718419
0.0018276696 0.031193338 -0.004358131 0.032318577 0.002330456 0.020172143 0.005403054 -0.0039475393
0.025981458 0.011454877 -0.005543668 -0.0112901125 0.025777353 0.021416375 0.0012042552 0.029268902
0.02276531 -0.009731386 0.0069543426 0.0091753835 0.004032784 0.037422944 0.03252325 0.0024824466
0.023268996 0.0014294115 -0.0084157325 0.010609571 0.009675359 0.027542805 0.025772652 -0.0062622754
0.010993465 0.007435435 0.027487155 0.033119068 0.010518286 0.00654869 0.0040914793 0.0031081547
-0.002661369 0.018392645 -0.0023518943 -0.00907192 -0.0054486566 0.009999249 0.033629347 0.0155982245
0.009769066 0.00051928987 -0.007140584 0.026653977 0.008410532 -0.0022223743 0.009058625 0.016587522
0.0024621987 0.019317834 0.012405492 0.011154783 -0.0032762648 0.030447967 0.022231933 0.024239948
-0.0014886637 0.009837026 0.023346618 -0.0025233198 0.0106042195 0.008778601 0.002431531 0.013180927
-0.0047447653 0.0035662223 0.0041614496 0.018770235 0.015305361 -0.004117757 0.055805523 -0.0004042771
0.020711642 -0.006707461 0.027755296 0.0078065665 0.006472485 0.016949125 0.020192815 0.03769946
0.03463043 0.016022848 0.0053696097 -0.000100831705 -0.015336693 0.011332811 0.012852924 -0.0023540414
-0.010996098 0.0045529013 0.019864095 0.024536109 0.046918124 0.0147156585 0.032490484 -0.0016806362
0.021029603 0.03731926 -0.007355026 0.012816898 0.0053168065 -2.889383e-05 -0.0064654774 0.0039556753
-0.015111259 0.0015120521 0.033627648 -0.0014955989 0.014293737 0.019288855 0.0036020784 0.0051645143
0.014480845 0.03636488 0.0010382704 0.0012903452 0.01565646 -0.003348188 -0.014085934 0.035394095
0.0064735995 0.018465742 -0.012212152 0.012899106 -0.004361844 0.019765954 0.055073656 0.02463465
-0.002713679 -0.0127458535 0.0242649 0.024170745 0.011678156 0.003075212 0.007862845 -0.0077373064
-0.00843578 0.020998545 0.011496387 -0.004940151 0.015117156 0.023056462 0.02633359 0.0053687645
-0.0036414438 0.054595374 0.008238907 -0.0057341917 0.00057152874 0.003457359 -0.0037512935 0.0013749012
0.00629343 0.011633916 0.024808971 0.0055986573 0.026468316 0.00942679 0.03927299 0.026082754
0.030678242 -0.011445823 0.010294773 0.007643254 -0.005125578 0.028942281 0.03384812 -0.0031677424
0.0125705395 0.033918086 -0.009141244 0.020236067 0.048606273 0.0057788943 0.018950632 0.018698718
0.030522907 0.016362159 0.020211827 0.009391979 0.0015911162 0.012672547 0.02006653 -0.000125441
0.004504966 0.022820545 0.021321712 0.024455318 0.035625074 0.047623336 0.03508324 0.0008798309
0.0197447 -3.072863e-05 0.016430205 0.02007243 0.041720584 0.00051812525 0.012606302 0.006516459
0.0071461466 -0.0035479462 -0.003282758 0.014172246 0.008216151 -0.005191139 0.03156197 0.009464356
00000000: 9177 f23b c2d8 cbba 5ee5 673c 553d bc3b
00000010: e582 e1bb 111d ba3b 9327 723c d657 0f3d
00000020: 99a6 0abc 70c5 393d 2f90 c33b 8f8b 383d
00000030: a67d a939 0287 1c3c 76fb 243d 4431 ae3b
00000040: dcbf 1f3d 5340 0e3d 9756 15bb ba25 ff3b
00000050: 93b0 b03b 6943 0aba 8b43 25bb 2317 a13c
00000060: dda1 ad3c 6e75 f23b e383 eab9 38a0 0dbb
00000070: 08ed 98bb 850a c93c 04e0 81ba 6e8b 783c
00000080: f101 ab3c f0c1 d43b 8ab3 333b fe0a 093c
00000090: a295 c43c 324a 3b3c 60b7 853c 9dfe 3fbc
000000a0: 6a8e ef3a 2c89 ff3c a7ce 8ebb 7c60 043d
000000b0: 90ba 183b 0d40 a53c 1a0c b13b 5c5a 81bb
000000c0: 11d7 d43c 3dad 3b3c a8a7 b5bb 2afa 38bc
000000d0: 072b d33c 6571 af3c 19d8 9d3a 56c5 ef3c
000000e0: 517e ba3c 6470 1fbc 41e1 e33b 5954 163c
000000f0: 7225 843b cd48 193d 1937 053d 8bb0 223b
00000100: 9f9e be3c 175b bb3a 24e2 09bc c4d3 2d3c
00000110: 6685 1e3c 73a1 e13c 2b21 d33c c633 cdbb
00000120: ef1d 343c f3a4 f33b be2c e13c dca7 073d
00000130: e454 2c3c 6596 d63b d111 863b 2fb2 4b3b
00000140: 5d6a 2ebb 2cac 963c 3d22 1abb 64a2 14bc
00000150: a58a b2bb e4d3 233c edbe 093d b28f 7f3c
00000160: 6f0e 203c f420 083a 8ffb e9bb 7159 da3c
00000170: 54cc 093c 41a5 11bb a16a 143c 8ee2 873c
00000180: d75c 213b 6f40 9e3c 6840 4b3c 8dc2 363c
00000190: 9ab6 56bb 046e f93c be1f b63c db92 c63c
000001a0: 441f c3ba 7a2b 213c 6841 bf3c 485e 25bb
000001b0: 52bd 2d3c 1fd4 0f3c 525a 1f3b d1f4 573c
000001c0: fa79 9bbb 48b7 693b c55c 883b 09c4 993c
000001d0: 56c3 7a3c 40ee 86bb 5594 643d 27f5 d3b9
000001e0: 76ab a93c 43ca dbbb 135f e33c 3ace ff3b
000001f0: 2417 d43b e4d8 8a3c 676b a53c c06a 1a3d
00000200: a3d8 0d3d 5942 833c 8df3 af3b 9c75 d3b8
00000210: c146 7bbc 41ad 393c 1295 523c 4346 1abb
00000220: fa28 34bc 8130 953b 07ba a23c f3ff c83c
00000230: 382d 403d f219 713c be14 053d cb48 dcba
00000240: 4646 ac3c 15dc 183d 6e02 f1bb f7fd 513c
00000250: 9b38 ae3b 0761 f2b7 5bdc d3bb 9c9e 813b
00000260: 3795 77bc 0d30 c63a 25bd 093d f907 c4ba
00000270: 4730 6a3c a903 9e3c d910 6c3b 163b a93b
00000280: 1141 6d3c 57f3 143d 9316 883a cd20 a93a
00000290: fa41 803c 466d 5bbb b0c8 66bc 66f9 103d
000002a0: 7d20 d43b 7845 973c 7a15 48bc c656 533c
000002b0: cded 8ebb 36ec a13c ea94 613d 9bce c93c
000002c0: fbd7 31bb fcd3 50bc 2fc7 c63c ba01 c63c
000002d0: bd55 3f3c 7f89 493b 2ad3 003c 3b89 fdbb
000002e0: 3a36 0abc 2405 ac3c 585b 3c3c fde0 a1bb
000002f0: f3ad 773c e8e0 bc3c 8ab9 d73c 76ec af3b
00000300: 4aa5 6ebb 669f 5f3d 7bfc 063c e3e5 bbbb
00000310: a5d2 153a dc94 623b 43d8 75bb 0736 b43a
00000320: 1e39 ce3b 2e9c 3e3c 2f3c cb3c f174 b73b
00000330: 15d4 d83c d372 1a3c b7dc 203d 80ab d53c
00000340: f050 fb3c 4387 3bbc 68ab 283c 4374 fa3b
00000350: 77f4 a7bb 5d18 ed3c 54a4 0a3d e699 4fbb
00000360: aaf4 4d3c b1ed 0a3d 28c5 15bc 1cc6 a53c
00000370: 5f17 473d e15c bd3b 5b3e 9b3c 0e2e 993c
00000380: 2d0b fa3c ef09 863c 4693 a53c d1e0 193c
00000390: 008d d03a 84a0 4f3c 9062 a43c d088 03b9
000003a0: 659e 933b 27f2 ba3c dfaa ae3c 8556 c83c
000003b0: 99eb 113d b010 433d 72b3 0f3d 74a4 663a
000003c0: a3bf a13c 9de2 00b8 a398 863c f06e a43c
000003d0: 34e3 2a3d ccd2 073a aa8a 4e3c 0588 d53b
000003e0: 392a ea3b a984 68bb 8a23 57bb b532 683c
000003f0: 099d 063c 6e1a aabb 2047 013d 6310 1b3c

network_body._body_endoder.seq_layers.2.weight f4 [256, 256]
0.1581499 0.10245541 0.037613984 0.02041212 0.030179854 0.026238816 0.15297575 0.089946516
0.1981407 -0.13802521 0.046607036 -0.077168636 -0.0426774 -0.16564833 0.12622853 -0.07110817
-0.028575903 0.08204216 -0.055486966 -0.03993213 -0.048719596 0.087167084 -0.054782096 -0.03847319
-0.014974018 -0.022443002 0.11335859 0.21555407 0.08325278 -0.043485574 0.030922974 -0.06799973
-0.06523177 -0.12566772 0.016500428 -0.08688268 0.03391812 -0.06456848 0.07301466 0.031472836
0.08624546 0.08760083 -0.07300418 -0.100770496 -0.050178554 0.16629194 0.105819814 0.0016270163
-0.102245964 0.06898509 -0.042634845 -0.01404157 0.10963208 -0.051172417 -0.04122682 -0.13822715
-0.020224411 -0.09617192 -0.015566558 -0.086347535 0.03718358 0.056133535 0.05911168 0.010973645
0.06814232 -0.041821912 0.054398596 0.112737276 -0.06492506 -0.028533107 -0.07539045 -0.07428818
0.03777137 -0.09999272 -0.0015661472 0.07056489 0.007891544 -0.0742365 0.03219524 0.031248638
0.09734449 0.047833964 -0.06468033 -0.028602542 0.033545017 0.063160345 0.08975792 -0.07746681
-0.063462086 -0.08897884 0.120000355 0.025888674 0.07616429 0.17913714 0.017585889 0.07892364
0.038037986 0.009079373 -0.06589981 0.041203216 0.0643294 0.020121077 -0.14512251 -0.029523037
0.021411568 -0.0005727522 -0.081920475 0.16264923 0.0148251485 -0.059550937 0.024610829 -0.037766494
0.058944106 -0.04115108 0.041015647 0.08007743 0.0025741216 -0.029064158 0.07937819 -0.15659662
-0.055515632 -0.03364744 0.056065287 0.096580565 -0.00030638542 -0.004964266 -0.053511128 0.13201104
-0.1221114 0.04299544 -0.06274312 0.0391297 0.09115235 -0.060166992 -0.06670467 0.014087479
0.041162193 -0.066215865 -0.0025713865 -0.105526246 0.123127565 0.083686 -0.018421005 0.12738882
0.013564837 -0.040290263 -0.037182216 -0.09218149 0.13758929 -0.048061334 0.068443745 -0.02911841
-0.09366381 -0.19343157 0.20300575 -0.058108263 -0.041329004 0.07939659 -0.049453545 -0.10715454
0.0075438474 0.102846086 -0.06423389 0.091438234 -0.09477756 0.10782201 0.030946983 0.17376089
0.034254644 0.025936995 -0.12825309 -0.04103399 0.04888298 -0.014703139 0.020729393 -0.053948287
0.09093857 -0.05465801 -0.10987996 0.13734633 -0.105786346 0.03570266 -0.055785663 -0.05594812
0.050408047 0.02145725 -0.025875885 -0.045292664 0.05865987 -0.042169984 -0.08789911 0.071145624
0.07089332 0.03597444 0.048627924 -0.07889979 0.013496654 -0.0430236 -0.02213596 -0.14263803
-0.04158984 0.1794959 -0.001059107 0.04708505 -0.00087810284 0.009464564 0.052918725 -0.06703401
0.057116058 0.04007293 0.069231816 0.21813932 -0.031449083 0.017822478 -0.010783928 0.095700234
-0.052822478 0.0026507564 0.023537954 -0.032081828 0.090765595 -0.056983363 0.15595976 0.09351931
0.10138591 0.015468582 0.043354426 -0.07377991 0.050800305 0.01745032 0.06638444 0.15794899
-0.13962539 0.121393465 0.022917915 -0.011361342 -0.04486905 0.008701979 0.07050992 -0.06512948
-0.023405995 -0.017145075 -0.0043359334 0.073918805 0.113041356 -0.055298787 0.06650777 -0.12325882
0.07878406 0.1307066 -0.065575406 -0.044032354 0.029351003 0.15907949 0.060465675 -0.041061405
00000000: 0cf2 213e 24d4 d13d 1f11 1a3d 5137 a73c
00000010: be3b f73c c9f2 d63c ada5 1c3e e135 b83d
00000020: 65e5 4a3e 7b56 0dbe 05e7 3e3d 970a 9ebd
00000030: 7fce 2ebd b79f 29be 0d42 013e 29a1 91bd
00000040: 0318 eabc b805 a83d 4d46 63bd e08f 23bd
00000050: 338e 47bd a884 b23d 3163 60bd 1096 1dbd
00000060: 9555 75bc 63da b7bc 8c28 e83d 35ba 5c3e
00000070: 6f80 aa3d ee1d 32bd 2d52 fd3c 7143 8bbd
00000080: 3c98 85bd 0aaf 00be e82b 873c 8cef b1bd
00000090: baed 0a3d 7b3c 84bd b688 953d a9e9 003d
000000a0: 76a1 b03d 1068 b33d 3783 95bd c360 cebd
000000b0: 0788 4dbd 6f48 2a3e 0fb8 d83d 9c41 d53a
000000c0: 5566 d1bd 0e48 8d3d e0a1 2ebd 9d0e 66bc
000000d0: c986 e03d 2b9a 51bd 74dd 28bd 6b8b 0dbe
000000e0: aaad a5bc c9f5 c4bd e00a 7fbc fad6 b0bd
000000f0: cf4d 183d 47ec 653d 171f 723d ceca 333c
00000100: 338e 8b3d 744d 2bbd 10d1 5e3d cde2 e63d
00000110: 6ef7 84bd 43be e9bc 4f66 9abd 6724 98bd
00000120: 27b6 1a3d fcc8 ccbd 2e47 cdba 5384 903d
00000130: 894b 013c 4e09 98bd 28df 033d 25fd ff3c
00000140: 8c5c c73d 8ced 433d 1f77 84bd e14f eabc
00000150: 8066 093d 365a 813d 00d3 b73d eba6 9ebd
00000160: 69f8 81bd 8a3a b6bd bfc2 f53d 7c14 d43c
00000170: 06fc 9b3d ba6f 373e 4810 903c b8a2 a13d
00000180: b8cd 1b3d a7c1 143c 7bf6 86bd b4c4 283d
00000190: 22bf 833d f5d4 a43c ff9a 14be 4cda f1bc
000001a0: 5067 af3c c024 16ba ecc5 a7bd 858d 263e
000001b0: 2ee5 723c afeb 73bd a69c c93c 0ab1 1abd
000001c0: 606f 713d 098e 28bd 0600 283d a3ff a33d
000001d0: 98b2 283b f517 eebc 0891 a23d dd5a 20be
000001e0: 5c64 63bd e6d1 09bd b7a4 653d 08cc c53d
000001f0: 5ba2 a0b9 48ab a2bb 7c2e 5bbd e72d 073e
00000200: 8b15 fabd fd1b 303d 777f 80bd 7746 203d
00000210: 15ae ba3d aa71 76bd 759c 88bd 2bcf 663c
00000220: b099 283d 2f9c 87bd b584 28bb 251e d8bd
00000230: 4e2a fc3d 9163 ab3d a6e7 96bc 3772 023e
00000240: 0d3f 5e3c 6707 25bd 614c 18bd a6c9 bcbd
00000250: 35e4 0c3e f6db 44bd 3c2c 8c3d bb89 eebc
00000260: d0d2 bfbd ed12 46be bde0 4f3e ee02 6ebd
00000270: 9a48 29bd ae9a a23d cd8f 4abd d773 dbbd
00000280: 6132 f73b f8a0 d23d 0f8d 83bd f843 bb3d
00000290: bd1a c2bd c9d1 dc3d 8784 fd3c 60ee 313e
000002a0: 994e 0c3d d279 d43c c754 03be 4213 28bd
000002b0: 8539 483d 6fe5 70bc b0d0 a93c e1f8 5cbd
000002c0: 003e ba3d 14e1 5fbd bf08 e1bd 84a4 0c3e
000002d0: 83a6 d8bd f43c 123d 827f 64bd db29 65bd
000002e0: ab78 4e3d 1dc7 af3c aaf9 d3bc cd84 39bd
000002f0: 5545 703d 6fba 2cbd 7304 b4bd ccb4 913d
00000300: 8430 913d ef59 133d 132e 473d 3796 a1bd
00000310: 1221 5d3c 8439 30bd 7956 b5bc b40f 12be
00000320: 1c5a 2abd c6cd 373e bcd1 8aba 41dc 403d
00000330: 7c30 66ba 4211 1b3c 4ec1 583d 2149 89bd
00000340: 87f2 693d 8323 243d 69c9 8d3d ea5f 5f3e
00000350: c1d0 00bd 7200 923c 13af 30bc 7cfe c33d
00000360: 625c 58bd 50b8 2d3b abd2 c03c 3c68 03bd
00000370: 50e3 b93d 6367 69bd eab3 1f3e 0d87 bf3d
00000380: 6aa3 cf3d ef6f 7d3c 6994 313d ec19 97bd
00000390: fb13 503d f9f3 8e3c 91f4 873d 61bd 213e
000003a0: f5f9 0ebe 239d f83d 5abe bb3c ec24 3abc
000003b0: 9cc8 37bd bf92 0e3c 8167 903d 9b62 85bd
000003c0: eebd bfbc d473 8cbc 7214 8ebb be62 973d
000003d0: 3a82 e73d fb80 62bd 3a35 883d 1f6f fcbd
000003e0: 8a59 a13d f3d7 053e 664c 86bd 455b 34bd
000003f0: 8471 f03c bce5 223e dbaa 773d 0130 28bd
