HW4/Assets/Hummingbird/config/results/Hummingbird/Hummingbird/Hummingbird-4499896.onnx (onnx, 320786 bytes, 8 tensors)

action_model._continuous_distribution.log_sigma f4 [1, 5]
00000000: 1f5a 08be da08 0dbe 26ea 36be 8ae5 8fbd
00000010: 7f94 ffbc
-0.13315628 -0.13772908 -0.17862758 -0.07026203 -0.031198738

action_model._continuous_distribution.mu.bias f4 [5]
00000000: 19bc e9ba 3220 a23c 60bf 663a 0ad2 033b
00000010: 1e03 253c
-0.0017832547 0.019790743 0.0008802321 0.0020114207 0.010071544

action_model._continuous_distribution.mu.weight f4 [5, 256]
00000000: 7101 95bb 2b46 9e3c c9c8 a9bd 8bc4 bfbc
00000010: ee51 163d f3df 8c3d 39fb c1bc 3b3f bc3c
00000020: 47cb 2f3c d9ed c13c c2d5 14bd 9a65 493d
00000030: 3791 4d3c 84b2 b4bc 0412 31bd 4f58 683d
00000040: 80f6 383c 77b7 18bc d456 4cbd 9bbe 2b3d
00000050: 00d1 8e3c 6741 613c 0127 d83c d5fe bbb9
00000060: c6dd 7fbd f4f3 163d f1de 57bd bf00 563d
00000070: 845e 1cbd 6505 edbb c237 9b3c 5a6d 893c
00000080: 68e0 813d da17 0ebd b30b 87bd 6bea 22bc
00000090: 9536 163a 394b 723d d78c 34bc 4dc5 efbb
000000a0: ba2c a43c 9c97 37bc 0eb1 26bd a555 f3bc
000000b0: 0277 58bd edf3 06bc 5626 d7bc 1a2b 4cbc
000000c0: 416d b13c e79b 9bbd e4d6 323d 8782 a53a
000000d0: e49c efbc a30b 4f3c 8034 81ba 8763 f63b
000000e0: 94d6 023d b2ff 8ebd e9f6 d83c 6f7c e8bc
000000f0: f792 6cbd 28b9 853d 5fd8 4ebd 2d44 923d
00000100: 9853 dabc 6d34 413c cb40 873c 0df8 e3bc
00000110: ba2c 2ebd efc8 8a3c 4410 8bba f814 083d
00000120: 3bab 82bd 204b 63bd aca7 503d 4f9d 2c3c
00000130: f57a 2ebd 382a 89bd c7a4 083d a380 8c3d
00000140: 81ba 673d bba3 143c d631 a53d 923f 06bd
00000150: 3dd7 d9bb 2621 28bc 2f53 743c ebcb e93c
00000160: 1f00 05bd 537c aabc 7424 973c e9c4 8e3c
00000170: 19e8 3e3d 6b6b 303d 2649 93bd 5b80 3abd
00000180: c03c c53c 1059 fabb 90f7 afbd 5c51 d039
00000190: 6cba 18bd a21f 50bc 6f94 01bd b843 5b3d
000001a0: 7bc5 5e3d 7fc9 c6bc d4c2 dcbc 88d8 c63c
000001b0: e17a 073d 5d0a 74bb bbb9 223d 1ce0 423b
000001c0: fafa d43a b6e8 ff3b 1ca9 0dbd 81a9 b2bc
000001d0: ed88 f7bc 33df ebbc b44e 43bc 7c1f 843d
000001e0: 0eb8 9e3b 6ffe 6abb b837 e2ba e7f7 ce3c
000001f0: 4564 3bbd 5b74 2ebd b786 6a3d c33a 0dbd
00000200: 6dfd df3b a90a a1ba ef73 9cbc 3e98 f43c
00000210: 03cd b8bc 6bcc 163d d15a af3c ea73 913b
00000220: 9907 eb3c 1af1 723a 2eb3 943b f267 623c
00000230: 1be7 623d 172e 613d f631 223d 483c 76bd
00000240: a226 ab3d 5301 f7bb e3ac 043c 8bb4 f8bc
00000250: 290f 023d 9f77 723a 2a89 83bc 4346 2c3d
00000260: 59ce b2bc 60ce bf3d b4c7 373c 839f 043d
00000270: ceb0 a7bc e4d4 4ebd a745 f7bd aef1 e7bc
00000280: 3845 443d 090b c33b de02 b9bd c704 133d
00000290: 03e2 503d 79bd 2fbd 50d1 2f3c e361 ff3c
000002a0: e513 be3c 20dc 2fbd d8d6 3cba 3719 173d
000002b0: 6e14 c13c 6e00 a7bc 8eac 08bd 39ce da3c
000002c0: 0f9a a43c 90d1 cbbb 887c 0bbd b6d4 c73c
000002d0: cb06 60bd 7674 8ebd 0d8b 79bd 5b1d 34bd
000002e0: c7b3 b4bb 6aeb 263d 3e92 893d 136e f23c
000002f0: a3e2 71bb 42bb 27bc 262b ef3c d882 0a3d
00000300: f6f0 0cbd cc8c 1bbc 7870 ab3c 8f6f e73c
00000310: 47f0 43bd 7bde 36bd 9e15 03bd 82b6 713d
00000320: 4a19 523d ac85 083d 0584 0bbc 19c4 cdbc
00000330: 733c c33c 770c 3ebc 377e 7a3d 61c3 c8bb
00000340: 2eb0 11bd 1ab9 edbb cd6d 88bd 0f45 8f3c
00000350: dd65 b33c de75 3f3d 9a27 2d3c d737 80bc
00000360: 3a18 53bc b5f9 f0bb 39fb 85bc 8f6f 563c
00000370: 2ac5 22bd c8c0 893d 7621 fdbc 5cdb 3b3d
00000380: ea2a 22bd a814 9abd a9de 78bd fb91 8d3d
00000390: bf8e 8cbd d1de 613c cca8 7bbc 195b 7bbd
000003a0: 74f0 503d acf4 eebc 1e04 82bc 9e52 3cbd
000003b0: 04a2 d13b a8f4 bb3c 451d 1a3d bed5 2f3d
000003c0: a0f5 b2bc e91a 723d c27d 1bbd adf0 27bc
000003d0: 9f52 3d3d 9f95 12bd da0d e0bc 3dc1 0b3d
000003e0: 3450 d8bc e495 393d d84d 993b 50ed a83d
000003f0: bb7f 8bbd 9c66 1c3d 30c9 1a3d 6f2c ccbc
-0.004547291 0.019320568 -0.0829025 -0.023409149 0.036699228 0.068786524 -0.023679363 0.02297937
0.010729617 0.023672985 -0.036336668 0.04916916 0.012546829 -0.02205778 -0.04323007 0.056724843
0.011289239 -0.009321085 -0.049887493 0.041929822 0.017433643 0.013748503 0.026385786 -0.00035857284
-0.06246736 0.036853746 -0.052702848 0.052246805 -0.038176075 -0.007233309 0.018947486 0.016775776
0.0634163 -0.034690715 -0.06594028 -0.009943585 0.0005730179 0.05915377 -0.011019907 -0.0073172213
0.020040859 -0.01120558 -0.040696196 -0.029703924 -0.05284787 -0.008236867 -0.026263397 -0.012461448
0.021658542 -0.075980954 0.043661967 0.0012627401 -0.029249616 0.012637052 -0.0009857565 0.007519189
0.03194292 -0.06982364 0.026484923 -0.028379647 -0.057757344 0.065294564 -0.050499316 0.0714191
-0.026651189 0.011792284 0.016510388 -0.02782824 -0.042523123 0.016941516 -0.0010609706 0.033223122
-0.06380316 -0.055491567 0.050941154 0.010535552 -0.04259773 -0.06697506 0.03336027 0.06860473
0.05657435 0.0090722395 0.08066146 -0.03277547 -0.006647973 -0.010261809 0.014912411 0.028539618
-0.03247082 -0.020811236 0.01845 0.017427878 0.046608064 0.04307119 -0.07191686 -0.045532566
0.02407682 -0.0076400116 -0.08592141 0.0003973347 -0.03728716 -0.012702854 -0.031635698 0.05353138
0.05438755 -0.024266003 -0.02694837 0.024273172 0.03307617 -0.0037237622 0.039727908 0.002973563
0.0016249113 0.0078097237 -0.034585103 -0.021809341 -0.030216658 -0.028792953 -0.01192062 0.06451318
0.0048437184 -0.003585722 -0.0017259037 0.025264693 -0.04574992 -0.042591434 0.05725738 -0.034479868
0.0068356306 -0.0012286502 -0.01909825 0.029857751 -0.022558695 0.036816042 0.02140561 0.004438867
0.028690146 0.00092674943 0.0045379614 0.013818728 0.05539618 0.054975595 0.039598428 -0.060116082
0.08356978 -0.0075379997 0.00809786 -0.030359527 0.03175274 0.00092493923 -0.016056616 0.042059194
-0.02182691 0.09365535 0.0112170465 0.032378685 -0.02047005 -0.050495997 -0.12073832 -0.028313484
0.047917575 0.005952243 -0.0903375 0.035893228 0.05099679 -0.042905305 0.010731056 0.031174606
0.023202846 -0.042934537 -0.0007203645 0.03688928 0.023569312 -0.020385947 -0.033367686 0.026709663
0.020092992 -0.00622005 -0.03405431 0.02439342 -0.05469398 -0.06955807 -0.060923625 -0.043973308
-0.005514595 0.040751852 0.067173466 0.029593503 -0.0036908768 -0.010237517 0.02919538 0.03381619
-0.034409486 -0.009494018 0.020927653 0.028251437 -0.04783657 -0.044645768 -0.032003038 0.059011944
0.05129365 0.033330604 -0.008515363 -0.02511792 0.023832535 -0.011599652 0.061155524 -0.0061268066
-0.03556841 -0.007254732 -0.06661568 0.017488984 0.021899158 0.046743266 0.010568524 -0.015651627
-0.012884194 -0.007353986 -0.016355144 0.013088121 -0.03973881 0.06726223 -0.030899744 0.045863494
-0.039591707 -0.07523471 -0.06075922 0.06912609 -0.06863164 0.013786034 -0.0153600685 -0.061366174
0.051010564 -0.029169403 -0.015871104 -0.045977227 0.0063974876 0.02294381 0.03762557 0.04292845
-0.021845639 0.059107695 -0.03796173 -0.010250253 0.04622137 -0.03578722 -0.027350355 0.034119833
-0.026405431 0.045308962 0.004678469 0.08248389 -0.06811472 0.038183793 0.037789524 -0.024923531

action_model._discrete_distribution.branches.0.weight f4 [1, 256]
00000000: 730e e13b b1b5 20bb 9d6d cf3b 1239 1b3b
00000010: 56df 3c3c 9bdb f239 6d51 ebba 17c6 383b
00000020: a740 ce3b b512 febb 00fe b43c 63e8 173b
00000030: ed00 ea3a f8cf bb3b e967 9c3b dcf6 3cbb
00000040: 172b ee3b 639d 69bb 23e2 83bc 83b4 28ba
00000050: a7d0 74ba 47e0 783b 33b1 663b 1ed3 acbb
00000060: ddd3 7c3b e213 2a3b e46a 983b 7161 263c
00000070: 3800 fd3b c70a 5bbb 15da 3f3b a5f5 b43b
00000080: ea3d 90bb a2cf e23b 0289 e03a 5099 7bbc
00000090: b761 b9bb 15f4 253b b385 c6bb 79b4 b73b
000000a0: 93e8 dcba efc3 0e3b 0b39 b3bb f57d 193b
000000b0: 944c 02bc 7da2 64bc 5034 fe3b e74b 7dba
000000c0: d794 fb3a d52e d1bb d874 8bbb 53a1 6abc
000000d0: c858 543c d3b0 0f3c a7b4 07bc fb53 fe3a
000000e0: 931c bfba 0811 93bb 271f 3bbb c254 a1bb
000000f0: e00e 643b 1419 833b 87b6 02b9 c4bc 33bc
00000100: ba7f f83b 296b 493b 6d83 cabb 5b3c 213c
00000110: 9d00 d6ba add4 f0bb 9b0b 92ba d8a3 d53a
00000120: ef25 36bc 3f01 d9bb 7b14 a83b a0ee a8bb
00000130: edac cbbb e775 a0bb b7b4 64bb 01fa 4a3b
00000140: e3e4 3e3c 39c7 02b9 450c ff3a b0b9 ac39
00000150: 47c8 57bb 3b84 93bb b71a fbbb dfaf 193b
00000160: 33e6 45bb 973c 433b cb2a 263b 884b 48ba
00000170: ade6 a93b f148 2bbb 7f7b 243c 4c97 ca3b
00000180: 8f72 0f3c a7dd d9bb afe9 8d3a b295 653b
00000190: 1a2b 3239 fc87 16bc 62a2 d3ba 28ab 433b
000001a0: 510d 2e3c 6af1 c33b 93f7 68ba b268 ddba
000001b0: 441e 1fba 0483 20bb c1bc acba 576f 35ba
000001c0: 1064 25ba 6ffc 203b 414f 87bb 912c 3d3b
000001d0: ecdd c63b bf22 9aba fe35 1bbb 0e15 c23b
000001e0: d8ad 893c 1ba3 adba 141e 063c 5f8c f3bb
000001f0: b71f 1cbc 4a04 783c fbf4 b7bb 6380 443b
00000200: 38b7 473a 3f90 923b 2525 393c 25dc 013b
00000210: 2380 f8b9 afb3 103c 9f8e 86bb eb70 8f3b
00000220: 3713 993a 65d7 57bb 9738 f7bb 4446 c3bb
00000230: 908b 7138 ff95 35bc 77d2 f83a 8813 d63b
00000240: 6d02 b7bb 8f3f 39ba 745d 8dbb 6dda 7ebb
00000250: 8890 633c 91a6 963b 131d b73b 77a7 c5bb
00000260: 9575 2bb9 e284 fdbb 6aed 53bc 4a3b 103c
00000270: 0446 193b 7adc 3ebc 5219 023c d737 31bb
00000280: 9c6c 843b 639d 263c d3a4 93bb c074 473c
00000290: bb18 053c 0a3d 093b f6ec 82ba f9a3 c3bb
000002a0: 6fbc 333b 656a d13a a04a 8bbb 1db5 d0bb
000002b0: 5139 06bc 0b74 d93b 630e fa3a 3b09 e4bb
000002c0: 4ac7 f6bb 8524 903a d1d7 123b 6cf9 97bb
000002d0: 1d45 ddba eb3a 863b 653e 1ebb 4718 13bb
000002e0: 2be6 d139 d8f3 813a 63d7 47bc 818a 3f3b
000002f0: 8f95 a9bb cbce 67bb 67af 9f3b 6784 143b
00000300: fa8b 95bb 905d 72bb 802d 023c 3888 f63a
00000310: 2a34 5c3c 60f4 fc3b e33d 38bc 26e5 15bc
00000320: 7bf0 ef3b f285 7c3b 33bd 453c fd42 0bbc
00000330: 5a69 0fbb 8613 32bc d10b 133b a5a2 903b
00000340: e72a fc36 7f19 953b 400b 2abb a024 f6bb
00000350: 8ff6 32bc 4d66 86bc 3430 0cbc 98b4 183b
00000360: afe6 f1bb b4fa ca3b ea8a bebb 4bcb 073c
00000370: ab2a cfbb 860d a0bb 37eb d43b 8d41 8fbb
00000380: 6a03 5d3a 70ed cdba ad14 6aba 6f40 2cbc
00000390: 46b2 0abc e227 583b 18f8 7d3a 54cb c43b
000003a0: 87e4 a7bc 41f8 8d3a 6de6 a2bb 8559 5a3c
000003b0: f21e e33a 90bc 6a3a 32b7 e43b 00ab ff3a
000003c0: 47c0 d93b 47e7 8fbb 14d6 1aba 4a66 52bb
000003d0: abcc 96bb 7bf6 c6bb 59db bcbb 13ab cdbb
000003e0: ab0a 0a3c 27f7 d6bb a64c c8bb f3d6 83ba
000003f0: 3bf8 30bb 63e5 c13b cfc3 7cbb d0d6 ea3b
0.0068681776 -0.002452236 0.0063302056 0.002368514 0.011527857 0.00046321456 -0.0017953344 0.0028194243
0.0062943283 -0.007753695 0.022093773 0.0023179285 0.0017853059 0.005731579 0.0047731292 -0.0028833663
0.0072683203 -0.0035646788 -0.016099041 -0.000643559 -0.0009338953 0.0037975477 0.0035200834 -0.0052741906
0.0038578429 0.0025951792 0.004651414 0.010155068 0.0077209733 -0.0033423172 0.0029274274 0.005522447
-0.004401912 0.0069217244 0.0017130675 -0.015356377 -0.0056574005 0.0025322486 -0.0060584187 0.005606231
-0.001685398 0.0021784266 -0.0054694465 0.0023421024 -0.007952828 -0.013954756 0.007757701 -0.00096624944
0.0019194138 -0.0063837566 -0.004255872 -0.014320689 0.01296062 0.0087701855 -0.008282817 0.001940369
-0.0014580659 -0.0044881143 -0.0028552504 -0.004923434 0.0034798905 0.0040007923 -0.00012465763 -0.010970298
0.0075835856 0.0030734038 -0.006180218 0.00984105 -0.0016327087 -0.0073495717 -0.0011142375 0.001629944
-0.0111174425 -0.006622463 0.0051293946 -0.0051553994 -0.0062156827 -0.0048968676 -0.0034897754 0.0030971768
0.0116512505 -0.00012471982 0.0019458613 0.00032944744 -0.003292577 -0.004501847 -0.0076630968 0.0023450775
-0.0030197024 0.0029790753 0.0025355096 -0.00076406496 0.0051849694 -0.0026136006 0.010039209 0.006182587
0.00875534 -0.0066487375 0.001082709 0.0035031852 0.0001699146 -0.009187695 -0.0016146416 0.0029856656
0.010623292 0.0059797065 -0.0008886989 -0.0016892164 -0.00060698786 -0.0024492154 -0.0013178812 -0.0006921193
-0.0006309161 0.0024564525 -0.004129321 0.0028865675 0.0060689356 -0.0011759623 -0.0023683305 0.00592292
0.016806528 -0.0013247462 0.008185882 -0.007432505 -0.009529046 0.015137741 -0.0056139207 0.002998375
0.0007618549 0.004472762 0.01130036 0.0019815054 -0.00047397715 0.008831902 -0.004106357 0.0043774745
0.00116787 -0.0032934782 -0.007544588 -0.005959304 5.7588855e-05 -0.011083125 0.0018983622 0.00653309
-0.005585006 -0.0007066661 -0.004314119 -0.0038887516 0.013889439 0.004597493 0.0055881827 -0.0060319263
-0.00016351634 -0.007736788 -0.012935022 0.008803198 0.002338768 -0.011649245 0.007940607 -0.002704134
0.0040412676 0.01016936 -0.0045057326 0.012173831 0.008123572 0.0020940923 -0.0009988833 -0.005970475
0.0027425548 0.0015977143 -0.0042508394 -0.0063692466 -0.008192376 0.006636148 0.0019077774 -0.006959108
-0.0075310813 0.0010997212 0.0022406469 -0.0046378877 -0.0016881559 0.004096379 -0.0024146077 -0.002244489
0.00040035075 0.000991459 -0.012197348 0.0029226842 -0.0051752995 -0.003537106 0.0048732045 0.0022661926
-0.0045638056 -0.0036982037 0.007945418 0.0018808907 0.013440171 0.0077195615 -0.011245224 -0.0091488715
0.0073223687 0.0038531986 0.012069034 -0.008499858 -0.0021882863 -0.010868913 0.0022437463 0.00441392
7.5151797e-06 0.0045501585 -0.0025946647 -0.0075116903 -0.010923042 -0.016406203 -0.008556414 0.0023301002
-0.007382236 0.006194437 -0.0058148997 0.008288215 -0.006322225 -0.0048844246 0.0064977664 -0.004371828
0.00084309897 -0.0015711021 -0.00089294725 -0.010513409 -0.008465355 0.0032982756 0.0009688153 0.006005684
-0.020494713 0.0010831432 -0.0049713165 0.013327007 0.0017327948 0.00089544896 0.0069798464 0.0019505918
0.0066452357 -0.004391584 -0.0005906534 -0.0032104426 -0.004602035 -0.006071863 -0.005763453 -0.006276497
0.008425395 -0.0065602246 -0.006112653 -0.0010058567 -0.0027003426 0.0059172376 -0.003856886 0.007166721

network_body._body_endoder.seq_layers.0.bias f4 [256]
00000000: 4426 0ebc 23ae 39bd e305 2e3d 1967 2e3c
00000010: 887b 84bc d3e4 bb3c cb22 a33c 0122 423c
00000020: eaf9 2c3c bdb0 fc3c c505 833c c46d 0bbc
00000030: 1ca7 143d ba8a 9e3c a872 9bbc 5c78 9e3c
00000040: 2666 d83b 7ac0 adba 9bf8 8d3d d1fe e63c
00000050: 7e20 273c 9fa8 513c 939d 333c c162 cfbc
00000060: d9e2 cb3b cbd9 073c 6763 bf3b 7922 8e3c
00000070: 6bb9 393d eff4 65bb c4c7 0aba 49b1 6b3a
00000080: c9bb 383d 09b7 923c 6210 aabb 9ef3 f13c
00000090: 0d2d a13c caf0 adbc 3b6b 773c d4e3 45bc
000000a0: 21ac 853c dfa2 f43c 2733 1b3c 08cf efbb
000000b0: 57d6 b73b 1d66 af3c 828b d43c ac9e 17bb
000000c0: 069e 6a3d 6cf5 9b3c 8e76 ea3c 474d 463b
000000d0: 6eac 2d3a de04 0d3c 8fea 433d c24b 143d
000000e0: d142 8d3b 5428 6f3c 5e85 b93b 49ec 1c3d
000000f0: fabe 2f3d 935c ea3b 334d e3bb e166 b83c
00000100: f019 4abc 6efd ee3c 96f1 2d3d 615d 683d
00000110: 46fb 1abc b926 9f3d 148c 83bb ca5d 2e3c
00000120: 5dcd 2e3c e186 7d3d fa3a 83b9 4f28 03bc
00000130: 4c45 f6b8 bab0 deb8 e8b0 a13c 3809 e93a
00000140: 9dbd 21bb 80f4 ee3c d1d8 6fbb 5f39 183c
00000150: a2ed 87bb 6155 ea3b f3bc 0c3d 596e 843c
00000160: 7316 013d 62d8 49bc 7f29 ebba 3a39 c93c
00000170: ce12 1f3d 401b 113c f3c5 013d 1901 d93c
00000180: 1df0 623a d971 64bc 4cbd fe3a 7b6a b63c
00000190: 9e6a f63c 4820 283c 4247 613d f573 963c
000001a0: ecf9 8b3c dc74 3d3c d131 f53b 3a00 0c3c
000001b0: d031 c5bb 93a8 793c a0b6 773c cd6e 6b3a
000001c0: a1e8 44bb 6d2e 953c ce86 6f3c d24c 123c
000001d0: 96f0 ecbb d351 d53c 927c 54bc d5fe 83bc
000001e0: 5548 8fb9 5dad 0a3d 7257 533c 75f1 1a3d
000001f0: 05cc b73a caae cd3c 215d d83c f0a5 173d
00000200: 43a8 2b3d 0946 943b e7c2 613c 7ea8 9e3c
00000210: 1fad 983c d790 3b3d d88d 0bbc 062f 87bc
00000220: 1e84 8f3c 8bcd d3ba befc 863c d06b cc3c
00000230: 77e5 8e3c 2eca 033d a4f0 4e3c 3fe0 b93c
00000240: 9f95 87bc 7905 913c ecb5 b23c c14b 64bc
00000250: 7fa5 1b3d d449 5e3d afa8 503c 2380 d33c
00000260: 63a7 913d 12ea 503d 753d 913b 10a0 b73d
00000270: 2f16 1a3a f0c2 d93c abb4 823c d612 8c3c
00000280: 445b 823a 841d b83c 4e56 c23c 77dc 473b
00000290: a6dd 143d 8e3d 8fbc 0b0c eb3c 7f5c ed3a
000002a0: d77c aa3c 6955 1639 2eba 2a3d bad1 403c
000002b0: e8e9 973c 3d0f 1e3d e8cc 73bd 0b00 bcbb
000002c0: 5634 e43c 32ee 6d3a 4075 313c 34c4 dbbb
000002d0: 8118 213b 9992 be3c 35bf 5f3d 2ee2 2b3c
000002e0: 1c1c a2bb c515 a53c 5f7f 013b f51e f8bb
000002f0: d9ef 213d 35b5 083d a6ab 023d d9ec 0a3c
00000300: 267f 243d c39f d53c 7789 4e3d 261b 273d
00000310: 79db a53c e995 d13c 55bd 313d 548f 273d
00000320: 31aa 9dbb d457 583c 3b27 4f3c a80f 21bc
00000330: d5cf 1a3d cc64 a3bb e9cf ce3c 114e 423d
00000340: 404e 293b 9eb7 b53c 4ebb 383d 7344 673c
00000350: 882e b53c e38d 86bc a628 0fbb be02 413d
00000360: 399e 24bc 7255 a43c a974 513d b4dd fe3c
00000370: 6bad bf3a 2d28 d5bb 11d7 38bb 5293 153d
00000380: 0acb c23c a5c1 3a3d b4f1 a5bc c7a5 1e3d
00000390: 088b 8d3c c4a2 933c 3e69 e23c 9b51 5bbc
000003a0: 5b45 c3bc cb1d 9c3c fc19 58b8 8de1 fa3c
000003b0: d7e0 163d 83cf f03c 6ac7 d03b f824 a0bb
000003c0: 4d96 8c3c 2aef ca3c 9e6f 183c 16ef 7d3c
000003d0: d9b1 533c 0a9f 673c 6ba6 91bb a2b8 3dbc
000003e0: 7344 353d c4da 633c 4ea7 0a3d f01d 36bc
000003f0: 5efd 1dbc 1db0 163d 34e7 60bb 023a 7c3c
-0.008676115 -0.045332085 0.042486083 0.010644698 -0.016172186 0.02293626 0.019914052 0.0118489275
0.010557631 0.030845994 0.015993962 -0.008510057 0.03629218 0.01935326 -0.01897557 0.019344501
0.006603974 -0.0013256215 0.06932183 0.028197678 0.010200618 0.01279655 0.010962862 -0.025315644
0.0062221107 0.008291672 0.005840707 0.017350422 0.045342844 -0.0035088619 -0.00052940496 0.0008990956
0.04510096 0.017909544 -0.0051899413 0.029535111 0.019674802 -0.021232981 0.015101249 -0.012078244
0.016317429 0.02986282 0.009472645 -0.007318381 0.005610268 0.021410996 0.025945429 -0.0023135347
0.05727961 0.019037925 0.028620984 0.0030258463 0.00066251203 0.008607117 0.047831114 0.03620506
0.0043109437 0.014597017 0.0056616506 0.038311277 0.04290674 0.007152149 -0.006936693 0.022509994
-0.012335286 0.029173579 0.042466722 0.056729678 -0.009459322 0.07771058 -0.0040145013 0.010642478
0.01066908 0.06189621 -0.00025030208 -0.008005216 -0.00011743102 -0.00010618703 0.019737676 0.0017779237
-0.0024679669 0.029169321 -0.0036597739 0.009291022 -0.004148201 0.0071512912 0.034359884 0.0161659
0.03151555 -0.012319656 -0.0017941444 0.02456342 0.038836293 0.008856595 0.03168292 0.026489781
0.00086569955 -0.013943159 0.0019435077 0.02226757 0.030080136 0.010261603 0.054999597 0.01836584
0.017086945 0.011563506 0.007482745 0.008544976 -0.006017901 0.015237945 0.015119225 0.0008981049
-0.0030045884 0.018210614 0.014619542 0.008929448 -0.0072308285 0.026039993 -0.012969153 -0.016112724
-0.00027328977 0.03385674 0.012899267 0.037827928 0.0014022595 0.02510776 0.026411595 0.037023485
0.041908514 0.0045249504 0.0137793785 0.019367453 0.018637238 0.045792427 -0.008517705 -0.016501915
0.017519053 -0.0016159279 0.016477939 0.024953753 0.017443402 0.032175235 0.012630615 0.022689937
-0.016550837 0.017702805 0.021815263 -0.013934077 0.037999626 0.054269627 0.01273553 0.025817936
0.071120046 0.051004477 0.004432375 0.089660764 0.00058779394 0.026582211 0.01595529 0.017098825
0.0009945412 0.022475012 0.023722794 0.0030496398 0.036344193 -0.017485406 0.028692266 0.0018109231
0.020811481 0.00014336933 0.04168146 0.011768753 0.018544152 0.03858875 -0.059521586 -0.00573731
0.027856987 0.00090763264 0.010831177 -0.006706739 0.0024581256 0.023263263 0.05462571 0.010490937
-0.0049471986 0.020151982 0.0019759757 -0.0075720497 0.039535377 0.033375937 0.031901978 0.00847932
0.04016032 0.026077157 0.050424065 0.040797375 0.020246254 0.025584178 0.04339345 0.040908173
-0.004811548 0.013204534 0.012643631 -0.009830393 0.03779586 -0.004986381 0.025245624 0.04743773
0.0025833994 0.022182282 0.045100503 0.014115441 0.022116914 -0.016425079 -0.0021844297 0.047121756
-0.010047489 0.020060275 0.051136646 0.031111576 0.0014623826 -0.0065050335 -0.0028204361 0.03651745
0.023778457 0.04559483 -0.020256855 0.038732316 0.01727821 0.018021949 0.027638074 -0.0133861555
-0.023836782 0.019057175 -5.1522613e-05 0.03062513 0.036835518 0.029395824 0.0063714283 -0.0048872195
0.017161513 0.024772245 0.009303955 0.015498897 0.01292082 0.014137039 -0.0044448874 -0.011579664
0.04425473 0.013907138 0.03385096 -0.011115536 -0.009642927 0.03678905 -0.0034317495 0.0153946895

network_body._body_endoder.seq_layers.0.weight f4 [256, 46]
00000000: c639 93bc 158e 423e 3d12 9cbe 741b bbbd
00000010: 9626 4bbc 2af8 47bd fec5 e2bc 63bb 923e
00000020: 4de2 82be c32e 533e 4538 49be f15f d33d
00000030: 6b0b 7ebd 3b24 f9bd 9bbe 2abe 03f5 2cbe
00000040: 8196 cd3c f7de e9bd 88ed 543d 77d9 933d
00000050: 669c b03e 2e73 be3e 5c8e 6fbd 99d4 2cbe
00000060: e78f 023e d3a1 b33d c4f9 ae3d c56e a03c
00000070: 35b8 473e 937c 9bbe 9187 bbbd 970d 333e
00000080: d771 1ebe b1b1 143e ae8f 2c3d 34ab 0e3d
00000090: 441f d83c 3039 3a3e 6c2d 04be bb5f 1ebe
000000a0: 3ee3 18be 1ab1 37bf cef7 1e3d f9f5 013e
000000b0: d39a 8ebd bc9d 983e 3f18 c4be bff3 47be
000000c0: 6df0 043e 397e e6bb 51c3 33bd b7cb 733a
000000d0: 1d22 b7be de40 6abc 32cb fc3c 9431 203c
000000e0: 277b 9b3e 6168 67be 48e2 57bd a453 eb3d
000000f0: fb20 123e 1085 f9bc 98b2 8ebd 5dee 25be
00000100: ff55 2ebd 6528 103e 9a2e 37bc d1c7 85be
00000110: 01e4 97be ad50 813c 5393 2fbe cce6 0bbe
00000120: f72b 893e ba6f edbd f3db a43c a35b adbe
00000130: a942 4f3c 7b9a cebd 4c4f 803d f452 653d
00000140: 0fb1 803b d77f 24be 5f67 953b cfc3 6a3e
00000150: 3bff d93d 9305 00be 47b9 05bd d4b7 393d
00000160: 931b bbbd c529 35bd 1f58 0e3e 1ec7 46bd
00000170: 8414 073e 9641 363e 62d0 aebc 1b18 32be
00000180: be02 6dbd d3b7 d8bc 92b6 85be 9602 a63d
00000190: 521e 5abe 97b1 4b3d 5231 cfbc 5f34 c83a
000001a0: b096 3a3e c25b 273d 6c5f 1cbe bae0 3bbe
000001b0: 6d18 7fbd 193e 45bd 90e4 f3bd e16a 3abd
000001c0: 7cf9 76bd 99bb 533d 0214 b73d dd6c fd3d
000001d0: d725 ab3a a7ac 8a3c 5aa7 26bd 6302 a7bd
000001e0: 5445 663e 7c6b 8c3d 07c8 cabd 1f25 65be
000001f0: 1a52 c83c 7077 d73d 3e29 2b3b 4b51 843e
00000200: 71e1 5f3e b11d 25be 468a bc3d af83 27be
00000210: 45ec fe3c 44e3 7e3e 5657 58be 5831 19be
00000220: 8c12 2abe 3cbd 7fbe 964e b6bd 1c4f 733d
00000230: 309e bc3d 4a50 dd3c f17e b23b e076 afbd
00000240: 2c15 803e ebda 81bb 7e91 5bbe fa8c 1bbe
00000250: 1960 dd3d 0090 433d 2407 5a3e 3839 02bd
00000260: 40a3 643e 7f6f 403b 1db6 163e f745 48be
00000270: 3923 b83d 2378 0a3e d8b7 cd3d 4298 37bd
00000280: 6be4 91bc 4bb0 8a3e 2b9d 2f3d 926c 34be
00000290: 6291 d13d 55cf 4ebd decd b4bd e701 313d
000002a0: 1a7b 253e 3c57 e2bd 924c a13d d5f7 10be
000002b0: 6cd9 96be e25c 133e de30 753b bfab 31be
000002c0: 171e 6cbe a732 793d 59e9 f73b d99d 0f3e
000002d0: 4ef8 483e dd61 2f3d c336 3ebe 2657 b03c
000002e0: 3851 62be ea70 a5bd 3b96 a73e 983e b7bd
000002f0: 8e85 b13d 72d1 babc 0fe0 433d 2172 86be
00000300: 7567 2bbe 1889 df3d 340f a03d e333 343e
00000310: bd49 58be b8a1 d33d a6e4 9a3d 176b 5e3e
00000320: 52de 17be 3031 8a39 0777 b8bd a189 6ebd
00000330: deb2 4fbe 4c17 4fbd e1b9 5a3c b2fa dbbd
00000340: c984 7a3d 3309 14be f450 43be d0a9 123e
00000350: be7a 633e d5d2 6cbd 09f5 453e 8f3e 40be
00000360: e082 9e3d a454 76be a88f 46be e668 17be
00000370: fa83 a7bd c8df 92bd 0b9e 2abd 948b 1e3e
00000380: 0daf e53d 6502 5dbd a801 9dbb 1526 2dbc
00000390: 424d 2c3e 3a05 303e 14c6 6dbd 485e 093d
000003a0: 00bc 833d 9280 263e bbc6 87bc 89e3 623e
000003b0: 483b a6be 2e7f af3d fd70 a0be 3b57 de3d
000003c0: 4104 453d e2c2 083e 5649 56be 67f1 57bd
000003d0: b23e 553d d3e8 233e 85ba 1e3e 3a22 78bd
000003e0: dfb2 41be b2d4 d93d 0c31 043e af77 4abd
000003f0: 0740 b33d b8e4 173d 22e9 00be 995c 90bd
-0.017971884 0.18999512 -0.30482665 -0.09136096 -0.012399336 -0.048820652 -0.0276823 0.2865859
-0.2556328 0.20623307 -0.19650371 0.10321034 -0.062022608 -0.121651135 -0.16674273 -0.1689034
0.02509618 -0.1141948 0.05198434 0.072192125 0.34494323 0.3719725 -0.058485374 -0.16877975
0.12750207 0.087711 0.08543733 0.019584069 0.19503863 -0.3036848 -0.091567166 0.17485653
-0.15473114 0.14520909 0.04212921 0.03483124 0.026382096 0.18185878 -0.12907952 -0.15466206
-0.14930436 -0.7175461 0.038810544 0.12691487 -0.06963124 0.29807842 -0.38299748 -0.19526576
0.1298234 -0.00703409 -0.04388744 0.000930007 -0.35768214 -0.014297692 0.03085861 0.009777445
0.30367395 -0.22598411 -0.052706033 0.114905626 0.14270394 -0.030458957 -0.06967658 -0.1620421
-0.04256248 0.1407791 -0.011180544 -0.2612901 -0.2966614 0.01578554 -0.17146043 -0.13662261
0.26791355 -0.11593576 0.020124411 -0.33858976 0.01265017 -0.100880586 0.06265125 0.055987313
0.003927357 -0.16064392 0.004559442 0.22926258 0.106443845 -0.12502126 -0.032647397 0.045341328
-0.09136119 -0.044229288 0.13900803 -0.048529737 0.1319142 0.17798457 -0.021339599 -0.17392008
-0.057863943 -0.026454842 -0.26115853 0.08105962 -0.21300629 0.04972991 -0.025292072 0.0015274397
0.18221545 0.04085899 -0.15270776 -0.18347445 -0.062279154 -0.048154924 -0.11908829 -0.045512084
-0.06029652 0.05169258 0.08939363 0.1237428 0.0013057542 0.01692803 -0.040686943 -0.08154752
0.22487384 0.068564385 -0.099014334 -0.22377442 0.024453212 0.10520828 0.0026117112 0.25843272
0.21863343 -0.16124608 0.09206061 -0.16358827 0.031118521 0.24891382 -0.21127066 -0.1496023
-0.16608638 -0.24974531 -0.08901708 0.059401616 0.09209859 0.027015824 0.0054472615 -0.085675955
0.25016153 -0.0039628646 -0.2144222 -0.15190497 0.10809345 0.04774475 0.21291786 -0.03179285
0.223279 0.0029363332 0.14717908 -0.1955794 0.08991093 0.13522391 0.10044831 -0.04482294
-0.017809113 0.27087626 0.042874496 -0.17619541 0.10232808 -0.050490696 -0.088283285 0.043214705
0.16160241 -0.11051795 0.07875933 -0.1415704 -0.29462755 0.143909 0.003741316 -0.17350672
-0.23058353 0.06083932 0.007565659 0.14025058 0.1962597 0.04281794 -0.18575577 0.02152593
-0.22101295 -0.08078177 0.32731804 -0.08947486 0.08668052 -0.02280495 0.0478211 -0.26258948
-0.16738684 0.109148204 0.078154 0.17597918 -0.21121879 0.1033358 0.075631425 0.21720539
-0.14830902 0.0002635806 -0.09007078 -0.058236722 -0.20283076 -0.050559327 0.013349981 -0.10741176
0.06116179 -0.14456634 -0.1907385 0.14322591 0.22214791 -0.057818253 0.19331755 -0.18773864
0.07739806 -0.24055725 -0.19390738 -0.1478611 -0.081794694 -0.07171589 -0.041654628 0.15482932
0.11215029 -0.05395736 -0.004791457 -0.0105681615 0.16826347 0.17189494 -0.05805023 0.03353718
0.064323425 0.16259983 -0.016574254 0.2215711 -0.32467103 0.085691795 -0.31336203 0.10856482
0.04809976 0.13355592 -0.20926413 -0.052720454 0.052061744 0.16006784 0.15500839 -0.060579516
-0.1891589 0.106362715 0.12909335 -0.049430545 0.087524466 0.037083358 -0.12588933 -0.070489116

network_body._body_endoder.seq_layers.2.bias f4 [256]
00000000: 5070 f03b f2c2 c7ba 3a97 5b3c 0bc9 d73b
00000010: dc79 e6bb aa7f a13b 9b0e 6b3c 9b4f 123d
00000020: f213 11bc f584 3c3d 435b cf3b 7d13 383d
00000030: b32c a939 8bc7 173c ddc8 243d e0fd 963b
00000040: a3ee 203d 74ee 103d c83d 1fbb 1672 f83b
00000050: 7224 b03b 3dd6 bf38 c5cb 2cbb 3bda a13c
00000060: 9b45 b43c 579d ef3b 3243 19ba 57db 3cbb
00000070: d12d 93bb 0a4f d23c b14f 8eba 8e41 813c
00000080: 22ee a93c 2d34 dd3b fbca 3f3b ec11 093c
00000090: 9ed1 c33c 7dd4 353c 4a38 8d3c f020 46bc
000000a0: e312 de3a 0da3 023d c4e5 92bb 314a 083d
000000b0: 5147 2c3b f990 a23c 6bb1 bc3b 296e 64bb
000000c0: bbc4 db3c 782d 383c 15a1 bcbb e5f2 39bc
000000d0: ec51 dd3c 6c85 b53c cd16 aa3a 4721 f53c
000000e0: 4ef2 bf3c d91b 26bc e94b d93b 1239 2d3c
000000f0: a538 7a3b 7ee4 173d 746c 043d 5f65 f03a
00000100: 5a03 c13c c7c5 c53a 6aef 11bc b88c 233c
00000110: 2d00 2e3c a6df e43c 8add d83c fa99 d6bb
00000120: 0e66 2e3c e45c e03b bbca d93c 8918 083d
00000130: 9a5e 213c c080 c83b 0bef 813b cc0a 2f3b
00000140: 0621 63bb e732 943c 1d0a 2fbb 4def 16bc
00000150: 6210 b8bb f44a 393c 926f 0b3d 7c48 833c
00000160: 778f 2b3c 8921 f239 5443 f9bb 8b4d dc3c
00000170: fb93 0a3c e732 34bb ff8f 163c f014 8b3c
00000180: 4b09 183b 02f9 9d3c 262d 443c 66d5 333c
00000190: fa33 59bb 0316 fb3c 9171 ba3c fb15 c63c
000001a0: 9f71 a9ba 464c 2a3c 1051 c93c b807 2ebb
000001b0: adeb 2c3c b955 2a3c f3e4 103b b691 4f3c
000001c0: 66bf 8abb e672 6b3b de23 773b f930 a33c
000001d0: 2ca2 783c 1878 88bb e6b5 643d 3e90 ceba
000001e0: 327d ae3c 76f7 dabb 5c17 e43c fd24 fc3b
000001f0: f9c0 c03b 4351 8a3c 7710 a53c 4eb8 1c3d
00000200: bd93 113d abd6 8a3c a31a c73b cba0 bfb9
00000210: d000 7cbc 34af 363c c9a3 503c 4387 1bbb
00000220: 6fdb 37bc 816b 913b 1873 a13c 78ed c93c
00000230: 8db8 403d aa95 6e3c 0a0b 073d cc07 01bb
00000240: 0aae a83c 403f 193d 25e4 e3bb 6377 6b3c
00000250: 0b2d a43b 1af5 1b39 94fa d4bb 4a7b 5a3b
00000260: b928 73bc d365 733a e87e 0c3d 9417 a8ba
00000270: e651 7d3c 9108 a83c 44e6 463b d28e a13b
00000280: 2960 663c e08d 163d 3884 243a 2f48 913a
00000290: 3338 823c e7b0 62bb d2b3 64bc 31cb 133d
000002a0: 1909 c73b b0b8 953c e5cb 4ebc 8d51 4b3c
000002b0: 4db0 97bb 333f a93c fa16 613d 2cfc c73c
000002c0: d2bb 37bb d11c 53bc c6d8 cc3c 7911 cb3c
000002d0: f86e 533c fde0 3c3b b58c 023c f004 01bc
000002e0: afae 09bc a17d ab3c a4ff 323c 057f 9fbb
000002f0: e785 6d3c 334a c63c f884 da3c ed49 9b3b
00000300: 208b 85bb a568 623d 9ce2 023c a86f bbbb
00000310: 1505 0e3a be02 6d3b bda9 8abb ef0e 3b3a
00000320: 43b3 b63b 6650 3b3c 23dd cf3c 5379 b83b
00000330: 937a db3c 269d 2c3c 94b3 213d 1223 dd3c
00000340: 67cd 003d 788a 3dbc d171 333c be6d f53b
00000350: fac0 9fbb 9db3 ec3c b82b 0e3d 77a7 4ebb
00000360: f6d4 473c b6ff 0e3d cac9 17bc 01ca a13c
00000370: 2ddb 4b3d 850a bd3b 67df 9d3c 5c6c 953c
00000380: 5248 fb3c 2fea 813c 7596 a13c 0112 073c
00000390: e1b5 a83a aacd 4c3c ccd2 af3c fb09 c2b9
000003a0: bd51 913b dfa7 b83c 3f65 b93c 0180 c33c
000003b0: dc5e 153d 7954 453d c632 123d 657f fc39
000003c0: d8b0 aa3c eedf 88ba b7e0 873c 28e6 a83c
000003d0: a7bd 2b3d 0e33 113a 7655 483c 1c92 c53b
000003e0: b2e6 0b3c 09aa 6abb 4d94 58bb 1397 5b3c
000003f0: 2a72 f83b 1659 a7bb 6ac4 013d 64d3 1e3c
0.0073376074 -0.0015240593 0.013402754 0.0065852455 -0.0070335697 0.004928549 0.014346744 0.03572045
-0.008854853 0.046025235 0.006328018 0.04494046 0.00032267495 0.009263883 0.04023062 0.004607901
0.03929008 0.035383657 -0.00242983 0.0075819595 0.0053754384 9.147495e-05 -0.0026366573 0.01975738
0.022005847 0.0073124575 -0.00058464997 -0.002881726 -0.0044915457 0.025672454 -0.001085749 0.01577833
0.020743433 0.0067506046 0.0029265273 0.008366089 0.023903664 0.011098024 0.017238755 -0.012092814
0.0016942885 0.03189378 -0.0044829566 0.03327388 0.0026287625 0.019844519 0.0057584546 -0.00348557
0.026827207 0.011241309 -0.005756507 -0.0113494145 0.027016602 0.022158347 0.0012976766 0.029923094
0.02343097 -0.010138475 0.0066313636 0.010572689 0.0038180735 0.03708314 0.03232999 0.0018340758
0.023561168 0.001508885 -0.008907178 0.00998228 0.010620159 0.027938675 0.026472826 -0.006549117
0.010644449 0.006847011 0.026585927 0.033226524 0.009849215 0.006118864 0.0039652637 0.0026709316
-0.0034657135 0.018090678 -0.002670891 -0.009212327 -0.0056171874 0.011309374 0.03404195 0.016025774
0.010471216 0.00046182823 -0.007606903 0.026892444 0.008458133 -0.002749616 0.009189605 0.016977757
0.0023198898 0.019283775 0.011973655 0.010976171 -0.0033142553 0.030650144 0.02275923 0.024180403
-0.0012927538 0.010394162 0.024574786 -0.0026554894 0.010554236 0.010396414 0.002210912 0.012669018
-0.0042342423 0.003592664 0.0037710587 0.019920813 0.015175384 -0.004164707 0.055837534 -0.001575954
0.021299932 -0.0066823317 0.02784317 0.007694839 0.005882379 0.016884452 0.020149453 0.038261704
0.035541285 0.016948065 0.0060761734 -0.0003655016 -0.015381053 0.01115017 0.012734362 -0.0023731745
-0.011221751 0.0044378643 0.019708201 0.024649367 0.047051 0.01456205 0.032969512 -0.0019688485
0.0205908 0.037413836 -0.006954687 0.014371726 0.0050102524 0.0001487326 -0.006499598 0.0033337646
-0.014841252 0.00092848873 0.034300715 -0.001282441 0.015461421 0.020511897 0.0030349651 0.0049303556
0.014061012 0.036756396 0.00062758056 0.0011084134 0.015895939 -0.0034590305 -0.013958888 0.03608245
0.0060740826 0.018276542 -0.012621854 0.01240958 -0.004629171 0.020660019 0.054953553 0.024412237
-0.0028035534 -0.012885288 0.02500571 0.024788605 0.012904875 0.0028820627 0.0079681175 -0.007874712
-0.008403464 0.020933928 0.010925207 -0.004867437 0.014497257 0.024205303 0.026674733 0.0047390372
-0.004075423 0.055275578 0.007988598 -0.0057200976 0.00054176274 0.0036164965 -0.00423166 0.0007135709
0.005575569 0.011432743 0.025374 0.0056296973 0.026791846 0.010535514 0.0394779 0.026994262
0.031445887 -0.011568658 0.010952429 0.007489889 -0.0048752995 0.02889424 0.034709662 -0.0031532922
0.01219677 0.034911834 -0.009264419 0.019749643 0.04976957 0.0057690763 0.019271566 0.018240146
0.030674133 0.015858738 0.019725064 0.008244039 0.0012871587 0.012500206 0.02146282 -0.0003701
0.004434793 0.022540985 0.022631286 0.023864748 0.036467418 0.048176263 0.035692953 0.00048160102
0.020836279 -0.0010442713 0.016586645 0.02061756 0.041928913 0.0005538919 0.012227407 0.0060293805
0.008538889 -0.0035806915 -0.0033047379 0.013402718 0.007581969 -0.0051070554 0.031681456 0.009693954

network_body._body_endoder.seq_layers.2.weight f4 [256, 256]
00000000: c3d8 223e 7ebb d13d 20a1 173d 4e7b a33c
00000010: 1d7b 013d 8dcb e63c 1b65 1f3e 132f b83d
00000020: 607e 4b3e 6cec 0ebe b308 3c3d 6387 9abd
00000030: f949 40bd 66ab 2cbe aacc 013e 0694 92bd
00000040: 786d dcbc 4644 a83d 7822 76bd f243 29bd
00000050: 4e59 49bd 4946 ac3d bc43 5bbd 9c4d 1fbd
00000060: 2e58 81bc 1905 a9bc 3575 e93d 9286 5c3e
00000070: 024c a83d 5988 36bd b171 003d 8189 8cbd
00000080: 530c 86bd 1d52 00be 5583 863c 51ad acbd
00000090: b623 113d caf8 84bd 6814 943d 0f56 ff3c
000000a0: a4d9 b73d 56c8 b73d 75a2 94bd 8d6e cdbd
000000b0: 0efb 3ebd 1bee 2b3e 1e56 d93d f3a7 f73a
000000c0: 9c05 d2bd fd77 8b3d 71fe 34bd 52c0 37bc
000000d0: 0bee e03d fec9 52bd 171a 2cbd dbed 0abe
000000e0: a0ca a9bc 69ea c8bd e88e 31bc 9cbf b8bd
000000f0: 0955 123d ba4c 633d d2d0 723d 7550 173c
00000100: 5a69 963d bd7a 20bd 3714 703d 468e e13d
00000110: 1ca6 82bd 1e84 dfbc cc90 9bbd 4ce6 9abd
00000120: e2e2 213d 2a3a d7bd d7c6 4dbb 9eb9 933d
00000130: 3b5f f33b 4f7f 96bd 5f9b 033d e364 003d
00000140: f246 c73d 6582 3d3d bc99 87bd 8cc4 f2bc
00000150: 5e7f 0a3d 0bbf 803d 2283 b33d c720 a1bd
00000160: 14eb 83bd 1499 b7bd 7a71 f93d 7acc e63c
00000170: a845 9a3d 98e2 373e 91af a83c 6d0b a33d
00000180: 8c9c 1a3d e05f 223c 368b 88bd 532d 353d
00000190: 2840 803d 6b5d ab3c 1681 14be 8381 e3bc
000001a0: 188e c63c 2a52 c0ba a6c9 abbd 9dbc 263e
000001b0: 588e 763c 0444 70bd 8831 d23c 2c2f 28bd
000001c0: 6227 793d fed9 2abd 2f9e 2a3d 69f2 a33d
000001d0: 2c66 3f3a 9ca4 e2bc 057c a23d 82dd 20be
000001e0: 47c5 62bd 5904 04bd 98f6 583d fde1 c63d
000001f0: efc3 42ba 1020 64bb 42d8 5abd cd65 083e
00000200: 2d33 fabd c91e 303d 0824 83bd 3474 273d
00000210: 3c50 be3d 3905 80bd 6d4b 8cbd 1278 6b3c
00000220: b671 253d 6eca 87bd 6897 45bb 78e4 d6bd
00000230: 2c2f f93d e155 a73d 2459 92bc 517b 023e
00000240: 8085 663c 46f4 20bd cfdc 22bd 3d4d bebd
00000250: 546b 0c3e dad2 46bd a58d 8d3d d185 e3bc
00000260: b2e6 c2bd 6844 47be 4f66 4f3e 689b 75bd
00000270: 3746 31bd a638 a13d d0a7 4ebd 9fcd d8bd
00000280: 6bc6 f73b 261e d33d 2523 82bd 57ff bd3d
00000290: 67e2 cabd ccdb dd3d 7f38 053d 8e2e 333e
000002a0: 13da 063d 159b dd3c 8b0b 07be 6297 2bbd
000002b0: 5bff 4f3d 5996 97bc 7725 ab3c c6e7 5bbd
000002c0: 0e93 b93d 22ca 6abd 0032 e2bd 3692 0d3e
000002d0: 6c9b dabd c012 133d ddc7 6cbd d29b 65bd
000002e0: ab18 5e3d e464 bb3c c151 d5bc 0dcd 36bd
000002f0: 9675 6c3d 8d5f 24bd 4cf2 b6bd 4bac 973d
00000300: bf1e 8f3d f873 153d 0011 463d aeef 9cbd
00000310: 6850 503c ea8f 2ebd 0192 c7bc af23 12be
00000320: 4e98 32bd 7cbd 393e 6bc5 82bb 1ae1 3b3d
00000330: 58fd 2539 4429 1c3c 118c 603d cca7 8bbd
00000340: 2ea2 683d 6213 153d a17a 923d 14db 5c3e
00000350: e049 efbc 1395 7c3c 6bb2 33bc 463c c63d
00000360: ce23 56bd 641f 323b e22a b13c f95c febc
00000370: 2d7b bc3d 666e 6ebd 40d8 203e c052 c33d
00000380: 1eaf d03d d634 793c 2f33 2b3d c151 9abd
00000390: 85e4 4c3d c607 9a3c c9d6 893d 5600 243e
000003a0: 2cdf 0dbe 0345 f93d 5126 8f3c 513d 34bc
000003b0: 907d 47bd 5c3e 103c e65b 913d ec12 88bd
000003c0: c9bd c7bc 8885 96bc 0a6c bfbb e80e 973d
000003d0: 5a70 e73d 58fd 6bbd 6614 8b3d 8011 fbbd
000003e0: b4fb a13d c543 053e e36a 82bd 265b 38bd
000003f0: c738 ed3c ba37 273e 53f8 753d d63b 38bd
0.15903 0.102408394 0.037018895 0.019956257 0.03161155 0.028173232 0.15565912 0.08993354
0.19872427 -0.13957375 0.045906734 -0.07545354 -0.046945546 -0.16862258 0.1267573 -0.071571395
-0.026907668 0.08216147 -0.060091466 -0.041324563 -0.049157433 0.08411843 -0.053531393 -0.038892373
-0.015789118 -0.020632314 0.113993086 0.2153571 0.08217622 -0.044563625 0.031358425 -0.06862164
-0.065453194 -0.12531324 0.016420046 -0.08431495 0.035434447 -0.06492765 0.07230455 0.031168966
0.089770585 0.08973758 -0.07257549 -0.100308515 -0.046626143 0.16790049 0.10612129 0.0018894657
-0.10254976 0.06809995 -0.044187967 -0.011215286 0.10982903 -0.051462166 -0.04201707 -0.13567297
-0.020726502 -0.09810335 -0.010837294 -0.090209216 0.035725627 0.055493094 0.059281178 0.009235491
0.07344313 -0.039179552 0.05861303 0.11013465 -0.06379339 -0.027284678 -0.07595977 -0.07563457
0.039523013 -0.10509141 -0.0031399035 0.07213138 0.007427124 -0.07348501 0.032130595 0.031346213
0.097303286 0.046266932 -0.066211194 -0.029634736 0.033812873 0.062864386 0.08765246 -0.0786758
-0.06441322 -0.08964744 0.12179847 0.028173674 0.07532817 0.17957532 0.02059153 0.07961164
0.03774695 0.009910554 -0.066671774 0.044232678 0.06262237 0.020918569 -0.14502367 -0.027771717
0.024237677 -0.0014672924 -0.08388071 0.16282888 0.015048586 -0.058658615 0.025658384 -0.04106061
0.060828574 -0.0417118 0.041654762 0.080052204 0.00073012966 -0.027666382 0.07933811 -0.15709499
-0.05536392 -0.03223071 0.052969545 0.097110726 -0.0007429709 -0.003480915 -0.053428896 0.13320084
-0.12216792 0.04299811 -0.06403357 0.040882304 0.09292647 -0.06250996 -0.06850324 0.014371889
0.040391646 -0.06630407 -0.003015006 -0.10492796 0.121672004 0.08170677 -0.017864771 0.12742354
0.014069915 -0.039295457 -0.03976136 -0.09292076 0.13712817 -0.048540927 0.06911782 -0.02777377
-0.09516658 -0.19459689 0.20253871 -0.05996266 -0.043279853 0.07872133 -0.050453007 -0.10586094
0.007561495 0.10308485 -0.063543595 0.09277218 -0.09906464 0.108329386 0.032524582 0.17498228
0.032922816 0.027051488 -0.13187997 -0.041892417 0.050780635 -0.018504309 0.020891888 -0.053687833
0.090612516 -0.057321675 -0.11044693 0.13825306 -0.106741756 0.035906553 -0.057807792 -0.056056805
0.054222744 0.022875257 -0.02603996 -0.044629145 0.057729326 -0.040130187 -0.08932933 0.07405909
0.06988286 0.03648755 0.048356056 -0.07662903 0.012714483 -0.042617716 -0.024361612 -0.14271425
-0.04360228 0.18138689 -0.003990819 0.04586897 0.00015830004 0.009531323 0.054821078 -0.06819114
0.05679529 0.036395438 0.07152296 0.21567947 -0.029210031 0.015416401 -0.010967831 0.09679465
-0.05228024 0.0027179355 0.021626893 -0.031050192 0.092031814 -0.058210753 0.15707493 0.09537268
0.10189651 0.015210351 0.04179686 -0.075351246 0.05002262 0.018802535 0.0673042 0.16015753
-0.13854665 0.12171366 0.017474325 -0.011000947 -0.04870373 0.00880393 0.07097606 -0.06644234
-0.024382489 -0.01837422 -0.0058417367 0.0737589 0.11300726 -0.057614654 0.06791 -0.12259197
0.07909337 0.13014133 -0.06368043 -0.0450088 0.028957738 0.16329852 0.060051274 -0.04497894
