HW4/Assets/Hummingbird/config/results/Hummingbird/Hummingbird/Hummingbird-4999936.onnx (onnx, 320786 bytes, 8 tensors)

action_model._continuous_distribution.log_sigma f4 [1, 5]
0	0xbe0a81d6	-0.13526091
1	0xbe0d5e80	-0.1380558
2	0xbe380e73	-0.17974262
3	0xbd9110b1	-0.07083262
4	0xbd020bbc	-0.031749472

action_model._continuous_distribution.mu.bias f4 [5]
0	0xbaeb5c7f	-0.0017956643
1	0x3ca3bf04	0.019988544
2	0x3a7b01ce	0.0009575159
3	0x3b1e9bb9	0.0024201705
4	0x3c25491f	0.010088234

action_model._continuous_distribution.mu.weight f4 [5, 256]
0	0xbb9f00f1	-0.004852407
1	0x3c9c8357	0.019105596
2	0xbda9ebd0	-0.08296931
3	0xbcc2b50b	-0.023767969
4	0x3d164802	0.036689766
5	0x3d8ca6dc	0.068677634
6	0xbcbe3d3d	-0.02322256
7	0x3cbae295	0.02281312
8	0x3c2cc39f	0.010544687
9	0x3cc07bba	0.023496497
10	0xbd163272	-0.036669202
11	0x3d4bcad6	0.049753986
12	0x3c4bb5a3	0.012433442
13	0xbcb2697b	-0.021778813
14	0xbd2f68e7	-0.042824652
15	0x3d691d22	0.05691255
16	0x3c3d526d	0.011555296
17	0xbc1c163e	-0.009526787
18	0xbd4d00f1	-0.050049726
19	0x3d2cf797	0.042228308
20	0x3c937cb9	0.018003808
21	0x3c6e8580	0.014558196
22	0x3cd7c1b6	0.026337486
23	0x39258c91	0.00015787991
24	0xbd7f0aa7	-0.06226602
25	0x3d16cb7e	0.03681516
26	0xbd5a034f	-0.05322581
27	0x3d5581e0	0.05212581
28	0xbd1be9d9	-0.03806481
29	0xbbf86534	-0.0075804237
30	0x3c9a7ee4	0.018859334
31	0x3c86266a	0.01637574
32	0x3d80dccb	0.06292113
33	0xbd0e4190	-0.034730494
34	0xbd86bd2f	-0.06579053
35	0xbc2dbbba	-0.0106038395
36	0x3a0faa71	0.0005480415
37	0x3d71a925	0.0589992
38	0xbc3dae8b	-0.011577259
39	0xbbecd9d4	-0.0072281156
40	0x3ca47de2	0.020079557
41	0xbc382ea5	-0.01124159
42	0xbd273ab5	-0.04082747
43	0xbcee637b	-0.02910017
44	0xbd591962	-0.053002723
45	0xbc0ac5ef	-0.008470043
46	0xbcd8552f	-0.026407806
47	0xbc49c2f7	-0.01231455
48	0x3cb33598	0.021876141
49	0xbd9c8df1	-0.07644261
50	0x3d31d845	0.04341914
51	0x3aeb7a78	0.0017965576
52	0xbced2f08	-0.02895309
53	0x3c4b1698	0.0123955235
54	0xbaba2730	-0.0014202353
55	0x3c016f65	0.007900094
56	0x3d04560b	0.03230862
57	0xbd8f2339	-0.0698914
58	0x3cd5beb1	0.026091905
59	0xbce48f22	-0.027900282
60	0xbd6cb87e	-0.057793133
61	0x3d869738	0.065718114
62	0xbd4f17d5	-0.050559837
63	0x3d91ac78	0.07112974
64	0xbcdf734b	-0.027276656
65	0x3c3b061b	0.01141503
66	0x3c84cebf	0.016211865
67	0xbce65c92	-0.028120313
68	0xbd2ca9a0	-0.042153955
69	0x3c8eecbd	0.01744687
70	0xba91b720	-0.0011117198
71	0x3d06f0cc	0.032944486
72	0xbd83e03e	-0.06439255
73	0xbd624283	-0.05523921
74	0x3d5258e6	0.05135431
75	0x3c3242da	0.0108801965
76	0xbd2f1335	-0.042742927
77	0xbd890fc5	-0.06692461
78	0x3d06b6ad	0.032889057
79	0x3d8c0f9d	0.068389155
80	0x3d65f6ea	0.05614368
81	0x3c0c7973	0.008573878
82	0x3da59a52	0.08086075
83	0xbd07951d	-0.03310119
84	0xbbe1c5e2	-0.0068900445
85	0xbc1f7d5f	-0.009734481
86	0x3c7737a4	0.015088949
87	0x3ceb9d4c	0.028761528
88	0xbd041af2	-0.03225226
89	0xbca94aa6	-0.020665478
90	0x3c987c8e	0.01861408
91	0x3c89a9f0	0.016804665
92	0x3d3fecdc	0.046856746
93	0x3d300f3b	0.042983275
94	0xbd92ff8d	-0.07177649
95	0xbd3bcefa	-0.045851685
96	0x3cc3d817	0.02390675
97	0xbc09dd46	-0.008414572
98	0xbdafb94b	-0.08580264
99	0x397a9cdc	0.00023900293
100	0xbd185b65	-0.037196536
101	0xbc4be6c1	-0.012445153
102	0xbd002d79	-0.031293366
103	0x3d5abdf8	0.053403825
104	0x3d5e88a1	0.05432952
105	0xbcc99acf	-0.024609951
106	0xbcd81582	-0.026377443
107	0x3cc5c0d0	0.024139792
108	0x3d060d43	0.03272749
109	0xbb717f32	-0.0036849496
110	0x3d21711c	0.03941451
111	0x3b250569	0.0025180227
112	0x3b0183f7	0.0019762495
113	0x3bf02cb6	0.0073295487
114	0xbd0c9f61	-0.034331683
115	0xbcb3b6ba	-0.021937717
116	0xbcf85b06	-0.03031684
117	0xbcef8240	-0.029236913
118	0xbc3f4f39	-0.011676603
119	0x3d83f301	0.06442834
120	0x3bb0bfb1	0.005393945
121	0xbb7a4539	-0.0038188233
122	0xbaf6e876	-0.0018837589
123	0x3ccfb349	0.025354045
124	0xbd3c52af	-0.04597729
125	0xbd2d5d44	-0.042325273
126	0x3d69001a	0.056884862
127	0xbd0d1694	-0.03444536
128	0x3bedcb27	0.0072568837
129	0xbad397ef	-0.0016143302
130	0xbc92604b	-0.017868182
131	0x3cf674cd	0.030084992
132	0xbcb77faf	-0.022399751
133	0x3d150421	0.03638089
134	0x3cb4ae7f	0.022055862
135	0x3ba50555	0.005036036
136	0x3cead614	0.028666534
137	0x3a8b8215	0.0010643626
138	0x3b84e0ea	0.004055132
139	0x3c5d3e4e	0.013503624
140	0x3d635b99	0.055507276
141	0x3d5f5c17	0.054531183
142	0x3d22b37d	0.039721955
143	0xbd76d0ee	-0.060257845
144	0x3dabc5f2	0.083873644
145	0xbbe9a45d	-0.0071301893
146	0x3bff33fe	0.0077881804
147	0xbcefacec	-0.02925726
148	0x3d00b156	0.03141912
149	0x3a8f63fc	0.0010939832
150	0xbc891bd7	-0.016736908
151	0x3d2b35ed	0.041799475
152	0xbcaeef36	-0.021354299
153	0x3dbfeb2e	0.09371029
154	0x3c338c59	0.010958754
155	0x3d050e86	0.032484554
156	0xbca7e9c1	-0.020497205
157	0xbd4d5bba	-0.050136305
158	0xbdf7556a	-0.12076838
159	0xbce8a3ed	-0.028398478
160	0x3d44596c	0.04793684
161	0x3bc0776e	0.005873612
162	0xbdb943ac	-0.090461105
163	0x3d15920d	0.036516238
164	0x3d4fb4a5	0.050709385
165	0xbd30c5df	-0.043157455
166	0x3c2eb2da	0.010662759
167	0x3d0172ca	0.031603612
168	0x3cb7f46e	0.02245542
169	0xbd2f7383	-0.04283477
170	0xba0d403d	-0.00053882954
171	0x3d182e52	0.03715355
172	0x3cbeb1dc	0.02327817
173	0xbcab0d9f	-0.020880518
174	0xbd0858ce	-0.033287816
175	0x3cddd17d	0.02707743
176	0x3ca47ee5	0.02008004
177	0xbbce0ab4	-0.006287897
178	0xbd08f9f8	-0.033441514
179	0x3cc88377	0.02447675
180	0xbd5f4ce3	-0.054516684
181	0xbd8ef790	-0.069808125
182	0xbd7ad84a	-0.061241426
183	0xbd34d8ee	-0.044152193
184	0xbbb67508	-0.0055681504
185	0x3d24b555	0.040211994
186	0x3d895ad2	0.06706776
187	0x3cf430ac	0.029808365
188	0xbb6024aa	-0.003420154
189	0xbc1f7e3c	-0.009734686
190	0x3cef78d1	0.029232414
191	0x3d08c2e9	0.033389006
192	0xbd0aef45	-0.03391959
193	0xbc132788	-0.008981593
194	0x3caeb9e5	0.021328876
195	0x3ce82dbd	0.028342122
196	0xbd437ef9	-0.047728512
197	0xbd34a647	-0.044103887
198	0xbd02127a	-0.031755902
199	0x3d725bac	0.059169456
200	0x3d53fdb4	0.051755622
201	0x3d062982	0.03275443
202	0xbc0315ef	-0.008000835
203	0xbcd25bdc	-0.025678568
204	0x3cc7901e	0.024360713
205	0xbc451a7f	-0.012030243
206	0x3d7ac94a	0.06122712
207	0xbbb25707	-0.0054425034
208	0xbd127b7c	-0.035762295
209	0xbbefc70d	-0.00731743
210	0xbd88d918	-0.06682032
211	0x3c904b9c	0.017614178
212	0x3cb57a74	0.022153117
213	0x3d3e8d41	0.04652143
214	0x3c34fb80	0.01104629
215	0xbc7f51e1	-0.015583486
216	0xbc4fa024	-0.012672458
217	0xbbe65ecb	-0.007030343
218	0xbc8564ea	-0.016283471
219	0x3c5cb693	0.013471263
220	0xbd21bbcb	-0.039485734
221	0x3d89fea6	0.067380235
222	0xbcf5164c	-0.029917859
223	0x3d3e2594	0.046422556
224	0xbd21e3d3	-0.03952391
225	0xbd9ac66a	-0.07557376
226	0xbd767b44	-0.06017615
227	0x3d8d9c9d	0.06914637
228	0xbd8cce5e	-0.06875299
229	0x3c693dfb	0.014235969
230	0xbc7526ed	-0.014962894
231	0xbd7ba855	-0.06143983
232	0x3d50124c	0.0507987
233	0xbcf2a827	-0.029621197
234	0xbc809a32	-0.015698526
235	0xbd3a9c13	-0.045559
236	0x3bd33e6f	0.0064466516
237	0x3cbe793a	0.023251165
238	0x3d1a8ba2	0.03773082
239	0x3d2f23c4	0.042758718
240	0xbcaf8bff	-0.02142906
241	0x3d728c79	0.059215996
242	0xbd1a6afb	-0.03769968
243	0xbc1ffcf3	-0.009764898
244	0x3d3edb1c	0.046595678
245	0xbd1492e3	-0.036272895
246	0xbce3e0fb	-0.02781724
247	0x3d0d2941	0.03446317
248	0xbcd9501d	-0.026527459
249	0x3d3a758c	0.045522258
250	0x3b983009	0.004644398
251	0x3da99d7a	0.082819894
252	0xbd8c3093	-0.06845202
253	0x3d1d3923	0.038384568
254	0x3d1d1ed9	0.038359497
255	0xbccf11ff	-0.025277136

action_model._discrete_distribution.branches.0.weight f4 [1, 256]
0	0x3be10e73	0.0068681776
1	0xbb20b5b1	-0.002452236
2	0x3bcf6d9d	0.0063302056
3	0x3b1b3912	0.002368514
4	0x3c3cdf56	0.011527857
5	0x39f2db9b	0.00046321456
6	0xbaeb516d	-0.0017953344
7	0x3b38c617	0.0028194243
8	0x3bce40a7	0.0062943283
9	0xbbfe12b5	-0.007753695
10	0x3cb4fe00	0.022093773
11	0x3b17e863	0.0023179285
12	0x3aea00ed	0.0017853059
13	0x3bbbcff8	0.005731579
14	0x3b9c67e9	0.0047731292
15	0xbb3cf6dc	-0.0028833663
16	0x3bee2b17	0.0072683203
17	0xbb699d63	-0.0035646788
18	0xbc83e223	-0.016099041
19	0xba28b483	-0.000643559
20	0xba74d0a7	-0.0009338953
21	0x3b78e047	0.0037975477
22	0x3b66b133	0.0035200834
23	0xbbacd31e	-0.0052741906
24	0x3b7cd3dd	0.0038578429
25	0x3b2a13e2	0.0025951792
26	0x3b986ae4	0.004651414
27	0x3c266171	0.010155068
28	0x3bfd0038	0.0077209733
29	0xbb5b0ac7	-0.0033423172
30	0x3b3fda15	0.0029274274
31	0x3bb4f5a5	0.005522447
32	0xbb903dea	-0.004401912
33	0x3be2cfa2	0.0069217244
34	0x3ae08902	0.0017130675
35	0xbc7b9950	-0.015356377
36	0xbbb961b7	-0.0056574005
37	0x3b25f415	0.0025322486
38	0xbbc685b3	-0.0060584187
39	0x3bb7b479	0.005606231
40	0xbadce893	-0.001685398
41	0x3b0ec3ef	0.0021784266
42	0xbbb3390b	-0.0054694465
43	0x3b197df5	0.0023421024
44	0xbc024c94	-0.007952828
45	0xbc64a27d	-0.013954756
46	0x3bfe3450	0.007757701
47	0xba7d4be7	-0.00096624944
48	0x3afb94d7	0.0019194138
49	0xbbd12ed5	-0.0063837566
50	0xbb8b74d8	-0.004255872
51	0xbc6aa153	-0.014320689
52	0x3c5458c8	0.01296062
53	0x3c0fb0d3	0.0087701855
54	0xbc07b4a7	-0.008282817
55	0x3afe53fb	0.001940369
56	0xbabf1c93	-0.0014580659
57	0xbb931108	-0.0044881143
58	0xbb3b1f27	-0.0028552504
59	0xbba154c2	-0.004923434
60	0x3b640ee0	0.0034798905
61	0x3b831914	0.0040007923
62	0xb902b687	-0.00012465763
63	0xbc33bcc4	-0.010970298
64	0x3bf87fba	0.0075835856
65	0x3b496b29	0.0030734038
66	0xbbca836d	-0.006180218
67	0x3c213c5b	0.00984105
68	0xbad6009d	-0.0016327087
69	0xbbf0d4ad	-0.0073495717
70	0xba920b9b	-0.0011142375
71	0x3ad5a3d8	0.001629944
72	0xbc3625ef	-0.0111174425
73	0xbbd9013f	-0.006622463
74	0x3ba8147b	0.0051293946
75	0xbba8eea0	-0.0051553994
76	0xbbcbaced	-0.0062156827
77	0xbba075e7	-0.0048968676
78	0xbb64b4b7	-0.0034897754
79	0x3b4afa01	0.0030971768
80	0x3c3ee4e3	0.0116512505
81	0xb902c739	-0.00012471982
82	0x3aff0c45	0.0019458613
83	0x39acb9b0	0.00032944744
84	0xbb57c847	-0.003292577
85	0xbb93843b	-0.004501847
86	0xbbfb1ab7	-0.0076630968
87	0x3b19afdf	0.0023450775
88	0xbb45e633	-0.0030197024
89	0x3b433c97	0.0029790753
90	0x3b262acb	0.0025355096
91	0xba484b88	-0.00076406496
92	0x3ba9e6ad	0.0051849694
93	0xbb2b48f1	-0.0026136006
94	0x3c247b7f	0.010039209
95	0x3bca974c	0.006182587
96	0x3c0f728f	0.00875534
97	0xbbd9dda7	-0.0066487375
98	0x3a8de9af	0.001082709
99	0x3b6595b2	0.0035031852
100	0x39322b1a	0.0001699146
101	0xbc1687fc	-0.009187695
102	0xbad3a262	-0.0016146416
103	0x3b43ab28	0.0029856656
104	0x3c2e0d51	0.010623292
105	0x3bc3f16a	0.0059797065
106	0xba68f793	-0.0008886989
107	0xbadd68b2	-0.0016892164
108	0xba1f1e44	-0.00060698786
109	0xbb208304	-0.0024492154
110	0xbaacbcc1	-0.0013178812
111	0xba356f57	-0.0006921193
112	0xba256410	-0.0006309161
113	0x3b20fc6f	0.0024564525
114	0xbb874f41	-0.004129321
115	0x3b3d2c91	0.0028865675
116	0x3bc6ddec	0.0060689356
117	0xba9a22bf	-0.0011759623
118	0xbb1b35fe	-0.0023683305
119	0x3bc2150e	0.00592292
120	0x3c89add8	0.016806528
121	0xbaada31b	-0.0013247462
122	0x3c061e14	0.008185882
123	0xbbf38c5f	-0.007432505
124	0xbc1c1fb7	-0.009529046
125	0x3c78044a	0.015137741
126	0xbbb7f4fb	-0.0056139207
127	0x3b448063	0.002998375
128	0x3a47b738	0.0007618549
129	0x3b92903f	0.004472762
130	0x3c392525	0.01130036
131	0x3b01dc25	0.0019815054
132	0xb9f88023	-0.00047397715
133	0x3c10b3af	0.008831902
134	0xbb868e9f	-0.004106357
135	0x3b8f70eb	0.0043774745
136	0x3a991337	0.00116787
137	0xbb57d765	-0.0032934782
138	0xbbf73897	-0.007544588
139	0xbbc34644	-0.005959304
140	0x38718b90	5.7588855e-05
141	0xbc3595ff	-0.011083125
142	0x3af8d277	0.0018983622
143	0x3bd61388	0.00653309
144	0xbbb7026d	-0.005585006
145	0xba393f8f	-0.0007066661
146	0xbb8d5d74	-0.004314119
147	0xbb7eda6d	-0.0038887516
148	0x3c639088	0.013889439
149	0x3b96a691	0.004597493
150	0x3bb71d13	0.0055881827
151	0xbbc5a777	-0.0060319263
152	0xb92b7595	-0.00016351634
153	0xbbfd84e2	-0.007736788
154	0xbc53ed6a	-0.012935022
155	0x3c103b4a	0.008803198
156	0x3b194604	0.002338768
157	0xbc3edc7a	-0.011649245
158	0x3c021952	0.007940607
159	0xbb3137d7	-0.002704134
160	0x3b846c9c	0.0040412676
161	0x3c269d63	0.01016936
162	0xbb93a4d3	-0.0045057326
163	0x3c4774c0	0.012173831
164	0x3c0518bb	0.008123572
165	0x3b093d0a	0.0020940923
166	0xba82ecf6	-0.0009988833
167	0xbbc3a3f9	-0.005970475
168	0x3b33bc6f	0.0027425548
169	0x3ad16a65	0.0015977143
170	0xbb8b4aa0	-0.0042508394
171	0xbbd0b51d	-0.0063692466
172	0xbc063951	-0.008192376
173	0x3bd9740b	0.006636148
174	0x3afa0e63	0.0019077774
175	0xbbe4093b	-0.006959108
176	0xbbf6c74a	-0.0075310813
177	0x3a902485	0.0010997212
178	0x3b12d7d1	0.0022406469
179	0xbb97f96c	-0.0046378877
180	0xbadd451d	-0.0016881559
181	0x3b863aeb	0.004096379
182	0xbb1e3e65	-0.0024146077
183	0xbb131847	-0.002244489
184	0x39d1e62b	0.00040035075
185	0x3a81f3d8	0.000991459
186	0xbc47d763	-0.012197348
187	0x3b3f8a81	0.0029226842
188	0xbba9958f	-0.0051752995
189	0xbb67cecb	-0.003537106
190	0x3b9faf67	0.0048732045
191	0x3b148467	0.0022661926
192	0xbb958bfa	-0.0045638056
193	0xbb725d90	-0.0036982037
194	0x3c022d80	0.007945418
195	0x3af68838	0.0018808907
196	0x3c5c342a	0.013440171
197	0x3bfcf460	0.0077195615
198	0xbc383de3	-0.011245224
199	0xbc15e526	-0.0091488715
200	0x3beff07b	0.0073223687
201	0x3b7c85f2	0.0038531986
202	0x3c45bd33	0.012069034
203	0xbc0b42fd	-0.008499858
204	0xbb0f695a	-0.0021882863
205	0xbc321386	-0.010868913
206	0x3b130bd1	0.0022437463
207	0x3b90a2a5	0.00441392
208	0x36fc2ae7	7.5151797e-06
209	0x3b95197f	0.0045501585
210	0xbb2a0b40	-0.0025946647
211	0xbbf624a0	-0.0075116903
212	0xbc32f68f	-0.010923042
213	0xbc86664d	-0.016406203
214	0xbc0c3034	-0.008556414
215	0x3b18b498	0.0023301002
216	0xbbf1e6af	-0.007382236
217	0x3bcafab4	0.006194437
218	0xbbbe8aea	-0.0058148997
219	0x3c07cb4b	0.008288215
220	0xbbcf2aab	-0.006322225
221	0xbba00d86	-0.0048844246
222	0x3bd4eb37	0.0064977664
223	0xbb8f418d	-0.004371828
224	0x3a5d036a	0.00084309897
225	0xbacded70	-0.0015711021
226	0xba6a14ad	-0.00089294725
227	0xbc2c406f	-0.010513409
228	0xbc0ab246	-0.008465355
229	0x3b5827e2	0.0032982756
230	0x3a7df818	0.0009688153
231	0x3bc4cb54	0.006005684
232	0xbca7e487	-0.020494713
233	0x3a8df841	0.0010831432
234	0xbba2e66d	-0.0049713165
235	0x3c5a5985	0.013327007
236	0x3ae31ef2	0.0017327948
237	0x3a6abc90	0.00089544896
238	0x3be4b732	0.0069798464
239	0x3affab00	0.0019505918
240	0x3bd9c047	0.0066452357
241	0xbb8fe747	-0.004391584
242	0xba1ad614	-0.0005906534
243	0xbb52664a	-0.0032104426
244	0xbb96ccab	-0.004602035
245	0xbbc6f67b	-0.006071863
246	0xbbbcdb59	-0.005763453
247	0xbbcdab13	-0.006276497
248	0x3c0a0aab	0.008425395
249	0xbbd6f727	-0.0065602246
250	0xbbc84ca6	-0.006112653
251	0xba83d6f3	-0.0010058567
252	0xbb30f83b	-0.0027003426
253	0x3bc1e563	0.0059172376
254	0xbb7cc3cf	-0.003856886
255	0x3bead6d0	0.007166721

network_body._body_endoder.seq_layers.0.bias f4 [256]
0	0xbc0d0f40	-0.008609593
1	0xbd3d2d01	-0.046185497
2	0x3d2e580b	0.042564433
3	0x3c3aa46d	0.011391741
4	0xbc894956	-0.016758602
5	0x3cbb3f2b	0.02285727
6	0x3ca45a7a	0.020062674
7	0x3c413cd2	0.011794286
8	0x3c2bd478	0.010487668
9	0x3cfc7681	0.030818226
10	0x3c8431f0	0.016137093
11	0xbc0a7c4c	-0.008452486
12	0x3d155f3f	0.036467787
13	0x3ca0dceb	0.019636592
14	0xbc98217d	-0.018570656
15	0x3ca04721	0.019565167
16	0x3bdaac68	0.0066733845
17	0xbab0db0e	-0.0013493018
18	0x3d8e65fe	0.06953047
19	0x3ce956a3	0.028483694
20	0x3c2b1de1	0.010444135
21	0x3c50893b	0.012728031
22	0x3c3bd95b	0.011465396
23	0xbcd13707	-0.025538934
24	0x3bd30a05	0.0064404034
25	0x3c078767	0.0082720285
26	0x3bbf2ca0	0.005834177
27	0x3c8ee8c6	0.01744498
28	0x3d3baa3d	0.04581665
29	0xbb8ccf74	-0.0042971913
30	0xb92a8a81	-0.0001626406
31	0x3a95732d	0.0011402123
32	0x3d39fd35	0.045407493
33	0x3c94f391	0.018182548
34	0xbbac7c6b	-0.005263855
35	0x3cf22168	0.029556945
36	0x3ca436f6	0.020045739
37	0xbcae2b29	-0.021260815
38	0x3c777e36	0.015105775
39	0xbc465dc6	-0.012107318
40	0x3c85e2c2	0.016343478
41	0x3cf83f44	0.030303605
42	0x3c2029bc	0.009775575
43	0xbbed47a3	-0.007241206
44	0x3bbcf611	0.005766638
45	0x3cb009f7	0.021489127
46	0x3cd647dd	0.026157314
47	0xbb18c554	-0.0023310976
48	0x3d68c393	0.05682714
49	0x3c9b23f8	0.01893805
50	0x3ceb7230	0.028740972
51	0x3b56d883	0.003278286
52	0x3a05ba1c	0.000510128
53	0x3c06f153	0.008236247
54	0x3d4541e6	0.04815855
55	0x3d1521d1	0.036409203
56	0x3b8a7ab9	0.0042260555
57	0x3c6f1e4b	0.014594625
58	0x3bb1eb18	0.0054296367
59	0x3d1a7a3b	0.037714224
60	0x3d3112c6	0.043230794
61	0x3bea26e7	0.007145751
62	0xbbe119cf	-0.0068695317
63	0x3cbb35ab	0.02285274
64	0xbc4af8a1	-0.012388379
65	0x3cf23407	0.029565824
66	0x3d2eaa03	0.042642605
67	0x3d6a60fe	0.057221405
68	0xbc198645	-0.009370391
69	0x3d9fb8df	0.07798933
70	0xbb897404	-0.0041947383
71	0x3c256f22	0.010097297
72	0x3c3362e1	0.010948868
73	0x3d7eaa73	0.06217427
74	0xb9311038	-0.00016886077
75	0xbc065138	-0.008198075
76	0xb8b72fb5	-8.735006e-05
77	0x3988b5eb	0.0002607548
78	0x3ca38c79	0.019964444
79	0x3b15e92d	0.002287458
80	0xbb02443f	-0.0019877104
81	0x3cf0a1e8	0.029374078
82	0xbb68556c	-0.0035451306
83	0x3c1e144d	0.009648395
84	0xbb7c085e	-0.0038457136
85	0x3bf6eb01	0.007535339
86	0x3d0e56d5	0.03475078
87	0x3c8440b8	0.016144142
88	0x3d02b8e8	0.03191462
89	0xbc49014b	-0.012268375
90	0xbae43a69	-0.0017412427
91	0x3ccc3eea	0.024932344
92	0x3d212579	0.039342377
93	0x3c0fe7b3	0.008783269
94	0x3d02ffd2	0.03198225
95	0x3cdb1384	0.026742704
96	0x3a8bf2c4	0.0010677208
97	0xbc65b93e	-0.014021216
98	0x3b0af301	0.002120197
99	0x3cb97f13	0.022643602
100	0x3cf88463	0.030336564
101	0x3c347b6c	0.011015754
102	0x3d62bf58	0.05535826
103	0x3c97fd14	0.018553294
104	0x3c8b82ed	0.017030204
105	0x3c4111c3	0.01178402
106	0x3bfddfbd	0.007747619
107	0x3c0fa39d	0.008767036
108	0xbbc6b5ee	-0.006064168
109	0x3c8063a3	0.01567251
110	0x3c78c7f8	0.015184395
111	0x3a06b0cb	0.00051380385
112	0xbb3b7c07	-0.0028607862
113	0x3c98227f	0.018571137
114	0x3c718c6a	0.01474295
115	0x3c0f9879	0.00876438
116	0xbbeb4681	-0.0071800356
117	0x3cd732ed	0.0262694
118	0xbc4db113	-0.012554425
119	0xbc82e2b7	-0.015977247
120	0xba86829f	-0.0010262317
121	0x3d0bbe0b	0.034116786
122	0x3c50c21f	0.012741595
123	0x3d1c6261	0.03817976
124	0x3a4bd8bb	0.0007776131
125	0x3cced6d6	0.025248926
126	0x3cdb358b	0.02675893
127	0x3d181641	0.037130598
128	0x3d2c2e84	0.04203655
129	0x3b94c76c	0.0045403745
130	0x3c665832	0.014059113
131	0x3ca0864d	0.01959529
132	0x3c9bae55	0.019004026
133	0x3d3cb1c0	0.046067953
134	0xbc083c2a	-0.0083151255
135	0xbc87a8f1	-0.01656005
136	0x3c93c9c9	0.018040555
137	0xbab23269	-0.0013595346
138	0x3c8728c6	0.016498934
139	0x3ccdf611	0.025141748
140	0x3c8e51d5	0.017373005
141	0x3d04b146	0.032395624
142	0x3c546eaa	0.0129658375
143	0x3cbac62d	0.022799576
144	0xbc8991c5	-0.016793141
145	0x3c90cd6b	0.017676076
146	0x3cb3098d	0.02185514
147	0xbc5c59a9	-0.013449111
148	0x3d1ce8f7	0.03830811
149	0x3d5df628	0.05418983
150	0x3c5b19b8	0.013372831
151	0x3cd3f8ae	0.025875416
152	0x3d91c254	0.07117143
153	0x3d517761	0.05113924
154	0x3b997de3	0.0046841963
155	0x3db83759	0.08994932
156	0x39bfd270	0.00036587147
157	0x3cdaecbc	0.026724212
158	0x3c86e9da	0.016468931
159	0x3c8eb3d6	0.017419737
160	0x3a87638e	0.0010329352
161	0x3cb9712b	0.02263697
162	0x3cc4749f	0.02398139
163	0x3b577158	0.0032873955
164	0x3d15189f	0.036400434
165	0xbc8fa3cb	-0.017534157
166	0x3cebdb13	0.028790986
167	0x3adf4cd4	0.0017036446
168	0x3ca95e41	0.020674827
169	0x39a40bab	0.0003128921
170	0x3d2b7cd8	0.041867107
171	0x3c438db2	0.011935638
172	0x3c9a4114	0.01882986
173	0x3d1c39af	0.03814095
174	0xbd755ca0	-0.059902787
175	0xbbbab85a	-0.005698246
176	0x3ce56cb7	0.02800594
177	0x3a6ba783	0.00089895
178	0x3c31b59c	0.010846522
179	0xbbd99a25	-0.00664069
180	0x3b38ce19	0.0028199016
181	0x3cc14409	0.023592012
182	0x3d60d3f7	0.054889645
183	0x3c309350	0.01077731
184	0xbba5a16b	-0.005054643
185	0x3ca53a9b	0.020169547
186	0x3b25ccbb	0.002529903
187	0xbbf574ad	-0.0074907155
188	0x3d1f48e5	0.038887877
189	0x3d08eca6	0.03342881
190	0x3d031bf6	0.032009088
191	0x3c0bb2e5	0.0085265385
192	0x3d25eb52	0.040507622
193	0x3cd9c8bf	0.026584981
194	0x3d4ec66d	0.050482202
195	0x3d2875c3	0.04112793
196	0x3ca6f289	0.020379322
197	0x3cd49743	0.025951033
198	0x3d32ef93	0.043685507
199	0x3d2882e9	0.04114047
200	0xbb9aeb0e	-0.0047277277
201	0x3c5e2bcf	0.0135602495
202	0x3c5183ab	0.01278774
203	0xbc1d29dd	-0.0095925005
204	0x3d1b8432	0.03796787
205	0xbb9e9542	-0.0048395703
206	0x3ccddaa8	0.025128677
207	0x3d414622	0.047186024
208	0x3b334003	0.0027351386
209	0x3cb466a8	0.022021607
210	0x3d3a224e	0.04544287
211	0x3c6e94eb	0.014561872
212	0x3cb5815a	0.022156406
213	0xbc863e3b	-0.016387096
214	0xbb7ffbef	-0.0039060076
215	0x3d4163c5	0.04721429
216	0xbc258cd1	-0.010104374
217	0x3ca6cf84	0.020362623
218	0x3d529068	0.051407248
219	0x3d005dd3	0.031339478
220	0x3ab79a33	0.0014007747
221	0xbbe3a899	-0.0069475886
222	0xbb31c88f	-0.00271276
223	0x3d15d95c	0.036584243
224	0x3cc257cd	0.023723507
225	0x3d3c3ad7	0.04595455
226	0xbca4f066	-0.020134162
227	0x3d1f843f	0.03894448
228	0x3c90a052	0.017654572
229	0x3c9711e7	0.018441154
230	0x3ce4fcd1	0.027952584
231	0xbc5a1859	-0.013311469
232	0xbcc37121	-0.023857655
233	0x3c9fcab6	0.01950584
234	0x38ea4d7a	0.00011172421
235	0x3cfca750	0.0308415
236	0x3d1762a4	0.036959305
237	0x3cf378b0	0.029720634
238	0x3bc913a2	0.0061363736
239	0xbba7f888	-0.005126063
240	0x3c8dcddd	0.017310077
241	0x3cccf279	0.025017964
242	0x3c0dd03f	0.008655607
243	0x3c8127ec	0.015766107
244	0x3c581f2f	0.0131910285
245	0x3c697863	0.014249894
246	0xbb917803	-0.0044393553
247	0xbc3e1f50	-0.011604145
248	0x3d37251d	0.04471313
249	0x3c667fbe	0.014068542
250	0x3d0b59c6	0.03402116
251	0xbc320011	-0.010864274
252	0xbc211cb3	-0.009833503
253	0x3d18f4e0	0.037342906
254	0xbb5b37cc	-0.0033450006
255	0x3c7a4332	0.01527481

network_body._body_endoder.seq_layers.0.weight f4 [256, 46]
0	0xbc965ace	-0.018353846
1	0x3e42e248	0.19031632
2	0xbe9c123d	-0.30482665
3	0xbdbba9fe	-0.09163283
4	0xbc47267e	-0.012155173
5	0xbd482275	-0.048860986
6	0xbce2c5fe	-0.0276823
7	0x3e93056d	0.28715077
8	0xbe82b213	-0.25526485
9	0x3e53b149	0.20673098
10	0xbe493845	-0.19650371
11	0x3dd589e8	0.10426694
12	0xbd7cabac	-0.061687157
13	0xbdf9680b	-0.12178048
14	0xbe2abe9b	-0.16674273
15	0xbe2ca37c	-0.1685924
16	0x3cd24bd0	0.025670916
17	0xbde996f6	-0.11405747
18	0x3d54ed88	0.05198434
19	0x3d97d24a	0.07413156
20	0x3eb071d1	0.34461835
21	0x3ebe84f0	0.37210798
22	0xbd6f8e5c	-0.058485374
23	0xbe2c7dfb	-0.16844933
24	0x3e0388a1	0.12845089
25	0x3db325e6	0.08747463
26	0x3daef9c4	0.08543733
27	0x3ca8e826	0.02061851
28	0x3e48206c	0.19543618
29	0xbe9b6128	-0.30347562
30	0xbdbb8791	-0.091567166
31	0x3e33f4c7	0.17573844
32	0xbe1e8750	-0.15481305
33	0x3e14f287	0.14545642
34	0x3d2c8fae	0.04212921
35	0x3d100474	0.035160497
36	0x3cdd1834	0.02698908
37	0x3e3a6e23	0.18206076
38	0xbe047e27	-0.12938748
39	0xbe1dbe6f	-0.15404676
40	0xbe191917	-0.14950977
41	0xbf37bf57	-0.71776336
42	0x3d1f8b7f	0.038951393
43	0x3e028e85	0.1274968
44	0xbd8f122c	-0.06985888
45	0x3e9957f2	0.2994991
46	0xbec485f2	-0.38383442
47	0xbe48908e	-0.19586393
48	0x3e04f06d	0.1298234
49	0xbc04ec7c	-0.008113023
50	0xbd34fa7a	-0.044184186
51	0x3a08de98	0.00052211573
52	0xbeb7221d	-0.35768214
53	0xbc76dd6e	-0.015067441
54	0x3cfa715e	0.030571636
55	0x3c1c4548	0.009538002
56	0x3e9b7b27	0.30367395
57	0xbe67f1ed	-0.22650881
58	0xbd5a3478	-0.053272694
59	0x3de9a79b	0.11408921
60	0x3e1220fb	0.14270394
61	0xbd028d9e	-0.031873338
62	0xbd8fbe9b	-0.07018777
63	0xbe266d91	-0.16252734
64	0xbd2e55ff	-0.04256248
65	0x3e0ff79c	0.14059299
66	0xbc4919d1	-0.0122742215
67	0xbe86267f	-0.26201245
68	0xbe97e401	-0.2966614
69	0x3c6c7c10	0.014433876
70	0xbe2f99b8	-0.17148483
71	0xbe0cc336	-0.13746342
72	0x3e892bf7	0.26791355
73	0xbdef324d	-0.11679516
74	0x3c9fcde2	0.019507352
75	0xbead8ff3	-0.33898887
76	0x3c4f42a9	0.01265017
77	0xbdd02c92	-0.10164751
78	0x3d7cf89f	0.06176054
79	0x3d640010	0.055664122
80	0x3b80b10f	0.003927357
81	0xbe251a9d	-0.16123433
82	0x3b95646a	0.0045590894
83	0x3e69ba91	0.22825076
84	0x3ddbb61e	0.107280955
85	0xbe000247	-0.12500869
86	0xbd03f2a6	-0.03221383
87	0x3d3d1eae	0.046171837
88	0xbdba0a9d	-0.090840556
89	0xbd370993	-0.044686865
90	0x3e0da558	0.13832605
91	0xbd48409c	-0.04888974
92	0x3e077c8d	0.13231106
93	0x3e360d86	0.17778596
94	0xbcaed062	-0.021339599
95	0xbe318680	-0.17336464
96	0xbd6c2b01	-0.0576582
97	0xbcd53491	-0.026026042
98	0xbe85b692	-0.26115853
99	0x3da64bc4	0.0811992
100	0xbe5a1916	-0.21298632
101	0x3d4ba04a	0.04971341
102	0xbccf3152	-0.025292072
103	0x3a9bfa97	0.0011900243
104	0x3e3ad90c	0.1824686
105	0x3d28bf44	0.04119803
106	0xbe1c5f6c	-0.15270776
107	0xbe3b6871	-0.1830156
108	0xbd803d5f	-0.062617056
109	0xbd44bad5	-0.04802974
110	0xbdf3e490	-0.11908829
111	0xbd403853	-0.046928715
112	0xbd730071	-0.059326593
113	0x3d544687	0.051825073
114	0x3db71402	0.08939363
115	0x3dfe066c	0.124035686
116	0x39fa18e8	0.00047702272
117	0x3c8de661	0.017321767
118	0xbd26a75a	-0.040686943
119	0xbda88b08	-0.08229643
120	0x3e661af4	0.2247122
121	0x3d8c52e6	0.06851749
122	0xbdcac807	-0.099014334
123	0xbe658dcc	-0.22417372
124	0x3cca5803	0.02470017
125	0x3dd6f323	0.104955934
126	0x3b2b293e	0.0026117112
127	0x3e843f3e	0.258295
128	0x3e5f5de4	0.2181316
129	0xbe24eea1	-0.16106655
130	0x3dbc6fe1	0.09201027
131	0xbe280460	-0.16407919
132	0x3d00b112	0.031418867
133	0x3e7f3926	0.24924144
134	0xbe58fcda	-0.21190205
135	0xbe19ce0d	-0.15020008
136	0xbe29c2c4	-0.16578203
137	0xbe80742e	-0.25088638
138	0xbdb5861e	-0.088634714
139	0x3d75e6f8	0.060034722
140	0x3dbc9e30	0.09209859
141	0x3cdcb7bf	0.026943086
142	0x3ba11c90	0.004916735
143	0xbdb159e3	-0.08659723
144	0x3e80152c	0.25016153
145	0xbba4d8cb	-0.0050307265
146	0xbe5c0f6a	-0.21490255
147	0xbe1c676b	-0.15273826
148	0x3ddd6019	0.10809345
149	0x3d3e4170	0.046449125
150	0x3e5978e6	0.21237525
151	0xbd026a67	-0.031839754
152	0x3e64a340	0.223279
153	0x3ada7706	0.0016667552
154	0x3e165c53	0.14683656
155	0xbe482487	-0.19545184
156	0x3db82339	0.08991093
157	0x3e095f3b	0.13415234
158	0x3dcc2e18	0.09969729
159	0xbd36fe99	-0.044676397
160	0xbc91e46b	-0.017809113
161	0x3e89f6bd	0.2694606
162	0x3d2e58a6	0.04256501
163	0xbe33aa26	-0.17545375
164	0x3dd19162	0.10232808
165	0xbd4e3ba5	-0.05034985
166	0xbdb78369	-0.089606114
167	0x3d330684	0.043707386
168	0x3e257b1a	0.16160241
169	0xbde51c34	-0.1118702
170	0x3da2d586	0.079508826
171	0xbe10dae7	-0.14146005
172	0xbe96d96c	-0.29462755
173	0x3e13fd20	0.14452028
174	0x3b4c6700	0.0031189322
175	0xbe314d92	-0.17314747
176	0xbe6c792f	-0.23093103
177	0x3d76853c	0.060185656
178	0x3bf10f0f	0.0073565315
179	0x3e0ec0f5	0.13940795
180	0x3e4a93b4	0.19782907
181	0x3d326f8b	0.043563407
182	0xbe3d311f	-0.1847577
183	0x3cade039	0.021225082
184	0xbe62bbfe	-0.22142026
185	0xbda6352f	-0.08115613
186	0x3ea7963b	0.32731804
187	0xbdb9fb88	-0.09081179
188	0x3db09e80	0.086239815
189	0xbcc2139b	-0.02369099
190	0x3d43e00f	0.0478211
191	0xbe86dde3	-0.2634116
192	0xbe2bb518	-0.167683
193	0x3ddeb35a	0.10874052
194	0x3da00f34	0.078154
195	0x3e346277	0.17615686
196	0xbe592076	-0.21203789
197	0x3dd168d7	0.10225075
198	0x3d9ae4a6	0.075631425
199	0x3e5d62ae	0.21619675
200	0xbe18f539	-0.14937295
201	0xb9dc0414	-0.00041964708
202	0xbdb87707	-0.09007078
203	0xbd6a7531	-0.05724067
204	0xbe505298	-0.20344007
205	0xbd51c576	-0.051213704
206	0x3c5ab9e1	0.013349981
207	0xbdde4945	-0.10853819
208	0x3d7cbdb1	0.06170434
209	0xbe14e7a6	-0.14541492
210	0xbe4350f4	-0.1907385
211	0x3e13146e	0.14363262
212	0x3e62f258	0.2216276
213	0xbd6f1975	-0.058373887
214	0x3e45f509	0.19331755
215	0xbe409248	-0.18805802
216	0x3d9d02a5	0.0766652
217	0xbe7652ad	-0.24054976
218	0xbe468fa8	-0.19390738
219	0xbe178d80	-0.14800072
220	0xbda5bfaf	-0.08093201
221	0xbd936fda	-0.07199068
222	0xbd29dadf	-0.041468497
223	0x3e1f6b14	0.15568191
224	0x3de541ce	0.11194192
225	0xbd5b20a6	-0.053497933
226	0xbba4ee22	-0.0050332705
227	0xbc2f894b	-0.010713886
228	0x3e2b917a	0.16754714
229	0x3e30a9f5	0.17252333
230	0xbd6ba70d	-0.05753236
231	0x3d08a4e8	0.03336039
232	0x3d83bc00	0.064323425
233	0x3e271612	0.16317013
234	0xbc80b6c5	-0.015712151
235	0x3e633cf5	0.22191222
236	0xbea63b48	-0.32467103
237	0x3db227c3	0.0869899
238	0xbe9fe4b8	-0.31229186
239	0x3ddf1656	0.10892932
240	0x3d450441	0.04809976
241	0x3e0a58d3	0.13510446
242	0xbe556b41	-0.20841695
243	0xbd5945e8	-0.053045183
244	0x3d553eb2	0.052061744
245	0x3e2497a8	0.16073477
246	0x3e1e9340	0.15485859
247	0xbd77451a	-0.060368635
248	0xbe41b2df	-0.1891589
249	0x3ddc5021	0.10757471
250	0x3e04faa6	0.1298624
251	0xbd4ae366	-0.04953327
252	0x3db34007	0.087524466
253	0x3d1814c7	0.03712919
254	0xbdff6ec5	-0.124722995
255	0xbd90d990	-0.07072747

network_body._body_endoder.seq_layers.2.bias f4 [256]
0	0x3bf4226e	0.0074503934
1	0xbaaedb9d	-0.0013340596
2	0x3c5a78a4	0.013334427
3	0x3be20bf2	0.0068983966
4	0xbbec477f	-0.0072106714
5	0x3ba80b72	0.0051283175
6	0x3c6d7d19	0.014495158
7	0x3d12da9c	0.035853013
8	0xbc12a93b	-0.0089514805
9	0x3d3dd174	0.04634233
10	0x3bda38a8	0.006659586
11	0x3d39caf5	0.04535957
12	0x39062d94	0.00012796215
13	0x3c16f93c	0.009214696
14	0x3d264fd4	0.040603474
15	0x3b99116a	0.0046712654
16	0x3d2327f9	0.039833043
17	0x3d12ca11	0.035837237
18	0xbb1ef2cf	-0.0024253612
19	0x3bf41f81	0.0074500446
20	0x3bc31bc6	0.0059542386
21	0xb65d2262	-3.295158e-06
22	0xbb30e070	-0.0026989244
23	0x3ca55dd8	0.02018635
24	0x3cb56665	0.022143552
25	0x3bfc5030	0.007699989
26	0xb9414b55	-0.00018433978
27	0xbb22e35b	-0.0024854753
28	0xbb90b8be	-0.0044165542
29	0x3cd3fc43	0.025877124
30	0xba8a4b89	-0.0010551076
31	0x3c82b249	0.015954154
32	0x3cab483c	0.020908467
33	0x3be36bdf	0.0069403495
34	0x3b3a8ac2	0.0028464054
35	0x3c0aa692	0.008462565
36	0x3cc81f7b	0.024429074
37	0x3c3945d8	0.011308156
38	0x3c8fce43	0.017554408
39	0xbc436e54	-0.01192816
40	0x3af06ab6	0.0018342349
41	0x3d03e9a8	0.032205254
42	0xbb8c75e6	-0.0042865155
43	0x3d089b31	0.033351127
44	0x3b47966f	0.0030454656
45	0x3ca63e20	0.020293295
46	0x3bcb6134	0.006206656
47	0xbb5bfec4	-0.00335686
48	0x3cde13eb	0.027109107
49	0x3c3b30b3	0.011425185
50	0xbbbbc82d	-0.00573065
51	0xbc3fe07f	-0.011711239
52	0x3cdfb7de	0.027309354
53	0x3cb6f5ca	0.022333998
54	0x3ac1289e	0.0014736836
55	0x3cf7a1e0	0.030228555
56	0x3cc0ee5b	0.023551157
57	0xbc2616ac	-0.010137241
58	0x3bdee3ee	0.0068020737
59	0x3c2c93cb	0.010533283
60	0x3b814f88	0.0039462484
61	0x3d187cc9	0.03722838
62	0x3d05ed9b	0.0326973
63	0x3aefdc66	0.0018299937
64	0x3cc3e408	0.023912445
65	0x3ad3dc73	0.0016163721
66	0xbc11f7a9	-0.008909144
67	0x3c25d051	0.010120467
68	0x3c2b6869	0.010461905
69	0x3ce4f522	0.02794892
70	0x3cda8d48	0.026678696
71	0xbbd4565f	-0.006480023
72	0x3c315a5b	0.010824765
73	0x3bdc6c27	0.00672676
74	0x3cdbcc24	0.02683074
75	0x3d0a4a5a	0.033762313
76	0x3c20c264	0.009811971
77	0x3bc67a44	0.0060570557
78	0x3b88fd11	0.0041805585
79	0x3b2f298e	0.002672765
80	0xbb5ca1f2	-0.0033665863
81	0x3c976152	0.018479023
82	0xbb3c8906	-0.0028768196
83	0xbc121b9d	-0.008917716
84	0xbbbe776b	-0.0058125756
85	0x3c333c4e	0.010939671
86	0x3d0d803d	0.034546126
87	0x3c83dc36	0.016096216
88	0x3c2fe5ea	0.010735968
89	0x39949cc4	0.0002834556
90	0xbc005d56	-0.007834753
91	0x3cdd504f	0.027015833
92	0x3c08224b	0.008308957
93	0xbb300409	-0.0026857874
94	0x3c15a6f7	0.009134046
95	0x3c8c990c	0.017162822
96	0x3b1c5fcd	0.0023860813
97	0x3c9f82fc	0.019471638
98	0x3c42ce37	0.011889986
99	0x3c37651b	0.011193539
100	0xbb610b85	-0.0034339142
101	0x3cfec8cc	0.031101607
102	0x3cba2785	0.022723923
103	0x3cc8cea8	0.024512604
104	0xbac19bef	-0.0014771203
105	0x3c305dc9	0.010764548
106	0x3cc9baeb	0.024625262
107	0xbb345e8b	-0.0027522172
108	0x3c2c4463	0.010514352
109	0x3c284398	0.010270022
110	0x3b0f561a	0.002187139
111	0x3c542c9f	0.012950092
112	0xbb8645d2	-0.0040976787
113	0x3b765b07	0.0037590878
114	0x3b75a8d6	0.0037484667
115	0x3ca5367d	0.020167584
116	0x3c7a9b3c	0.0152958
117	0xbb765bfd	-0.003759145
118	0x3d664674	0.056219533
119	0xbac78b16	-0.0015223946
120	0x3caf246f	0.021379678
121	0xbbd96ee6	-0.0066355346
122	0x3ce8739c	0.02837544
123	0x3bfc8c38	0.007707145
124	0x3bc5af82	0.006032885
125	0x3c8c7ed7	0.017150326
126	0x3ca60f9f	0.02027112
127	0x3d1da3ee	0.038486414
128	0x3d12991c	0.035790548
129	0x3c8ca2db	0.0171675
130	0x3bbdf85e	0.00579743
131	0xb9db70be	-0.00041854935
132	0xbc7e7139	-0.015529924
133	0x3c3a4154	0.0113681145
134	0x3c517389	0.012783893
135	0xbb2b3d78	-0.0026129168
136	0xbc3554e5	-0.011067604
137	0x3b8fc483	0.0043874397
138	0x3ca48fb8	0.020088062
139	0x3ccc16bf	0.02491319
140	0x3d427a28	0.04747978
141	0x3c71309b	0.014721061
142	0x3d0778ff	0.033074375
143	0xbb04e669	-0.0020278937
144	0x3cabc396	0.020967286
145	0x3d1b0cc4	0.03785397
146	0xbbdaa2b1	-0.0066722264
147	0x3c691509	0.014226207
148	0x3ba7cd57	0.005120914
149	0x38f46259	0.00011653145
150	0xbbc7cc3e	-0.0060973456
151	0x3b5efc4b	0.003402489
152	0xbc7398f9	-0.0148680145
153	0x3a593a7d	0.00082866085
154	0x3d0dcd20	0.03461945
155	0xba998119	-0.0011711448
156	0x3c80aa55	0.01570622
157	0x3ca8c234	0.020600416
158	0x3b485af8	0.00305718
159	0x3ba4df69	0.0050315154
160	0x3c67472c	0.01411609
161	0x3d1893c1	0.037250284
162	0x3a2a7e3f	0.00065037975
163	0x3a735fd4	0.0009283994
164	0x3c83b386	0.016076814
165	0xbb5dc880	-0.003384143
166	0xbc681326	-0.014164722
167	0x3d151265	0.036394496
168	0x3bd6abda	0.006551248
169	0x3c994cb0	0.018713325
170	0xbc520af9	-0.012819999
171	0x3c5414a5	0.012944375
172	0xbb8eb816	-0.004355441
173	0x3cac247c	0.02101349
174	0x3d62c32c	0.05536191
175	0x3ccdf3ec	0.025140725
176	0xbb4193e6	-0.0029537617
177	0xbc52aad0	-0.012858108
178	0x3ccf612c	0.02531489
179	0x3ccd4fe5	0.02506251
180	0x3c555861	0.013021559
181	0x3b4a0a01	0.0030828717
182	0x3c0727b9	0.008249217
183	0xbbf96663	-0.0076110824
184	0xbc075218	-0.008259319
185	0x3cacb3c8	0.02108182
186	0x3c35312d	0.011059088
187	0xbba4ecb8	-0.005033102
188	0x3c6e7c63	0.014556023
189	0x3cc5ccce	0.02414551
190	0x3cdb0c9e	0.026739415
191	0x3b9f7a7c	0.004866896
192	0xbb8b0d50	-0.0042435303
193	0x3d63c74a	0.05560998
194	0x3c088a9f	0.008333831
195	0xbbba9f24	-0.0056952406
196	0x3a28c90c	0.000643865
197	0x3b529aab	0.0032135646
198	0xbb8c5124	-0.0042821337
199	0x3a39077c	0.0007058305
200	0x3bb41c90	0.005496569
201	0x3c407ee3	0.011749002
202	0x3cd1f5b6	0.02562986
203	0x3bc3b016	0.005971919
204	0x3cdf6d74	0.027273871
205	0x3c3183f8	0.010834686
206	0x3d236fe8	0.039901644
207	0x3cdef910	0.027218372
208	0x3d01e35e	0.031710975
209	0xbc3d8844	-0.011568133
210	0x3c3763ec	0.011193257
211	0x3bf2c97a	0.007409272
212	0xbb9e7bc5	-0.004836532
213	0x3cf01a80	0.029309511
214	0x3d0f8ba2	0.035045274
215	0xbb53d9db	-0.0032325897
216	0x3c48883c	0.012239512
217	0x3d0fa8ca	0.03507308
218	0xbc1a2358	-0.009407841
219	0x3ca6d9c8	0.020367518
220	0x3d4d2795	0.050086576
221	0x3bb12212	0.005405673
222	0x3c9d1b8f	0.01917818
223	0x3c95ea52	0.01830021
224	0x3cfd64cc	0.030931853
225	0x3c83348b	0.016016265
226	0x3ca116b9	0.019664155
227	0x3c0ad185	0.008472805
228	0x3aabb5a5	0.0013100399
229	0x3c4fd665	0.012685393
230	0x3cb319ec	0.021862946
231	0xb9c3121c	-0.0003720679
232	0x3b927afc	0.0044702273
233	0x3cbc0995	0.022953788
234	0x3cb9cf7f	0.02268195
235	0x3cc312b4	0.02381263
236	0x3d169936	0.036767207
237	0x3d471bb5	0.048610408
238	0x3d136605	0.035985965
239	0x39f82ee5	0.00047337185
240	0x3cad2a9c	0.021138482
241	0xba4ff7ef	-0.00079333683
242	0x3c8a32df	0.01686996
243	0x3cacb0a1	0.021080317
244	0x3d2d2453	0.04227097
245	0x3a67d92c	0.0008844312
246	0x3c4c8fa9	0.012485423
247	0x3bd28df8	0.0064256154
248	0x3c09e8e7	0.008417345
249	0xbb75aa20	-0.0037485436
250	0xbb55f41a	-0.0032646717
251	0x3c5e4247	0.013565606
252	0x3bfe218c	0.007755464
253	0xbbad2313	-0.005283722
254	0x3d032bf5	0.032024343
255	0x3c24c6a6	0.010057127

network_body._body_endoder.seq_layers.2.weight f4 [256, 256]
0	0x3e233d24	0.15941292
1	0x3dd16ad6	0.102254555
2	0x3d15dd09	0.03658775
3	0x3ca1c498	0.019747064
4	0x3d035d68	0.0320715
5	0x3ce8c70f	0.028415231
6	0x3e1fe6da	0.15615407
7	0x3db72371	0.08942307
8	0x3e4b43c8	0.19850075
9	0xbe108f65	-0.141172
10	0x3d3de625	0.04636206
11	0xbd9a4c0e	-0.075340375
12	0xbd419f11	-0.04727084
13	0xbe2d9196	-0.16950068
14	0x3e019982	0.12656215
15	0xbd92f2b1	-0.07175196
16	0xbce04613	-0.027377164
17	0x3da8f098	0.082490146
18	0xbd7586ae	-0.059942894
19	0xbd2968de	-0.041359775
20	0xbd4a4917	-0.04938611
21	0x3dac4e8b	0.084134184
22	0xbd5f536d	-0.05452292
23	0xbd1fd6a1	-0.039023045
24	0xbc81eb95	-0.015859405
25	0xbca68bf2	-0.020330403
26	0x3de9560a	0.11393364
27	0x3e5cbf16	0.21557269
28	0x3da99525	0.082804
29	0xbd37ed9d	-0.04490434
30	0x3d01ff4c	0.03173761
31	0xbd8d070a	-0.06886108
32	0xbd84f902	-0.06492807
33	0xbe008612	-0.12551144
34	0x3c7d66f7	0.015466443
35	0xbdad2373	-0.08454027
36	0x3d1332b9	0.035937045
37	0xbd86f423	-0.06589534
38	0x3d944640	0.072399616
39	0x3d019196	0.031632982
40	0x3db7d6f4	0.08976546
41	0x3dbb0503	0.09131815
42	0xbd944425	-0.0723956
43	0xbdcc893e	-0.09987114
44	0xbd3e28f1	-0.046425764
45	0x3e2bd586	0.16780671
46	0x3dda2a47	0.10652595
47	0x3ae81cd6	0.0017708789
48	0xbdd24f7a	-0.10269065
49	0x3d8b8b58	0.06813687
50	0xbd34284d	-0.043983746
51	0xbc212bea	-0.00983713
52	0x3de104c0	0.10987234
53	0xbd53aecd	-0.051680375
54	0xbd302b41	-0.04301
55	0xbe0b170a	-0.13583007
56	0xbcae6d4e	-0.021292355
57	0xbdc82b34	-0.09773865
58	0xbc2fbdf5	-0.010726442
59	0xbdb74a1b	-0.08949681
60	0x3d165362	0.036700614
61	0x3d62d16e	0.05537551
62	0x3d71d517	0.05904111
63	0x3c1760bb	0.009239371
64	0x3d95593a	0.07292409
65	0xbd1ed245	-0.038774747
66	0x3d71c379	0.059024308
67	0x3de1f74b	0.110334955
68	0xbd8203bd	-0.06348369
69	0xbce2eb99	-0.027700232
70	0xbd9a47a8	-0.075331986
71	0xbd9a6fcd	-0.075408556
72	0x3d2144b9	0.03937218
73	0xbdd6bbc3	-0.104850315
74	0xbb53e692	-0.0032333476
75	0x3d930b3c	0.07179877
76	0x3bf6d762	0.007533
77	0xbd9ad8aa	-0.07560857
78	0x3d052c98	0.03251323
79	0x3cff42cd	0.031159783
80	0x3dc83add	0.09776852
81	0x3d380c41	0.04493356
82	0xbd8733b8	-0.066016614
83	0xbcf041d2	-0.02932826
84	0x3d0b0958	0.033944458
85	0x3d813e5b	0.063107215
86	0x3db57165	0.08859519
87	0xbda42b00	-0.08016014
88	0xbd850bdc	-0.064964026
89	0xbdba17fe	-0.090866074
90	0x3df8ed39	0.12154622
91	0x3ce90d3f	0.028448699
92	0x3d9dbb0f	0.07701694
93	0x3e384174	0.17993718
94	0x3c9d2158	0.019180939
95	0x3da2f111	0.07956136
96	0x3d1bf30a	0.038073577
97	0x3c197e45	0.009368484
98	0xbd88696d	-0.06660733
99	0x3d38491e	0.044991605
100	0x3d7b5fec	0.061370775
101	0x3cb237e9	0.021755176
102	0xbe148538	-0.14503944
103	0xbcde431e	-0.027131613
104	0x3cced042	0.02524579
105	0xbaaa20cc	-0.0012979745
106	0xbdaad46f	-0.083413
107	0x3e2668ea	0.16250959
108	0x3c76b6ae	0.015058203
109	0xbd72e6a2	-0.05930198
110	0x3ccf5b9c	0.025312237
111	0xbd29e54e	-0.041478448
112	0x3d7ebf6a	0.062194265
113	0xbd2dc6dc	-0.042425975
114	0x3d2c787b	0.042107087
115	0x3da46842	0.08027698
116	0x3a36bb0b	0.00069706206
117	0xbce26662	-0.02763671
118	0x3da2052b	0.07911142
119	0xbe20db1a	-0.1570858
120	0xbd63e8a7	-0.055641796
121	0xbd0602e6	-0.032717608
122	0x3d5882b8	0.052859038
123	0x3dc70dd8	0.09719437
124	0xba825749	-0.0009944226
125	0xbb4b6d21	-0.0031040388
126	0xbd5a7829	-0.05333725
127	0x3e0862cc	0.13318938
128	0xbdfae2b2	-0.1225027
129	0x3d31cdb1	0.043409053
130	0xbd83dfac	-0.064391464
131	0x3d24691c	0.040139303
132	0x3dbf82f2	0.09351148
133	0xbd7fb2fb	-0.06242655
134	0xbd8de5df	-0.0692861
135	0x3c5b3dc8	0.013381429
136	0x3d3145b6	0.043279372
137	0xbd87a7dd	-0.06623814
138	0xbb317fb0	-0.0027084164
139	0xbdd5c34d	-0.10437641
140	0x3dfa3886	0.12217812
141	0x3da8654a	0.08222444
142	0xbc910b66	-0.01770563
143	0x3e02fcb1	0.12791707
144	0x3c61b9f3	0.013777244
145	0xbd21123a	-0.039324023
146	0xbd25e215	-0.04049881
147	0xbdbe2ec4	-0.092862636
148	0x3e0ca8de	0.13736293
149	0xbd47b90d	-0.048760463
150	0x3d8eb282	0.069676414
151	0xbce4c2f7	-0.027924998
152	0xbdc457ba	-0.09587045
153	0xbe47333e	-0.19453141
154	0x3e4fb5cc	0.20284194
155	0xbd78492f	-0.06061667
156	0xbd31dd4e	-0.043423943
157	0x3da23d5d	0.0792186
158	0xbd4f9655	-0.050680477
159	0xbdd8a6b1	-0.10578669
160	0x3c01ab76	0.007914415
161	0x3dd51310	0.104040265
162	0xbd81c590	-0.0633651
163	0x3dbe9386	0.093054816
164	0xbdcb86fb	-0.09937855
165	0x3dddbd6f	0.10827147
166	0x3d01b676	0.03166815
167	0x3e335f5f	0.1751685
168	0x3d04bf8c	0.032409236
169	0x3ce691a7	0.028145624
170	0xbe06fabe	-0.13181588
171	0xbd29ab42	-0.04142309
172	0x3d530a4f	0.051523503
173	0xbc990afa	-0.018681992
174	0x3caa8345	0.020814547
175	0xbd5b4130	-0.053528965
176	0x3dba3b97	0.09093397
177	0xbd6aacce	-0.057293706
178	0xbde3dfb3	-0.111266516
179	0x3e0cf885	0.13766678
180	0xbddb3c16	-0.1070482
181	0x3d160626	0.036626957
182	0xbd6bd2a3	-0.057573926
183	0xbd674075	-0.056457955
184	0x3d5d4714	0.054022864
185	0x3cb63317	0.022241158
186	0xbcc86aed	-0.024465049
187	0xbd349ef0	-0.044096887
188	0x3d6b84b2	0.057499595
189	0xbd25e92c	-0.040505573
190	0xbdb7b6ff	-0.089704506
191	0x3d97e240	0.07416201
192	0x3d90eeb5	0.0707678
193	0x3d1a6626	0.037695073
194	0x3d4745d1	0.048650566
195	0xbd9c570b	-0.0763379
196	0x3c52b5cf	0.012860729
197	0xbd2d76ea	-0.042349733
198	0xbcc10e58	-0.02356641
199	0xbe131eab	-0.14367168
200	0xbd344317	-0.044009294
201	0x3e3aef6c	0.18255395
202	0xbb659029	-0.0035028553
203	0x3d3e58e4	0.04647149
204	0x3a21f3df	0.0006178002
205	0x3c2285e1	0.0099196145
206	0x3d609379	0.05482814
207	0xbd8be44a	-0.06830652
208	0x3d66ae34	0.056318477
209	0x3d152f51	0.036422078
210	0x3d94de64	0.0726898
211	0x3e5e2438	0.21693504
212	0xbcf02fd7	-0.029319687
213	0x3c850a1e	0.016240176
214	0xbc365109	-0.011127719
215	0x3dc5c1b0	0.096560836
216	0xbd554637	-0.052068915
217	0x3b88ca13	0.0041744797
218	0x3cb69775	0.022289017
219	0xbcfe1eb1	-0.031020494
220	0x3dbd6ad1	0.09248889
221	0xbd6fe9d2	-0.058572598
222	0x3e212d05	0.1573983
223	0x3dc2b9b5	0.09508077
224	0x3dd03d5b	0.101679526
225	0x3c7648b4	0.015031982
226	0x3d2a83ff	0.041629788
227	0xbd9b42c2	-0.075810924
228	0x3d4e5879	0.050377343
229	0x3c9fe375	0.01951764
230	0x3d8da034	0.06915322
231	0x3e24b17d	0.16083331
232	0xbe0fd92d	-0.1404769
233	0x3dfb3a2e	0.12266956
234	0x3c87eb8c	0.01659181
235	0xbc3e8224	-0.011627708
236	0xbd4c3e10	-0.049863875
237	0x3c07531e	0.008259563
238	0x3d8eef0f	0.069791906
239	0xbd8b492b	-0.06801065
240	0xbccc120e	-0.024910953
241	0xbc938abd	-0.018010492
242	0xbbbd4310	-0.0057758167
243	0x3d99cb8c	0.075095266
244	0x3de836e4	0.113385946
245	0xbd68c296	-0.056826197
246	0x3d8b7302	0.068090454
247	0xbdfb32b5	-0.12265531
248	0x3da2e9a3	0.07954719
249	0x3e058786	0.1303998
250	0xbd865061	-0.065583
251	0xbd39788f	-0.04528099
252	0x3cec9011	0.02887729
253	0x3e282c82	0.16423228
254	0x3d75eb99	0.060039137
255	0xbd34f222	-0.04417623
