HW4/Assets/Hummingbird/config/results/Hummingbird/Hummingbird/Hummingbird-3499936.onnx (onnx, 320786 bytes, 8 tensors)

action_model._continuous_distribution.log_sigma f4 [1, 5]
-0.11633848 -0.12932667 -0.16022688 -0.06606994 -0.029266777
00000000: de42 eebd 366e 04be 8412 24be ad4f 87bd
00000010: e1c0 efbc

action_model._continuous_distribution.mu.bias f4 [5]
-0.00038912645 0.017914085 0.00079492544 -8.959552e-05 0.009388216
00000000: ab03 ccb9 8fc0 923c 8b62 503a 3be5 bbb8
00000010: 08d1 193c

action_model._continuous_distribution.mu.weight f4 [5, 256]
-0.0049196244 0.019157954 -0.082636915 -0.021915713 0.03902631 0.07011881 -0.021125192 0.0238412
0.009374269 0.024660252 -0.035056293 0.050954834 0.011255284 -0.02318692 -0.04256347 0.060769778
0.00956228 -0.007996164 -0.051764023 0.043028105 0.018399764 0.015779309 0.025172751 0.0003153062
-0.062083233 0.039345965 -0.05092478 0.05288989 -0.03799697 -0.0051464536 0.017765803 0.019466594
0.06436831 -0.03432596 -0.06474075 -0.01142234 0.0018219721 0.060231075 -0.009403124 -0.0076818806
0.022181235 -0.0116143515 -0.04133922 -0.02845832 -0.051179796 -0.007867455 -0.023521746 -0.012214677
0.022500433 -0.07709028 0.042561654 0.0006681332 -0.029378163 0.013178886 -0.0002708051 0.008000636
0.034095846 -0.07073696 0.02560898 -0.028044032 -0.059069075 0.06800449 -0.050661728 0.073227294
-0.026006248 0.0110113835 0.015683029 -0.029301435 -0.0406776 0.019619718 0.001543241 0.032334868
-0.0630149 -0.056124654 0.051748775 0.012163989 -0.041580874 -0.06624648 0.032891728 0.06913462
0.05798659 0.010257537 0.08039495 -0.033044074 -0.0076589626 -0.0093226405 0.015497408 0.032175586
-0.031559814 -0.022299312 0.018160565 0.017487433 0.045758225 0.04663641 -0.0721781 -0.044595495
0.026724838 -0.0072850953 -0.08631561 0.0025417192 -0.037778094 -0.012458737 -0.03205545 0.055043656
0.052863788 -0.02283029 -0.025536364 0.02337907 0.033033725 0.001510044 0.039421078 0.002603858
0.0054338323 0.008966955 -0.033927158 -0.021273836 -0.029574126 -0.028891148 -0.012465595 0.065406255
0.0063011716 -0.005858495 -0.0008952418 0.025068998 -0.045564104 -0.0429113 0.05828157 -0.03443889
0.008014059 -0.00018702462 -0.01638451 0.029223477 -0.023904495 0.037749086 0.021555597 0.004495929
0.027549267 0.0003337195 0.0049322937 0.014037334 0.056749593 0.057847645 0.041263435 -0.060629237
0.08541841 -0.007839526 0.012518358 -0.029498719 0.031931974 9.8245066e-05 -0.014164364 0.04145055
-0.022151498 0.09376073 0.0122271 0.032115504 -0.019844411 -0.048757914 -0.12155676 -0.028891105
0.049087618 0.0073425383 -0.09148695 0.036819533 0.05137107 -0.043368507 0.008955396 0.031868346
0.026482621 -0.042246062 -0.0020095839 0.03813554 0.02363139 -0.018421931 -0.033155628 0.029810742
0.019669535 -0.008302397 -0.03270216 0.027611192 -0.053778972 -0.06964365 -0.060456485 -0.043667547
-0.007517411 0.042132735 0.06825954 0.028607495 -0.0027438896 -0.007865769 0.031261377 0.033353653
-0.034823544 -0.0090062 0.022597415 0.027855054 -0.04766863 -0.045559514 -0.032548048 0.06030371
0.052006256 0.0342341 -0.007830599 -0.02410057 0.02556138 -0.010626324 0.06327445 -0.003790346
-0.03543567 -0.007870564 -0.06493125 0.01738917 0.021205077 0.047380526 0.011328175 -0.017251126
-0.0132280765 -0.0063240738 -0.017460534 0.013715689 -0.038813423 0.066751935 -0.028713612 0.048199672
-0.040084403 -0.07428975 -0.06039895 0.07155679 -0.070324704 0.015230666 -0.012341277 -0.06278428
0.050412912 -0.027582297 -0.013561934 -0.04588348 0.0071187476 0.024610898 0.03897297 0.04404818
-0.019950654 0.061177257 -0.037643343 -0.010207055 0.04782057 -0.034068827 -0.02793792 0.03522669
-0.023304053 0.043400954 0.0040783808 0.0838897 -0.06899264 0.037442867 0.03971317 -0.02346913
00000000: cd34 a1bb 24f1 9c3c 8b3d a9bd 9588 b3bc
00000010: 0dda 1f3d 739a 8f3d bd0e adbc 9f4e c33c
00000020: 8996 193c 4c04 ca3c 3097 0fbd 04b6 503d
00000030: 1568 383c 7ff2 bdbc 0857 2ebd bbe9 783d
00000040: 1cab 1c3c 5802 03bc 8306 54bd 3d3e 303d
00000050: 1abb 963c 9c43 813c 1637 ce3c af4f a539
00000060: fd4a 7ebd 3c29 213d 8196 50bd 12a3 583d
00000070: b6a2 1bbd 95a3 a8bb 9789 913c 6878 9f3c
00000080: 88d3 833d 6199 0cbd cc96 84bd c424 3bbc
00000090: 3dcf ee3a dcb4 763d 900f 1abc 49b8 fbbb
000000a0: 6cb5 b53c 1f4a 3ebc 5053 29bd 6c21 e9bc
000000b0: e8a1 51bd 7fe6 00bc adb0 c0bc 1220 48bc
000000c0: d452 b83c 82e1 9dbd 2155 2e3d a925 2f3a
000000d0: 79aa f0bc 41ec 573c d8fa 8db9 1915 033c
000000e0: 16a8 0b3d 8ade 90bd ecc9 d13c 99bc e5bc
000000f0: 6af2 71bd f045 8b3d ac82 4fbd 31f8 953d
00000100: 0e0b d5bc 1769 343c b279 803c 9009 f0bc
00000110: 8e9d 26bd 88b9 a03c 9346 ca3a 9171 043d
00000120: f50d 81bd f7e2 65bd 86f6 533d 784b 473c
00000130: b550 2abd 3cac 87bd 7ab9 063d 7496 8d3d
00000140: 5983 6d3d 3a0f 283c 1ca6 a43d 3959 07bd
00000150: 09f8 fabb fdbd 18bc d7e8 7d3c 8cca 033d
00000160: dd44 01bd 0cad b6bc 77c5 943c ce41 8f3c
00000170: fa6c 3b3d d205 3f3d 1dd2 93bd c4a9 36bd
00000180: 0cee da3c cfb7 eebb 3dc6 b0bd f992 263b
00000190: 34bd 1abd bb1f 4cbc 934c 03bd 7575 613d
000001a0: b387 583d 9706 bbbc a331 d1bc 7785 bf3c
000001b0: 5f4e 073d abec c53a ff77 213d 7da5 2a3b
000001c0: 4a0e b23b 23ea 123c 34f7 0abd 7846 aebc
000001d0: 7045 f2bc 21ad ecbc 7f3c 4cbc b7f3 853d
000001e0: 0f7a ce3b 9ef8 bfbb a9ae 6aba 805d cd3c
000001f0: 6da1 3abd c2c3 2fbd a8b8 6e3d cb0f 0dbd
00000200: 664d 033c 0a1c 44b9 cf38 86bc 1366 ef3c
00000210: 5cd3 c3bc c99e 1a3d 5d95 b03c 9652 933b
00000220: 00af e13c 13f7 ae39 149f a13b d9fc 653c
00000230: 4372 683d a7f1 6c3d d903 293d 5d56 78bd
00000240: d9ef ae3d 5b71 00bc cd19 4d3c 4ca7 f1bc
00000250: 1acb 023d eb08 ce38 a611 68bc 0dc8 293d
00000260: 0f77 b5bc a005 c03d 2d54 483c 8c8b 033d
00000270: bf90 a2bc 61b6 47bd c0f2 f8bd 0aad ecbc
00000280: 1910 493d ad99 f03b 835d bbbd 14d0 163d
00000290: 796a 523d 2da3 31bd a7b9 123c 6288 023d
000002a0: 15f2 d83c 350a 2dbd 39b3 03bb 0334 1c3d
000002b0: 9e96 c13c 97e9 96bc 32ce 07bd a835 f43c
000002c0: 0122 a13c c706 08bc b3f2 05bd de30 e23c
000002d0: 5747 5cbd 54a1 8ebd 38a1 77bd bedc 32bd
000002e0: 9d54 f6bb 6093 2c3d a8cb 8b3d 445a ea3c
000002f0: d4d2 33bb 6ddf 00bc ee0b 003d d79d 083d
00000300: 22a3 0ebd be8e 13bc 371e b93c 4830 e43c
00000310: 2e40 43bd 9d9c 3abd 1a51 05bd 0601 773d
00000320: 8304 553d 0e39 0c3d ea4b 00bc 8f6e c5bc
00000330: 1966 d13c 091a 2ebc 0996 813d 7467 78bb
00000340: fe24 11bd 8af3 00bc adfa 84bd bc73 8e3c
00000350: 45b6 ad3c 1512 423d cf99 393c 3c52 8dbc
00000360: 93ba 58bc 2d3a cfbb 6509 8fbc c5b7 603c
00000370: d3fa 1ebd 3db5 883d cf38 ebbc 056d 453d
00000380: 8b2f 24bd 3925 98bd e464 77bd 5e8c 923d
00000390: 6606 90bd 0b8a 793c 1133 4abc 0b95 80bd
000003a0: c57d 4e3d 45f4 e1bc e032 5ebc 51f0 3bbd
000003b0: 6244 e93b cb9c c93c 1fa2 1f3d dd6b 343d
000003c0: 8e6f a3bc 0195 7a3d e82f 1abd 7e3b 27bc
000003d0: 81df 433d c18b 0bbd 11de e4bc dd49 103d
000003e0: 24e8 bebc 33c5 313d f0a3 853b 5dce ab3d
000003f0: 034c 8dbd b15d 193d 47aa 223d 5542 c0bc

action_model._discrete_distribution.branches.0.weight f4 [1, 256]
0.0068681776 -0.002452236 0.0063302056 0.002368514 0.011527857 0.00046321456 -0.0017953344 0.0028194243
0.0062943283 -0.007753695 0.022093773 0.0023179285 0.0017853059 0.005731579 0.0047731292 -0.0028833663
0.0072683203 -0.0035646788 -0.016099041 -0.000643559 -0.0009338953 0.0037975477 0.0035200834 -0.0052741906
0.0038578429 0.0025951792 0.004651414 0.010155068 0.0077209733 -0.0033423172 0.0029274274 0.005522447
-0.004401912 0.0069217244 0.0017130675 -0.015356377 -0.0056574005 0.0025322486 -0.0060584187 0.005606231
-0.001685398 0.0021784266 -0.0054694465 0.0023421024 -0.007952828 -0.013954756 0.007757701 -0.00096624944
0.0019194138 -0.0063837566 -0.004255872 -0.014320689 0.01296062 0.0087701855 -0.008282817 0.001940369
-0.0014580659 -0.0044881143 -0.0028552504 -0.004923434 0.0034798905 0.0040007923 -0.00012465763 -0.010970298
0.0075835856 0.0030734038 -0.006180218 0.00984105 -0.0016327087 -0.0073495717 -0.0011142375 0.001629944
-0.0111174425 -0.006622463 0.0051293946 -0.0051553994 -0.0062156827 -0.0048968676 -0.0034897754 0.0030971768
0.0116512505 -0.00012471982 0.0019458613 0.00032944744 -0.003292577 -0.004501847 -0.0076630968 0.0023450775
-0.0030197024 0.0029790753 0.0025355096 -0.00076406496 0.0051849694 -0.0026136006 0.010039209 0.006182587
0.00875534 -0.0066487375 0.001082709 0.0035031852 0.0001699146 -0.009187695 -0.0016146416 0.0029856656
0.010623292 0.0059797065 -0.0008886989 -0.0016892164 -0.00060698786 -0.0024492154 -0.0013178812 -0.0006921193
-0.0006309161 0.0024564525 -0.004129321 0.0028865675 0.0060689356 -0.0011759623 -0.0023683305 0.00592292
0.016806528 -0.0013247462 0.008185882 -0.007432505 -0.009529046 0.015137741 -0.0056139207 0.002998375
0.0007618549 0.004472762 0.01130036 0.0019815054 -0.00047397715 0.008831902 -0.004106357 0.0043774745
0.00116787 -0.0032934782 -0.007544588 -0.005959304 5.7588855e-05 -0.011083125 0.0018983622 0.00653309
-0.005585006 -0.0007066661 -0.004314119 -0.0038887516 0.013889439 0.004597493 0.0055881827 -0.0060319263
-0.00016351634 -0.007736788 -0.012935022 0.008803198 0.002338768 -0.011649245 0.007940607 -0.002704134
0.0040412676 0.01016936 -0.0045057326 0.012173831 0.008123572 0.0020940923 -0.0009988833 -0.005970475
0.0027425548 0.0015977143 -0.0042508394 -0.0063692466 -0.008192376 0.006636148 0.0019077774 -0.006959108
-0.0075310813 0.0010997212 0.0022406469 -0.0046378877 -0.0016881559 0.004096379 -0.0024146077 -0.002244489
0.00040035075 0.000991459 -0.012197348 0.0029226842 -0.0051752995 -0.003537106 0.0048732045 0.0022661926
-0.0045638056 -0.0036982037 0.007945418 0.0018808907 0.013440171 0.0077195615 -0.011245224 -0.0091488715
0.0073223687 0.0038531986 0.012069034 -0.008499858 -0.0021882863 -0.010868913 0.0022437463 0.00441392
7.5151797e-06 0.0045501585 -0.0025946647 -0.0075116903 -0.010923042 -0.016406203 -0.008556414 0.0023301002
-0.007382236 0.006194437 -0.0058148997 0.008288215 -0.006322225 -0.0048844246 0.0064977664 -0.004371828
0.00084309897 -0.0015711021 -0.00089294725 -0.010513409 -0.008465355 0.0032982756 0.0009688153 0.006005684
-0.020494713 0.0010831432 -0.0049713165 0.013327007 0.0017327948 0.00089544896 0.0069798464 0.0019505918
0.0066452357 -0.004391584 -0.0005906534 -0.0032104426 -0.004602035 -0.006071863 -0.005763453 -0.006276497
0.008425395 -0.0065602246 -0.006112653 -0.0010058567 -0.0027003426 0.0059172376 -0.003856886 0.007166721
00000000: 730e e13b b1b5 20bb 9d6d cf3b 1239 1b3b
00000010: 56df 3c3c 9bdb f239 6d51 ebba 17c6 383b
00000020: a740 ce3b b512 febb 00fe b43c 63e8 173b
00000030: ed00 ea3a f8cf bb3b e967 9c3b dcf6 3cbb
00000040: 172b ee3b 639d 69bb 23e2 83bc 83b4 28ba
00000050: a7d0 74ba 47e0 783b 33b1 663b 1ed3 acbb
00000060: ddd3 7c3b e213 2a3b e46a 983b 7161 263c
00000070: 3800 fd3b c70a 5bbb 15da 3f3b a5f5 b43b
00000080: ea3d 90bb a2cf e23b 0289 e03a 5099 7bbc
00000090: b761 b9bb 15f4 253b b385 c6bb 79b4 b73b
000000a0: 93e8 dcba efc3 0e3b 0b39 b3bb f57d 193b
000000b0: 944c 02bc 7da2 64bc 5034 fe3b e74b 7dba
000000c0: d794 fb3a d52e d1bb d874 8bbb 53a1 6abc
000000d0: c858 543c d3b0 0f3c a7b4 07bc fb53 fe3a
000000e0: 931c bfba 0811 93bb 271f 3bbb c254 a1bb
000000f0: e00e 643b 1419 833b 87b6 02b9 c4bc 33bc
00000100: ba7f f83b 296b 493b 6d83 cabb 5b3c 213c
00000110: 9d00 d6ba add4 f0bb 9b0b 92ba d8a3 d53a
00000120: ef25 36bc 3f01 d9bb 7b14 a83b a0ee a8bb
00000130: edac cbbb e775 a0bb b7b4 64bb 01fa 4a3b
00000140: e3e4 3e3c 39c7 02b9 450c ff3a b0b9 ac39
00000150: 47c8 57bb 3b84 93bb b71a fbbb dfaf 193b
00000160: 33e6 45bb 973c 433b cb2a 263b 884b 48ba
00000170: ade6 a93b f148 2bbb 7f7b 243c 4c97 ca3b
00000180: 8f72 0f3c a7dd d9bb afe9 8d3a b295 653b
00000190: 1a2b 3239 fc87 16bc 62a2 d3ba 28ab 433b
000001a0: 510d 2e3c 6af1 c33b 93f7 68ba b268 ddba
000001b0: 441e 1fba 0483 20bb c1bc acba 576f 35ba
000001c0: 1064 25ba 6ffc 203b 414f 87bb 912c 3d3b
000001d0: ecdd c63b bf22 9aba fe35 1bbb 0e15 c23b
000001e0: d8ad 893c 1ba3 adba 141e 063c 5f8c f3bb
000001f0: b71f 1cbc 4a04 783c fbf4 b7bb 6380 443b
00000200: 38b7 473a 3f90 923b 2525 393c 25dc 013b
00000210: 2380 f8b9 afb3 103c 9f8e 86bb eb70 8f3b
00000220: 3713 993a 65d7 57bb 9738 f7bb 4446 c3bb
00000230: 908b 7138 ff95 35bc 77d2 f83a 8813 d63b
00000240: 6d02 b7bb 8f3f 39ba 745d 8dbb 6dda 7ebb
00000250: 8890 633c 91a6 963b 131d b73b 77a7 c5bb
00000260: 9575 2bb9 e284 fdbb 6aed 53bc 4a3b 103c
00000270: 0446 193b 7adc 3ebc 5219 023c d737 31bb
00000280: 9c6c 843b 639d 263c d3a4 93bb c074 473c
00000290: bb18 053c 0a3d 093b f6ec 82ba f9a3 c3bb
000002a0: 6fbc 333b 656a d13a a04a 8bbb 1db5 d0bb
000002b0: 5139 06bc 0b74 d93b 630e fa3a 3b09 e4bb
000002c0: 4ac7 f6bb 8524 903a d1d7 123b 6cf9 97bb
000002d0: 1d45 ddba eb3a 863b 653e 1ebb 4718 13bb
000002e0: 2be6 d139 d8f3 813a 63d7 47bc 818a 3f3b
000002f0: 8f95 a9bb cbce 67bb 67af 9f3b 6784 143b
00000300: fa8b 95bb 905d 72bb 802d 023c 3888 f63a
00000310: 2a34 5c3c 60f4 fc3b e33d 38bc 26e5 15bc
00000320: 7bf0 ef3b f285 7c3b 33bd 453c fd42 0bbc
00000330: 5a69 0fbb 8613 32bc d10b 133b a5a2 903b
00000340: e72a fc36 7f19 953b 400b 2abb a024 f6bb
00000350: 8ff6 32bc 4d66 86bc 3430 0cbc 98b4 183b
00000360: afe6 f1bb b4fa ca3b ea8a bebb 4bcb 073c
00000370: ab2a cfbb 860d a0bb 37eb d43b 8d41 8fbb
00000380: 6a03 5d3a 70ed cdba ad14 6aba 6f40 2cbc
00000390: 46b2 0abc e227 583b 18f8 7d3a 54cb c43b
000003a0: 87e4 a7bc 41f8 8d3a 6de6 a2bb 8559 5a3c
000003b0: f21e e33a 90bc 6a3a 32b7 e43b 00ab ff3a
000003c0: 47c0 d93b 47e7 8fbb 14d6 1aba 4a66 52bb
000003d0: abcc 96bb 7bf6 c6bb 59db bcbb 13ab cdbb
000003e0: ab0a 0a3c 27f7 d6bb a64c c8bb f3d6 83ba
000003f0: 3bf8 30bb 63e5 c13b cfc3 7cbb d0d6 ea3b

network_body._body_endoder.seq_layers.0.bias f4 [256]
-0.00854153 -0.041462548 0.041011497 0.010430492 -0.015107726 0.02334375 0.018747069 0.012351011
0.010175056 0.028951325 0.014638267 -0.007749116 0.03363839 0.017567126 -0.019679494 0.017981831
0.005381143 -0.0020419813 0.06719796 0.026368324 0.009141652 0.011768729 0.011379359 -0.02469637
0.0052080713 0.00842496 0.0059597804 0.0181544 0.04363832 -0.0044786283 -0.0022471107 -0.0009020585
0.043245826 0.018311959 -0.0056611896 0.028935416 0.018964224 -0.020650508 0.01520686 -0.01113117
0.0151569545 0.028884336 0.008104271 -0.0074261995 0.004610861 0.019983906 0.02586909 -0.002275123
0.058368143 0.017797977 0.027177459 0.0024383839 0.00053538417 0.0071698157 0.046207882 0.03616246
0.006889266 0.01265874 0.005348071 0.034445796 0.04154091 0.008317979 -0.0072701685 0.020924551
-0.01392999 0.0276907 0.041557506 0.0534079 -0.009088298 0.07606378 -0.003393839 0.008774464
0.009994743 0.059003815 4.1916097e-05 -0.0075425715 0.0003799009 0.0001971743 0.018549591 0.0006098772
-0.0033482607 0.026889259 -0.003065165 0.00773806 -0.0053096386 0.0057379818 0.03394615 0.016536044
0.029739298 -0.012620018 -0.0021048237 0.023093186 0.03920236 0.008765056 0.03108284 0.025641968
7.3175074e-06 -0.01266837 0.0013045686 0.019864108 0.029356584 0.0062707732 0.052985292 0.017441988
0.017169889 0.010384537 0.0062163197 0.0072973715 -0.005409871 0.015908275 0.015567252 0.00047346475
-0.0029123526 0.019840153 0.014641789 0.009516635 -0.008271197 0.025441885 -0.012478584 -0.01416627
0.0035585088 0.033880435 0.011483557 0.03655392 0.0023362294 0.023261944 0.024955567 0.036038913
0.0408593 0.0042911256 0.012655802 0.019458009 0.017040398 0.044213872 -0.007683023 -0.016227707
0.015944054 -0.0038880825 0.015779713 0.024127604 0.018341785 0.03159135 0.010976712 0.022753771
-0.016107863 0.017775377 0.020382557 -0.011791256 0.035707977 0.054612942 0.010630814 0.025088288
0.069341056 0.04904159 0.004050433 0.087912716 0.00022473201 0.02645971 0.013808879 0.016629398
0.000723276 0.023817725 0.021595906 0.0019998546 0.03401169 -0.016431527 0.029464658 0.0019679659
0.022290932 6.8195124e-07 0.040799033 0.0114112245 0.017337352 0.037194118 -0.05517395 -0.0055790357
0.026740968 0.00041488072 0.011124512 -0.0074697356 0.0051560057 0.021954825 0.051472325 0.010138123
-0.005143162 0.0209175 0.0005248969 -0.007404614 0.035199556 0.03242657 0.030504163 0.008025771
0.03830342 0.025132548 0.048624728 0.039608337 0.019792335 0.023523787 0.041741796 0.03955166
-0.006630941 0.012436379 0.011321203 -0.010235866 0.036615968 -0.00591073 0.02761829 0.044381686
0.004206331 0.021389147 0.04354087 0.014570355 0.021601427 -0.016993644 -0.005405393 0.044917587
-0.009480119 0.019416453 0.049820803 0.029820098 0.0017140375 -0.0027308601 -0.0039921105 0.03473648
0.024607087 0.045032285 -0.020078138 0.038240645 0.014654533 0.016991334 0.026840476 -0.014074131
-0.024333283 0.017548295 0.0005274546 0.029881451 0.035489086 0.028477492 0.0065228282 -0.0043598074
0.016960144 0.024725696 0.006954817 0.01398465 0.012193524 0.012463191 -0.004335641 -0.010687326
0.041903622 0.012871698 0.034561407 -0.011185651 -0.010953516 0.033791065 -0.00442682 0.01429465
00000000: c6f1 0bbc a2d4 29bd acfb 273d a8e4 2a3c
00000010: 6586 77bc 643b bf3c 7493 993c e55b 4a3c
00000020: 47b5 263c 542b ed3c 58d5 6f3c 4cec fdbb
00000030: 69c8 093d efe8 8f3c e436 a1bc a24e 933c
00000040: 4d54 b03b c3d2 05bb 169f 893d 6202 d83c
00000050: dec6 153c a1d1 403c 7e70 3a3c 0b50 cabc
00000060: 78a8 aa3b d808 0a3c 434a c33b 89b8 943c
00000070: 18be 323d 75c1 92bb 4344 13bb 1f78 6cba
00000080: 8922 313d f602 963c 8081 b9bb f709 ed3c
00000090: dc5a 9b3c 412b a9bc 3226 793c 835f 36bc
000000a0: e054 783c d89e ec3c c7c7 043c 7a57 f3bb
000000b0: b516 973b 4ab5 a33c 6aeb d33c 3b1a 15bb
000000c0: 6f13 6f3d 10cd 913c 43a3 de3c 4bcd 1f3b
000000d0: 0659 0c3a c6f0 ea3b 7a44 3d3d 161f 143d
000000e0: 5abf e13b 9b66 4f3c df3e af3b 0917 0d3d
000000f0: cd26 2a3d 2248 083c 983a eebb f769 ab3c
00000100: 9d3a 64bc 9bd7 e23c 3438 2a3d 3ec2 5a3d
00000110: 16e7 14bc 54c7 9b3d 2c6b 5ebb c5c2 0f3c
00000120: fec0 233c fcad 713d 11cf 2f38 ad27 f7bb
00000130: 702d c739 93c0 4e39 50f5 973c 2be0 1f3a
00000140: 7e6e 5bbb dd46 dc3c efe0 48bb 8d8f fd3b
00000150: 7afc adbb ae05 bc3b 1e0b 0b3d 9976 873c
00000160: d49f f33c 31c4 4ebc 15f1 09bb ec2d bd3c
00000170: a792 203d 4f9b 0f3c 71a1 fe3c 1b0f d23c
00000180: e988 f536 ff8e 4fbc 0ffe aa3a 0eba a23c
00000190: 387d f03c 0f7b cd3b 1b07 593d 80e2 8e3c
000001a0: dea7 8c3c e823 2a3c 45b2 cb3b ca1e ef3b
000001b0: 4a45 b1bb 1252 823c ca0d 7f3c 5d3b f839
000001c0: 2bdd 3ebb d187 a23c 1de4 6f3c a9eb 1b3c
000001d0: ea83 07bc 806b d03c fa72 4cbc a519 68bc
000001e0: df35 693b 36c6 0a3d 8725 3c3c 90b9 153d
000001f0: 6d1b 193b d58f be3c 9e6f cc3c 8a9d 133d
00000200: 155c 273d 929c 8c3b 485a 4f3c 6766 9f3c
00000210: 4e98 8b3c 9b19 353d dec1 fbbb f8ef 84bc
00000220: 1b9d 823c 33cf 7ebb 7544 813c 41a7 c53c
00000230: 8341 963c ee65 013d abd7 333c 1e66 ba3c
00000240: a3f4 83bc ab9d 913c 52f9 a63c 1d30 41bc
00000250: 8742 123d d2b1 5f3d de2c 2e3c f485 cd3c
00000260: af02 8e3d d6df 483d 7fb9 843b 950b b43d
00000270: 0aa6 6b39 09c2 d83c a33e 623c 603a 883c
00000280: 3b9a 3d3a 641d c33c e6e9 b03c fe0f 033b
00000290: d84f 0b3d 699b 86bc de5f f13c fdf8 003b
000002a0: 799b b63c 550f 3735 e31c 273d 25f6 3a3c
000002b0: 1007 8e3c dc58 183d 14fe 61bd 58d0 b6bb
000002c0: e00f db3c 5984 d939 9643 363c afc4 f4bb
000002d0: b6f3 a83b 9bda b33c a5d4 523d 5f1a 263c
000002e0: f887 a8bb 2d5b ab3c 3c99 093a 67a2 f2bb
000002f0: 692d 103d b9d1 043d dee3 f93c 867e 033c
00000300: 0ce4 1c3d c6e2 cd3c b92a 473d 5a3c 223d
00000310: 8923 a23c f5b4 c03c 72f9 2a3d ec00 223d
00000320: 5d48 d9bb f4c1 4b3c 917c 393c 55b4 27bc
00000330: a0fa 153d ccae c1bb c13f e23c 92c9 353d
00000340: 43d5 893b 4b38 af3c e957 323d 80b8 6e3c
00000350: 7af5 b03c 4136 8bbc b91f b1bb 81fb 373d
00000360: 8052 1bbc 410f 9f3c e610 4c3d 4749 f43c
00000370: 8ea9 e03a 3bf8 32bb 40d0 82bb d747 0e3d
00000380: cd94 c93c c673 383d e87a a4bc 39a2 1c3d
00000390: 9119 703c 6931 8b3c 8fe0 db3c 2f97 66bc
000003a0: 9856 c7bc 71c1 8f3c e144 0a3a f2c9 f43c
000003b0: 015d 113d a149 e93c 73bd d53b b7dc 8ebb
000003c0: 00f0 8a3c 8b8d ca3c 3ce5 e33b e01f 653c
000003d0: 59c7 473c 6932 4c3c fe11 8ebb e519 2fbc
000003e0: 22a3 2b3d d0e3 523c 4390 0d3d 0544 37bc
000003f0: 6076 33bc 8068 0a3d dc0e 91bb 1c34 6a3c

network_body._body_endoder.seq_layers.0.weight f4 [256, 46]
-0.015366461 0.18919465 -0.30482665 -0.095241375 -0.010959094 -0.04938591 -0.0276823 0.28627145
-0.26010025 0.20542505 -0.19650371 0.09369188 -0.06580534 -0.12218385 -0.16674273 -0.17424802
0.023887275 -0.11633458 0.05198434 0.058518805 0.34511957 0.37157243 -0.058485374 -0.17280352
0.12140727 0.08728247 0.08543733 0.0097351335 0.19077109 -0.3038851 -0.091567166 0.1689651
-0.1545068 0.1448419 0.04212921 0.035232298 0.026750853 0.1830496 -0.13051581 -0.15378112
-0.14955899 -0.71517074 0.040219393 0.12309017 -0.068897374 0.2918775 -0.38063315 -0.19262356
0.1298234 -0.008846651 -0.039212972 0.0045225914 -0.35768214 -0.010176009 0.034300607 0.0111145275
0.30367395 -0.22633772 -0.05181091 0.117546774 0.14270394 -0.027118055 -0.06839018 -0.16286287
-0.04256248 0.13669436 -0.0053370986 -0.25879756 -0.2966614 0.021885224 -0.17535351 -0.13476987
0.26791355 -0.118715025 0.026311949 -0.33645916 0.01265017 -0.096902385 0.068445526 0.053895656
0.003927357 -0.15600239 0.007581601 0.23434648 0.10172985 -0.12166411 -0.03175099 0.03950205
-0.087786764 -0.041551195 0.14194441 -0.048236717 0.12898839 0.1778966 -0.021339599 -0.17009774
-0.05914856 -0.027121462 -0.26115853 0.08112453 -0.20953676 0.04930615 -0.025292072 0.009997008
0.18548493 0.040129382 -0.15270776 -0.18026923 -0.06266002 -0.046916634 -0.11908829 -0.03161594
-0.06117869 0.05068346 0.08939363 0.12626132 0.006176632 0.016055379 -0.040686943 -0.07145963
0.23114304 0.066817224 -0.099014334 -0.21979585 0.021904275 0.106824346 0.0026117112 0.25687292
0.2175318 -0.16297469 0.09391058 -0.16473743 0.031336788 0.24824788 -0.20908934 -0.14745611
-0.16798577 -0.24627972 -0.087400965 0.05867768 0.09209859 0.029034702 -0.0011023058 -0.08441279
0.25016153 -0.007906248 -0.21900223 -0.15125403 0.10809345 0.046142463 0.20989902 -0.029968977
0.223279 0.0026078233 0.14763257 -0.19464181 0.08991093 0.13541734 0.09590325 -0.04361545
-0.017809113 0.2690461 0.04493832 -0.1748797 0.10232808 -0.052457888 -0.09587197 0.044764157
0.16160241 -0.11086673 0.0797953 -0.14496271 -0.29462755 0.14273417 0.00034686262 -0.17254782
-0.23175207 0.05538827 0.00842419 0.13759992 0.19120151 0.043321766 -0.18531854 0.022287115
-0.218993 -0.080489144 0.32731804 -0.091924615 0.08805877 -0.021913351 0.0478211 -0.261885
-0.16767626 0.10894556 0.078154 0.16530295 -0.21123543 0.10411645 0.075631425 0.21585265
-0.14501396 -0.0020917547 -0.09007078 -0.07424095 -0.19557138 -0.049975183 0.013349981 -0.10618867
0.05255575 -0.14321266 -0.1907385 0.1294593 0.22409841 -0.056642108 0.19331755 -0.1875321
0.07862355 -0.2418023 -0.19390738 -0.14632079 -0.07859384 -0.07027094 -0.042818904 0.15832373
0.109666064 -0.05344161 -0.0008559295 -0.011631382 0.16943313 0.17092042 -0.059160333 0.034177978
0.064323425 0.16303003 -0.015863908 0.22305726 -0.32467103 0.08114396 -0.3088573 0.109094545
0.04809976 0.12615299 -0.21037178 -0.051691867 0.052061744 0.1571463 0.1527856 -0.06131974
-0.1891589 0.100001715 0.13687721 -0.049264636 0.087524466 0.03978642 -0.13328508 -0.070043385
00000000: 9cc3 7bbc 3ebc 413e 3d12 9cbe e90d c3bd
00000010: c68d 33bc e148 4abd fec5 e2bc 2c92 923e
00000020: dc2b 85be f25a 523e 4538 49be 87e1 bf3d
00000030: f3c4 86bd 873b fabd 9bbe 2abe 136e 32be
00000040: 3faf c33c d340 eebd 88ed 543d 6ab1 6f3d
00000050: 83b3 b03e be3e be3e 5c8e 6fbd 68f3 30be
00000060: 60a4 f83d 27c1 b23d c4f9 ae3d 1c80 1f3c
00000070: 7f59 433e d496 9bbe 9187 bbbd 3005 2d3e
00000080: 0837 1ebe 6f51 143e ae8f 2c3d be4f 103d
00000090: 9b24 db3c 5b71 3b3e f0a5 05be cc78 1dbe
000000a0: fe25 19be 6e15 37bf 17bd 243d b316 fc3d
000000b0: 111a 8dbd f870 953e 59e2 c2be 1c3f 45be
000000c0: 6df0 043e 8bf1 10bc c89d 20bd 3f32 943b
000000d0: 1d22 b7be 46b9 26bc cb7e 0c3d b519 363c
000000e0: 277b 9b3e 13c5 67be ad37 54bd 5dbc f03d
000000f0: fb20 123e af26 debc 2710 8cbd 86c5 26be
00000100: ff55 2ebd 9bf9 0b3e d4e2 aebb 1d81 84be
00000110: 01e4 97be a448 b33c df8f 33be 1d01 0abe
00000120: f72b 893e dd20 f3bd 288c d73c 6044 acbe
00000130: a942 4f3c c274 c6bd 2b2d 8c3d b1c1 5c3d
00000140: 0fb1 803b 17bf 1fbe 146f f83b 86f8 6f3e
00000150: bd57 d03d 082b f9bd 530d 02bd e7cc 213d
00000160: 8cc9 b3bd 9631 2abd e059 113e dd93 45bd
00000170: 8815 043e 872a 363e 62d0 aebc 1a2e 2ebe
00000180: c345 72bd d42d debc 92b6 85be 9e24 a63d
00000190: ce90 56be 3ff5 493d 5231 cfbc 7eca 233c
000001a0: c3ef 3d3e b55e 243d 6c5f 1cbe 7f98 38be
000001b0: e653 80bd a82b 40bd 90e4 f3bd b77f 01bd
000001c0: 8296 7abd 7699 4f3d 0214 b73d a64a 013e
000001d0: 5865 ca3b 9286 833c 5aa7 26bd 6d59 92bd
000001e0: c3b0 6c3e 78d7 883d 07c8 cabd 2a12 61be
000001f0: 9870 b33c b9c6 da3d 3e29 2b3b d984 833e
00000200: a8c0 5e3e d6e2 26be 3154 c03d eeb0 28be
00000210: 015b 003d b134 7e3e 841b 56be bcfe 16be
00000220: 7604 2cbe c030 7cbe 47ff b2bd 0258 703d
00000230: 309e bc3d 2fda ed3c 3f7b 90ba 9de0 acbd
00000240: 2c15 803e 3589 01bc 1f42 60be 56e2 1abe
00000250: 1960 dd3d e1ff 3c3d c5ef 563e 8081 f5bc
00000260: 40a3 643e 04e8 2a3b fe2c 173e 2f50 47be
00000270: 3923 b83d d8aa 0a3e ec68 c43d 1da6 32bd
00000280: 6be4 91bc 69c0 893e 3e11 383d aa13 33be
00000290: 6291 d13d 15de 56bd 8658 c4bd 9f5a 373d
000002a0: 1a7b 253e 190e e3bd b86b a33d 1b71 14be
000002b0: 6cd9 96be e828 123e 1ddb b539 60b0 30be
000002c0: 6a50 6dbe d0de 623d 9d05 0a3c fee6 0c3e
000002d0: 54ca 433e 2a72 313d 25c4 3dbe 7893 b63c
000002e0: b33f 60be 7ed7 a4bd 3b96 a73e f942 bcbd
000002f0: 2858 b43d a183 b3bc 0fe0 433d ca15 86be
00000300: 53b3 2bbe da1e df3d 340f a03d 2d45 293e
00000310: 1a4e 58be 013b d53d a6e4 9a3d 7a08 5d3e
00000320: 8a7e 14be d215 09bb 0777 b8bd a40b 98bd
00000330: dd43 48be c7b2 4cbd e1b9 5a3c 7279 d9bd
00000340: b344 573d 57a6 12be f450 43be fb90 043e
00000350: 0e7a 653e 8e01 68bd 09f5 453e 6a08 40be
00000360: 6205 a13d 069b 77be a88f 46be 1ed5 15be
00000370: cff5 a0bd 36ea 8fbd e062 2fbd 9e1f 223e
00000380: 9a98 e03d 97e5 5abd 7560 60ba 8d91 3ebc
00000390: e17f 2d3e c305 2f3e 1b52 72bd 35fe 0b3d
000003a0: 00bc 833d 58f1 263e 07f5 81bc 1f69 643e
000003b0: 483b a6be ce2e a63d 8b22 9ebe f66c df3d
000003c0: 4104 453d 402e 013e b36b 57be daba 53bd
000003d0: b23e 553d f6ea 203e d473 1c3e 682a 7bbd
000003e0: dfb2 41be b3cd cc3d 8a29 0c3e b7c9 49bd
000003f0: 0740 b33d 16f7 223d e27b 08be e872 8fbd

network_body._body_endoder.seq_layers.2.bias f4 [256]
0.007215618 -0.0021269766 0.0129470555 0.0052790614 -0.004547278 0.004605831 0.012839036 0.034560215
-0.008155408 0.043642707 0.0065086302 0.043555472 0.00060967036 0.00886941 0.03850817 0.007081018
0.037319973 0.032792352 -0.0019045604 0.008652209 0.0032031927 0.00037605874 -0.0019975423 0.018164527
0.019859914 0.00558195 -0.0005162618 -0.0012808461 -0.00546939 0.02330829 -0.0012289836 0.014308645
0.019790458 0.007391073 0.0018946221 0.007886103 0.022131942 0.010604887 0.015487624 -0.01067117
0.00282218 0.029811481 -0.004055481 0.031018928 0.0030877218 0.018434208 0.006821481 -0.0037741465
0.024333308 0.010968767 -0.0053159106 -0.010031263 0.02404526 0.020754939 0.0011820268 0.027953805
0.022187129 -0.009422067 0.00706311 0.0084431125 0.0041914205 0.037071444 0.030696763 0.003671165
0.02288634 0.0012782782 -0.00705883 0.01059232 0.008657651 0.02624922 0.024369461 -0.006137331
0.00982255 0.006238109 0.02617959 0.03181206 0.009958925 0.0062163062 0.0031790864 0.0037160816
-0.0011673073 0.016563158 -0.00093876384 -0.00847145 -0.0044256593 0.009612216 0.031380415 0.016012294
0.008566245 0.00096846465 -0.0060109566 0.025992945 0.009514982 -0.00093220035 0.009281253 0.015527534
0.0034799592 0.018216072 0.012283791 0.012641317 -0.0028856923 0.02826367 0.020775814 0.022363067
-0.0017271602 0.010204854 0.022381054 -0.0020482563 0.010639685 0.009341813 0.002639486 0.01255428
-0.004848975 0.003596998 0.003696951 0.017158417 0.013249884 -0.003583136 0.05452553 -0.0008473112
0.019865366 -0.007267535 0.025870554 0.007718422 0.0053983866 0.015173013 0.01997739 0.036020193
0.033264685 0.0153262345 0.0055774134 7.388028e-06 -0.015142905 0.010083629 0.012881448 -0.0012616074
-0.011147453 0.0044236816 0.018411089 0.02394366 0.045220055 0.015491707 0.032162435 -0.001846243
0.019916609 0.035455614 -0.005740189 0.012588931 0.0059234668 0.00070149865 -0.0049829893 0.004637261
-0.0147349015 0.0015886809 0.031822782 -0.0006178602 0.014265754 0.017805899 0.0032791386 0.004267244
0.014180499 0.03398719 0.0010173998 0.0024338672 0.014208287 -0.0039981217 -0.013162534 0.033891566
0.0059454422 0.016415823 -0.011498727 0.011585585 -0.005209444 0.01996032 0.05309263 0.021938484
-0.0022437247 -0.011551271 0.022426505 0.02284017 0.010842258 0.0018930797 0.008085781 -0.007682415
-0.0088055525 0.020634728 0.010813801 -0.0047299634 0.014750091 0.022672001 0.025149206 0.0054847067
-0.0038132842 0.0527673 0.006574106 -0.005574368 0.001180614 0.002933765 -0.004682722 0.00049280876
0.0069021955 0.010445697 0.023765495 0.005213664 0.024625907 0.008506933 0.03743437 0.023978738
0.028895378 -0.010360449 0.008896804 0.0075945808 -0.005271421 0.027270738 0.032677557 -0.0032397178
0.011936493 0.03316262 -0.0085491445 0.019497598 0.04658476 0.006559988 0.01747666 0.018462243
0.028805973 0.0154370405 0.018791238 0.00815706 0.0019060556 0.011629804 0.018059697 7.258316e-05
0.004243517 0.0206176 0.020822346 0.023354558 0.03400108 0.04570105 0.033610713 0.0023501923
0.018049868 0.00028643524 0.014427558 0.018335633 0.040305924 0.0008458507 0.011732672 0.0059194467
0.0062288204 -0.0032283312 -0.0024555079 0.013951202 0.008099026 -0.0048115486 0.030153735 0.009949631
00000000: fe70 ec3b bf64 0bbb e31f 543c fafb ac3b
00000010: 5501 95bb 83ec 963b d25a 523c 038f 0d3d
00000020: 439e 05bc b2c2 323d 5946 d53b 3967 323d
00000030: 49d2 1f3a 0051 113c beba 1d3d e207 e83b
00000040: d4dc 183d 4651 063d 71a2 f9ba ffc1 0d3c
00000050: a8ec 513b c029 c539 33e9 02bb c6cd 943c
00000060: 42b1 a23c cae8 b63b be55 07ba 10e2 a7ba
00000070: 9238 b3bb 07f1 be3c d915 a1ba cf6e 6a3c
00000080: 991f a23c d030 f23b f854 f83a b734 013c
00000090: 0c4e b53c 1fc0 2d3c cebf 7d3c 22d6 2ebc
000000a0: 53f4 383b 3537 f43c d7e3 84bb 681b fe3c
000000b0: 605b 4a3b 5603 973c bb86 df3b ac57 77bb
000000c0: a556 c73c 58b6 333c 1731 aebb 2b5a 24bc
000000d0: 91fa c43c 4306 aa3c 3dee 9a3a 61ff e43c
000000e0: c8c1 b53c 035f 1abc a971 e73b fb54 0a3c
000000f0: 2f58 893b 3ad8 173d c777 fb3c ee97 703b
00000100: 227c bb3c e68b a73a c24d e7bb 698b 2d3c
00000110: d2d8 0d3c 9b08 d73c 77a2 c73c aa1b c9bb
00000120: c3ee 203c 0d69 cc3b 9476 d63c 5d4d 023d
00000130: c22a 233c 28b2 cb3b 3858 503b 8189 733b
00000140: 5500 99ba 76af 873c 6017 76ba d6cb 0abc
00000150: 1f05 91bb 8e7c 1d3c c088 003d 372c 833c
00000160: 7059 0c3c 90e0 7d3a 8ff7 c4bb 28ef d43c
00000170: bae4 1b3c e85e 74ba 6610 183c 3367 7e3c
00000180: 0710 643b df39 953c f441 493c 871d 4f3c
00000190: e21d 3dbb 3689 e73c 0a32 aa3c c032 b73c
000001a0: e161 e2ba 4332 273c 7958 b73c 0a3c 06bb
000001b0: 1352 2e3c 670e 193c 3afb 2c3b 78b0 4d3c
000001c0: 27e4 9ebb 9dbb 6b3b 8c48 723b cf8f 8c3c
000001d0: 0b16 593c 0cd3 6abb 2a56 5f3d 181e 5eba
000001e0: b1bc a23c 8124 eebb 7cee d33c d1ea fc3b
000001f0: f3e4 b03b 3b98 783c a0a7 a33c e989 133d
00000200: 8d40 083d e31a 7b3c bcc2 b63b ade6 f736
00000210: f219 78bc ce35 253c b50c 533c 855c a5ba
00000220: cfa3 36bc 88f4 903b dad2 963c 7f25 c43c
00000230: aa38 393d eed0 7d3c c2bc 033d a3fd f1ba
00000240: 2828 a33c e839 113d 3218 bcbb ce41 4e3c
00000250: a419 c23b c7e4 373a 5848 a3bb 2af4 973b
00000260: a86a 71bc 493b d03a 9b58 023d e5f7 21ba
00000270: e9ba 693c addd 913c d1e6 563b 3dd4 8b3b
00000280: 5355 683c 2736 0b3d 465a 853a 8481 1f3b
00000290: e0c9 683c ad02 83bb aba7 57bc e2d1 0a3d
000002a0: fcd1 c23b 7a7a 863c 2865 3cbc 77d1 3d3c
000002b0: fcb3 aabb d383 a33c a877 593d 56b8 b33c
000002c0: 740b 13bb 8b41 3dbc cab7 b73c 4f1b bb3c
000002d0: baa3 313c 3721 f83a 397a 043c c5bc fbbb
000002e0: 2a45 10bc 290a a93c 5e2c 313c cffd 9abb
000002f0: 5eaa 713c a2ba b93c b505 ce3c 0eb9 b33b
00000300: 4be8 79bb 8622 583d 996b d73b 30a9 b6bb
00000310: d5be 9a3a 6944 403b 8571 99bb d62f 013a
00000320: d02b e23b 6e24 2b3c dbaf c23c 62d7 aa3b
00000330: 45bc c93c aa60 0b3c c854 193d 0f6f c43c
00000340: 00b6 ec3c dfbe 29bc e7c3 113c f6db f83b
00000350: e2bb acbb e266 df3c e7d8 053d 7251 54bb
00000360: 4891 433c 87d5 073d b611 0cbc 6db9 9f3c
00000370: a9cf 3e3d 2bf5 d63b 362b 8f3c 213e 973c
00000380: 81fa eb3c a4eb 7c3c 15f0 993c 30a5 053c
00000390: 9dd4 f93a ef8a 3e3c eef1 933c ca37 9838
000003a0: 330d 8b3b 3ee6 a83c a093 aa3c 0f52 bf3c
000003b0: b744 0b3d 0631 3b3d 63ab 093d af05 1a3b
000003c0: 51dd 933c b02c 9639 9061 6c3c 9c34 963c
000003d0: d317 253d 14bc 5d3a 653a 403c ebf7 c13b
000003e0: 221b cc3b 6992 53bb 96ec 20bb 9593 643c
000003f0: c7b1 043c 32aa 9dbb f704 f73c c703 233c

network_body._body_endoder.seq_layers.2.weight f4 [256, 256]
0.15605743 0.102790646 0.040354304 0.02119708 0.030730117 0.02675605 0.15123864 0.09018226
0.19435701 -0.13855913 0.04775169 -0.0775348 -0.037190996 -0.164924 0.1247551 -0.071156316
-0.031614535 0.08131908 -0.052825484 -0.040390763 -0.0472638 0.0880818 -0.054177262 -0.038248677
-0.014218272 -0.024092767 0.11091381 0.21444312 0.08458562 -0.04279517 0.029813386 -0.06750138
-0.061999697 -0.12622564 0.015815398 -0.083705276 0.033524267 -0.06727865 0.07333062 0.031857762
0.07837446 0.0854242 -0.07248715 -0.10148387 -0.05308886 0.16520464 0.105563246 0.0027243122
-0.1011808 0.070959814 -0.040223803 -0.016516749 0.10857027 -0.05030286 -0.03943785 -0.13926543
-0.020447927 -0.09316929 -0.017063504 -0.08069814 0.03963857 0.05652107 0.05768901 0.014301108
0.063990325 -0.043967552 0.052933652 0.11253613 -0.06603775 -0.029020421 -0.07629122 -0.07279907
0.036531404 -0.09532412 0.00044973142 0.068109885 0.0070466804 -0.07332802 0.030858494 0.03043948
0.097595096 0.04813314 -0.06400548 -0.028420106 0.033770807 0.06418401 0.090326026 -0.075882815
-0.06509285 -0.08707571 0.11811366 0.025562696 0.07396795 0.17790887 0.015837222 0.07963007
0.037430942 0.009211546 -0.06461337 0.039406225 0.063166946 0.01850076 -0.1426597 -0.029937472
0.021061622 -0.00040234186 -0.08095131 0.16058215 0.013657056 -0.060317107 0.02611376 -0.035448406
0.05726616 -0.04027839 0.040764496 0.078858376 0.005071024 -0.028735 0.07772882 -0.1560661
-0.055019297 -0.033373553 0.056845024 0.098317154 -0.00011510589 -0.0066674496 -0.053936668 0.12835158
-0.11974885 0.04143739 -0.06005721 0.038146123 0.089873135 -0.057455815 -0.06649506 0.010356251
0.042469803 -0.06683367 -0.0010830871 -0.10481135 0.123313025 0.08639402 -0.018169433 0.12648302
0.011240358 -0.04161681 -0.03573017 -0.092182554 0.13482857 -0.048001777 0.06835526 -0.029457696
-0.092411086 -0.19043791 0.20306396 -0.05700179 -0.04108383 0.07608706 -0.048865005 -0.10785013
0.0048212465 0.10280121 -0.06441825 0.09018768 -0.09267044 0.1078021 0.028242407 0.1711741
0.036581803 0.025717728 -0.12666403 -0.041769598 0.048600037 -0.012005228 0.020560905 -0.055826668
0.09085257 -0.056837145 -0.10947151 0.13502014 -0.105319075 0.036026996 -0.053109664 -0.055011414
0.049349535 0.021266164 -0.028207723 -0.046974093 0.059576195 -0.043691643 -0.08717849 0.07097248
0.072383 0.03599783 0.048895665 -0.07714901 0.01504501 -0.043038715 -0.018719211 -0.14083983
-0.0400174 0.17594507 0.0010830695 0.048323926 -0.0009823635 0.009244626 0.05300571 -0.06677968
0.057786852 0.04245175 0.06678415 0.21892762 -0.03438955 0.018619103 -0.01077213 0.09602347
-0.05129367 0.0018069115 0.027238611 -0.032114696 0.089030094 -0.056272306 0.15323325 0.09361948
0.100587875 0.016999887 0.043156978 -0.07102559 0.05114885 0.016715694 0.068426475 0.15475321
-0.13844164 0.11983997 0.02416803 -0.011379432 -0.045544937 0.010555204 0.070666775 -0.06703168
-0.022958694 -0.015445722 -0.0042990255 0.07501115 0.11352529 -0.05198882 0.06508835 -0.12410056
0.07920915 0.13076462 -0.06455145 -0.044497278 0.029345568 0.15539509 0.061565693 -0.04112133
00000000: 85cd 1f3e e783 d23d 8e4a 253d 80a5 ad3c
00000010: babd fb3c 812f db3c 4dde 1a3e 7ab1 b83d
00000020: 8605 473e 72e2 0dbe 4797 433d 91ca 9ebd
00000030: 9655 18bd d6e1 28be 9a7f ff3d 67ba 91bd
00000040: 3e7e 01bd 9e8a a63d 895f 58bd c970 25bd
00000050: b097 41bd 3b64 b43d fae8 5dbd a5aa 1cbd
00000060: c1f3 68bc 325e c5bc c826 e33d fa96 5b3e
00000070: 3a3b ad3d fd49 2fbd 343b f43c 2a3e 8abd
00000080: 65f3 7dbd 4b41 01be 4b8f 813c ac6d abbd
00000090: be50 093d 64c9 89bd 5d2e 963d 497d 023d
000000a0: ca82 a03d e2f2 ae3d 2574 94bd c6d6 cfbd
000000b0: b473 59bd 682b 293e 8b31 d83d 608a 323b
000000c0: e137 cfbd 6153 913d b7c1 24bd 224e 87bc
000000d0: 175a de3d 5f0a 4ebd 9589 21bd 999b 0ebe
000000e0: 6982 a7bc 8acf bebd c3c8 8bbc 1145 a5bd
000000f0: 0e5c 223d a382 673d 504b 6c3d 324f 6a3c
00000100: 5c0d 833d 5217 34bd f5d0 583d 5879 e63d
00000110: cd3e 87bd 3cbc edbc 923e 9cbd ae17 95bd
00000120: f4a1 153d 4b39 c3bd eec9 eb39 327d 8b3d
00000130: d7e7 e63b 002d 96bd f4ca fc3c 375c f93c
00000140: f0df c73d 4127 453d 4e15 83bd 48d1 e8bc
00000150: 4253 0a3d e872 833d dafc b83d 7368 9bbd
00000160: 664f 85bd c054 b2bd 93e5 f13d dc68 d13c
00000170: 827c 973d be2d 363e 10bd 813c 1715 a33d
00000180: 3051 193d 06ec 163c 0454 84bd 6c68 213d
00000190: ac5d 813d e88e 973c 6215 12be 6e3f f5bc
000001a0: 6c89 ac3c 69f1 d2b9 cdc9 a5bd a66f 243e
000001b0: d8c1 5f3c 120f 77bd 86ec d53c 5932 11bd
000001c0: ec8f 6a3d f4fa 24bd acf8 263d 8080 a13d
000001d0: d52a a63b aa65 ebbc 4a30 9f3d cbcf 1fbe
000001e0: ea5b 61bd b5b2 08bd 54d6 683d 815a c93d
000001f0: 0165 f1b8 9f7a dabb b2ec 5cbd 996e 033e
00000200: e33e f5bd 41ba 293d 8dfe 75bd 1c3f 1c3d
00000210: 680f b83d ca56 6bbd 902e 88bd 44ad 293c
00000220: d1f4 2d3d 17e0 88bd 5ff6 8dba 55a7 d6bd
00000230: 8a8b fc3d 59ef b03d 10d8 94bc c484 013e
00000240: 7b29 383c 6376 2abd cc59 12bd 35ca bcbd
00000250: 8010 0a3e 839d 44bd d8fd 8b3d 4451 f1bc
00000260: 0642 bdbd 2802 43be 00f0 4f3e b57a 69bd
00000270: 8547 28bd 88d3 9b3d ac26 48bd 87e0 dcbd
00000280: 8cfb 9d3b 7189 d23d b7ed 83bd 52b4 b83d
00000290: 00ca bdbd 59c7 dc3d 9f5c e73c 4348 2f3e
000002a0: cdd6 153d fcad d23c 37b4 01be 9916 2bbd
000002b0: d510 473d 93b1 44bc 586f a83c 81aa 64bd
000002c0: ea10 ba3d 11ce 68bd 9932 e0bd b842 0a3e
000002d0: 87b1 d7bd 0b91 133d 8589 59bd a653 61bd
000002e0: bd22 4a3d 6136 ae3c e213 e7bc e867 40bd
000002f0: 2b06 743d 02f6 32bd a38a b2bd 055a 913d
00000300: 8a3d 943d 7672 133d d246 483d 4d00 9ebd
00000310: 587f 763c 5d49 30bd 0859 99bc 5138 10be
00000320: 49e9 23bd f22a 343e c8f5 8d3a 4fef 453d
00000330: a6c2 80ba c676 173c 841c 593d c9c3 88bd
00000340: e8b1 6c3d e3e1 2d3d 21c6 883d 902e 603e
00000350: 0fdc 0cbd 1787 983c 977d 30bc f4a7 c43d
00000360: 5019 52bd e4d5 ec3a 8223 df3c b38a 03bd
00000370: 6955 b63d ca7d 66bd 2de9 1c3e 92bb bf3d
00000380: 0401 ce3d 5943 8b3c 5fc5 303d dd75 91bd
00000390: 7581 513d 5aef 883c 2e23 8c3d a077 1e3e
000003a0: a5c3 0dbe a86e f53d 08fc c53c cc70 3abc
000003b0: 548d 3abd bcef 2c3c beb9 903d e847 89bd
000003c0: df13 bcbc 0e10 7dbc d7de 8cbb 729f 993d
000003d0: f27f e83d 3bf2 54bd 0a4d 853d 6f28 febd
000003e0: 6838 a23d 29e7 053e 8d33 84bd c742 36bd
000003f0: 1e66 f03c e41f 1f3e 4f2c 7c3d d76e 28bd
